src/torchfort/torchfort_local/examples/fortran/burgers/burgers_inference_net.pt (torch, 15971 bytes, 17 tensors)

weight f4 [10, 2]
0.5406104 0.5869042 -0.16565566 0.6495563 -0.15492962 0.14268756 -0.3442585 0.41527155
0.62334496 -0.5187534 0.6146145 0.13234161 0.5224168 0.09576388 0.34095848 -0.09983712
0.5450986 0.10451668 -0.33010566 0.18024032
00000000: 7165 0a3f 5b3f 163f a3a1 29be 5249 263f
00000010: dfa5 1ebe b01c 123e a642 b0be 799e d43e
00000020: 8993 1f3f 06cd 04bf 6057 1d3f 8f84 073e
00000030: 1bbd 053f da1f c43d 1c92 ae3e 6777 ccbd
00000040: 958b 0b3f d70c d63d 9c03 a9be eb90 383e

bias f4 [10]
-0.32579 -0.082924426 -0.2871973 0.4690741 -0.558169 -0.32598352 -0.1996691 -0.42516384
0.06673894 -0.6983946
00000000: f2cd a6be 48d4 a9bd 860b 93be 7b2a f03e
00000010: 2ae4 0ebf 50e7 a6be 0e76 4cbe 13af d9be
00000020: 6dae 883d fdc9 32bf

weight f4 [10, 10]
0.28558818 -0.26862544 0.24413648 0.052626356 -0.10268059 0.19541293 0.04928434 0.25550044
0.03456992 -0.099729754 0.08496524 -0.08575447 0.13308685 0.28233516 0.18279848 -0.13824609
0.1825471 0.05658144 0.16059154 -0.19274242 -0.31303653 -0.12217793 -0.24255392 0.25947717
0.091083504 0.13098583 0.10001057 -0.0055010896 0.24748246 -0.22468412 0.019910878 -0.21583815
0.09750946 -0.10890324 0.096897334 -0.06588336 0.26227674 -0.1874288 -0.1885976 -0.18860899
0.28442878 0.105383255 0.30429038 -0.26097527 -0.31365877 -0.24740514 -0.21272296 0.12808494
0.11323353 0.26276135 -0.16330804 -0.2155762 0.16778354 -0.12782069 0.19192617 -0.07504105
0.1808968 -0.24569885 -0.15958427 0.09641039 0.066852935 -0.080625035 0.18849371 0.21497455
-0.22931994 -0.16882394 0.28955773 -0.106705524 -0.112107925 -0.3059803 -0.18109423 0.078994855
-0.041739907 -0.2295453 0.0074176574 -0.21600933 -0.2682866 -0.17413482 -0.27676636 -0.20135425
0.31610408 0.059727505 0.097448654 -0.29494068 -0.2076901 -0.10525825 0.04944889 -0.27825555
-0.13625401 -0.18931563 0.0008763488 -0.11766937 -0.021913245 -0.21428533 -0.21705721 -0.18448785
-0.10824395 -0.24959253 0.26514745 -0.06275984
00000000: 9d38 923e 4689 89be eafe 793e bc8e 573d
00000010: 334a d2bd 541a 483e 60de 493d f4d0 823e
00000020: 3099 0d3d 1d3f ccbd 4102 ae3d 0aa0 afbd
00000030: eb47 083e 3c8e 903e 862f 3b3e 6290 0dbe
00000040: a1ed 3a3e f1c1 673d 1c72 243e 455e 45be
00000050: 5346 a0be 6c38 fabd 0e60 78be 31da 843e
00000060: fd89 ba3d 2621 063e 57d2 cc3d 7c42 b4bb
00000070: 0b6c 7d3e 9813 66be 231c a33c ad04 5dbe
00000080: 0ab3 c73d a908 dfbd 1c72 c63d dbed 86bd
00000090: 2349 863e 56ed 3fbe bb1f 41be b722 41be
000000a0: a6a0 913e 2dd3 d73d f3cb 9b3e 8d9e 85be
000000b0: e297 a0be c657 7dbe 0cd4 59be b328 033e
000000c0: fbe6 e73d a888 863e 393a 27be 02c0 5cbe
000000d0: 73cf 2b3e 6de3 02be 4b88 443e 1faf 99bd
000000e0: 033d 393e 7b98 7bbe 0f6a 23be d072 c53d
000000f0: 31ea 883d bd1e a5bd 7f04 413e 4a22 5c3e
00000100: d9d2 6abe 2fe0 2cbe e940 943e 6d88 dabd
00000110: d798 e5bd 73a9 9cbe c470 39be 0ec8 a13d
00000120: 77f7 2abd ec0d 6bbe d20f f33b 8d31 5dbe
00000130: dc5c 89be 6650 32be 52b4 8dbe cf2f 4ebe
00000140: 65d8 a13e d4a4 743d 2993 c73d 7702 97be
00000150: b7ac 54be a391 d7bd eb8a 4a3d 8377 8ebe
00000160: 2c86 0bbe f5db 41be c6ba 653a a3fc f0bd
00000170: 6883 b3bc 9d6d 5bbe 3f44 5ebe 62ea 3cbe
00000180: 01af ddbd 2f95 7fbe 68c1 873e 3b88 80bd

bias f4 [10]
0.27208135 0.0985309 -0.26778072 0.21884075 -0.08700843 -0.12121834 -0.26249135 -0.3143812
0.090476125 -0.06907801
00000000: 3f4e 8b3e 92ca c93d 8e1a 89be ca17 603e
00000010: 7a31 b2bd 5241 f8bd 4465 86be 93f6 a0be
00000020: 8c4b b93d c678 8dbd

weight f4 [10, 10]
0.12311478 -0.25951657 0.2347767 -0.23212817 -0.054604106 0.066050395 0.16325316 0.25529394
0.28807062 -0.250744 0.079584174 -0.13601777 -0.03465376 -0.23669335 0.2880388 -0.23209552
0.16900833 0.111134954 0.10276009 -0.17096734 0.2874357 0.06949118 0.040679555 -0.27867723
0.13274877 -0.047440678 -0.14487162 0.27162275 0.070502594 -0.17496136 -0.16005518 -0.015101684
0.17656934 -0.08080689 -0.18043162 -0.10828994 -0.23624581 0.11277709 0.24477302 -0.29770958
0.07344411 0.16336067 0.057341382 -0.1126165 0.1650526 0.16618186 0.118246175 -0.055567987
-0.083737515 0.033830337 -0.05586293 -0.0942362 0.20213497 0.271766 -0.03130571 -0.070802405
0.0046144873 -0.018881403 0.07602472 0.08861765 -0.287216 -0.11669998 0.26630473 0.1231881
-0.015728401 -0.19065554 -0.19346975 -0.28326634 -0.103078365 0.10679144 0.20163366 0.14600152
-0.27952763 -0.1901675 -0.049906004 0.30590278 0.045744717 -0.081893735 0.13082825 -0.12044532
-0.2046802 0.23081061 -0.14378932 -0.06339315 -0.31458473 0.21164195 0.2395851 0.115248635
-0.22049746 -0.3120978 -0.25683355 0.23581111 0.15182278 0.26610708 0.1656622 0.08003477
-0.003096719 -0.24049312 -0.27093515 -0.2957832
00000000: 9a23 fc3d 5bdf 84be 4e69 703e 02b3 6dbe
00000010: 8ea8 5fbd 6e45 873d d62b 273e e3b5 823e
00000020: fe7d 933e 8461 80be 07fd a23d 3e48 0bbe
00000030: 1af1 0dbd be5f 72be d279 933e 73aa 6dbe
00000040: 8510 2d3e b99a e33d e273 d23d 1012 2fbe
00000050: c62a 933e 6451 8e3d 9b9f 263d c8ae 8ebe
00000060: 4bef 073e 2851 42bd 3a59 14be 2312 8b3e
00000070: aa63 903d 1229 33be 81e5 23be 0e6d 77bc
00000080: 98ce 343e 157e a5bd 11c3 38be 1ec7 ddbd
00000090: 6cea 71be adf7 e63d c7a5 7a3e 646d 98be
000000a0: de69 963d 0548 273e ccde 6a3d 7ba3 e6bd
000000b0: 8c03 293e 942b 2a3e 0d2b f23d 429b 63bd
000000c0: 937e abbd ae91 0a3d 87d0 64bd e9fe c0bd
000000d0: 78fc 4e3e ea24 8b3e 6b3a 00bd da00 91bd
000000e0: 2035 973b 2cad 9abc d9b2 9b3d 2c7d b53d
000000f0: fa0d 93be 6600 efbd 1859 883e 0b4a fc3d
00000100: d9d8 80bc 353b 43be ef1c 46be 4908 91be
00000110: c01a d3bd 78b5 da3d 0e79 4e3e 6c81 153e
00000120: 3f1e 8fbe 45bb 42be 3d6a 4cbd 4a9f 9c3e
00000130: d05e 3b3d e7b7 a7bd d7f7 053e 09ac f6bd
00000140: b097 51be 9e59 6c3e 823d 13be 45d4 81bd
00000150: 4011 a1be abb8 583e cc55 753e 7a07 ec3d
00000160: 16ca 61be 48cb 9fbe b07f 83be 7878 713e
00000170: 6e77 1b3e 303f 883e 5aa3 293e 45e9 a33d
00000180: 53f2 4abb d443 76be 03b8 8abe e570 97be

bias f4 [10]
0.12945162 -0.1552577 -0.06364165 -0.18199074 -0.05762415 -0.22257213 -0.20662817 0.10489617
-0.09398175 0.19522105
00000000: f78e 043e e0fb 1ebe 8e56 82bd c85b 3abe
00000010: 4d07 6cbd f3e9 63be 5696 53be ced3 d63d
00000020: 8179 c0bd 07e8 473e

weight f4 [10, 10]
-0.10144864 -0.23197433 -0.055794887 -0.15329058 -0.09674722 -0.30104744 0.17692657 -0.2201592
0.15894167 0.14349917 0.22592346 -0.24256316 0.22743 -0.14949718 0.11734238 0.29697415
-0.044598192 -0.0024455362 -0.0728053 -0.2640453 0.15175861 -0.31392494 0.19631417 0.23660955
0.29905862 -0.07459166 -0.25982597 0.071097575 0.17469285 -0.31474426 -0.071778536 -0.18956447
-0.027658463 -0.15565157 -0.12926365 -0.10038931 -0.30051252 0.25946727 0.2651036 -0.04960635
-0.036012672 -0.12905885 -0.28557354 -0.3077353 0.11752872 -0.17362364 -0.20329554 -0.0246731
-0.10530737 -0.102306254 0.010160776 -0.06707584 -0.10888115 -0.15141171 -0.25735483 0.26515925
-0.12655029 0.08379387 -0.10972025 0.025697071 0.2948193 0.1456933 -0.27404287 0.12551169
0.30017695 0.083194256 0.2120069 0.31176502 -0.048455264 0.06563448 -0.2197894 -0.0651673
0.23419315 0.16211285 -0.20010546 -0.2535783 -0.21609856 -0.31207812 -0.24401367 -0.07820231
0.2134149 0.05293091 -0.24052456 -0.25368547 0.1573155 -0.23522326 -0.03893632 0.15169637
-0.14635402 -0.034481443 -0.027525881 -0.07481422 -0.16033764 -0.28189757 -0.25562492 -0.16932784
0.3054247 -0.15274265 -0.21235579 0.07665178
00000000: 4ec4 cfbd ae8a 6dbe 2e89 64bd 35f8 1cbe
00000010: 6823 c6bd e422 9abe 3d2c 353e 6a71 61be
00000020: 9bc1 223e 72f1 123e 7b58 673e 7a62 78be
00000030: 69e3 683e ca15 19be 3451 f03d ff0c 983e
00000040: 98ac 36bd 4a45 20bb f21a 95bd f230 87be
00000050: 9c66 1b3e c5ba a0be 9506 493e c649 723e
00000060: 361e 993e 83c3 98bd e907 85be 9b9b 913d
00000070: afe2 323e 2926 a1be a000 93bd 301d 42be
00000080: 0094 e2bc 2063 1fbe b15d 04be e998 cdbd
00000090: c7dc 99be e5d8 843e a9bb 873e 0730 4bbd
000000a0: 0682 13bd 0128 04be b236 92be 7b8f 9dbe
000000b0: e6b2 f03d 65ca 31be b52c 50be 3e1f cabc
000000c0: 64ab d7bd f185 d1bd 6279 263c 0f5f 89bd
000000d0: 15fd debd ac0b 1bbe 03c4 83be f4c2 873e
000000e0: 6696 01be 1f9c ab3d 03b5 e0bd aa82 d23c
000000f0: 8ef2 963e a030 153e 594f 8cbe 2386 003e
00000100: cbb0 993e c061 aa3d 5618 593e aa9f 9f3e
00000110: 0779 46bd 5f6b 863d 7910 61be 6f76 85bd
00000120: 54d0 6f3e e900 263e 72e8 4cbe 04d5 81be
00000130: f148 5dbe b4c8 9fbe b8de 79be 8828 a0bd
00000140: 6f89 5a3e 15ce 583d 124c 76be 10e3 81be
00000150: 5017 213e 5ede 70be b17b 1fbd 4b56 1b3e
00000160: d4dd 15be 6a3c 0dbd f57d e1bc 3338 99bd
00000170: 8d2f 24be e154 90be 45e1 82be 4764 2dbe
00000180: a060 9c3e 9268 1cbe cc73 59be 9cfb 9c3d

bias f4 [10]
0.08715564 0.17326427 0.24037117 0.17609906 -0.31354013 0.028045801 0.19155593 -0.029227499
-0.18634644 0.3014725
00000000: a87e b23d 306c 313e dc23 763e 5053 343e
00000010: 5588 a0be 4fc0 e53c 3d27 443e 826e efbc
00000020: 9ad1 3ebe 9b5a 9a3e

weight f4 [10, 10]
-0.11827799 -0.18004255 -0.28509673 0.014125362 0.140131 0.07000107 0.06253396 -0.23982316
-0.29532108 0.0055685677 0.28834727 0.18243855 -0.18411864 -0.041049067 -0.23311791 -0.15255567
0.057268325 0.17219819 0.26195335 -0.29033062 0.21143469 -0.22303295 0.11841694 0.26760626
0.00444059 0.28770685 -0.26944235 -0.1207861 0.18444076 -0.06889586 -0.064731896 -0.1318011
0.21797773 0.15511073 0.101335205 -0.17770852 -0.25669774 0.034203388 0.093691595 -0.14600612
-0.088479795 0.21357003 0.025190609 0.014267669 -0.077823825 -0.2863726 -0.2973355 -0.15116164
-0.16074534 0.098521896 -0.0920573 -0.1237153 0.30150098 0.11014936 0.2254395 -0.1530899
-0.12916856 0.1162265 -0.2106947 -0.20671937 -0.015273697 -0.115663685 -0.23706266 0.18757333
0.25429863 0.051299524 -0.05505945 -0.29291323 -0.1151824 0.08050704 0.14911117 -0.039976727
-0.12502155 0.17621036 -0.2518437 0.19986163 -0.12268209 0.0048399926 -0.06249162 0.03833912
-0.09556353 0.22993773 -0.008221025 0.24684723 0.30404684 -0.15406331 -0.23069103 0.25371018
0.24780048 -0.24145485 -0.024445446 -0.3118405 -0.25886378 0.061077032 0.08412753 0.0670343
-0.08606604 0.2917447 0.0452136 -0.18660119
00000000: bb3b f2bd 135d 38be 33f8 91be 106e 673c
00000010: 807e 0f3e b95c 8f3d ce11 803d 3494 75be
00000020: 5334 97be 8878 b63b 41a2 933e 2cd1 3a3e
00000030: 9989 3cbe 1123 28bd 76b6 6ebe 8e37 1cbe
00000040: 3192 6a3d b954 303e c01e 863e 37a6 94be
00000050: 5682 583e c062 64be 9584 f23d b003 893e
00000060: 5e82 913b 504e 933e 59f4 89be b45e f7bd
00000070: 0ade 3c3e 4619 8dbd 2892 84bd def6 06be
00000080: 8e35 5f3e 59d5 1e3e d588 cf3d 39f9 35be
00000090: e36d 83be da18 0c3d 61e1 bf3d a182 15be
000000a0: e534 b5bd 1ab2 5a3e 895c ce3c f1c2 693c
000000b0: 1962 9fbd 6e9f 92be 5c3c 98be 1eca 1abe
000000c0: 6d9a 24be d9c5 c93d 8a88 bcbd 725e fdbd
000000d0: 565e 9a3e fd95 e13d 9dd9 663e 99c3 1cbe
000000e0: c344 04be 2908 ee3d 5ac0 57be 3eae 53be
000000f0: 873e 7abc 15e1 ecbd 8ec0 72be 3913 403e
00000100: 6e33 823e 731f 523d 0586 61bd b9f8 95be
00000110: c0e4 ebbd e0e0 a43d 99b0 183e a3be 23bd
00000120: a605 00be 7d70 343e a8f1 80be 87a8 4c3e
00000130: bf40 fbbd cd98 9e3b 37f7 7fbd 7b09 1d3d
00000140: d0b6 c3bd cc74 6b3e 7ab1 06bc 85c5 7c3e
00000150: 07ac 9b3e c6c2 1dbe 453a 6cbe 4de6 813e
00000160: 69bf 7d3e f13f 77be d141 c8bc 8fa9 9fbe
00000170: cb89 84be e92b 7a3d 0e4b ac3d 4749 893d
00000180: 6443 b0bd 905f 953e e531 393d 6214 3fbe

bias f4 [10]
-0.017902857 0.07594058 0.11074065 -0.2235986 0.118518874 -0.16155496 -0.26276642 -0.17272596
0.304973 0.27032977
00000000: 03a9 92bc bc86 9b3d fecb e23d 08f7 64be
00000010: 06ba f23d aa6e 25be 5289 86be 13df 30be
00000020: 6c25 9c3e aa68 8a3e

weight f4 [10, 10]
0.28317705 0.18562925 0.23889412 -0.042327005 -0.17399733 0.15800528 -0.16386378 -0.21341132
-0.100982286 0.06636332 0.16279298 -0.12282571 -0.186121 0.042656932 -0.18639514 -0.2058837
0.16483434 -0.053121395 0.28896418 0.30762088 0.09458547 0.10883222 0.07282211 0.0049524056
-0.023000019 0.004346271 0.11808728 0.29401934 -0.0819533 -0.13367447 -0.07657925 -0.1527773
0.05377096 0.23604771 0.24728297 0.14518824 -0.23272198 -0.16972095 -0.069478855 -0.058288414
0.026009018 -0.29028806 0.098424226 -0.24124134 -0.20009144 -0.26290622 0.27553546 -0.29944867
0.2385517 -0.010630597 -0.036776908 0.19779366 -0.029228177 0.19832355 0.2286374 -0.27455214
0.12167938 0.05969716 0.06799267 0.046166547 0.08649808 -0.15212668 -0.040458538 0.30045432
0.21245746 -0.011880187 -0.297422 0.013859558 -0.21534273 0.25715375 -0.19197789 -0.022832153
-0.07018443 0.056273945 0.29757908 0.030047717 0.18314774 0.24546283 0.2552942 -0.10920972
-0.07072645 0.1524021 -0.08628833 0.14807807 -0.06908555 -0.21448222 0.1287184 0.048483424
0.14098963 0.31416786 0.21589911 0.29977795 0.016925404 -0.27202308 -0.2218424 -0.19643238
-0.2786752 -0.15850839 -0.29110909 -0.29175657
00000000: 95fc 903e 9815 3e3e a9a0 743e 155f 2dbd
00000010: 5b2c 32be 23cc 213e e8cb 27be 7f88 5abe
00000020: cdcf cebd 7ee9 873d 34b3 263e 0c8c fbbd
00000030: 8196 3ebe 09b9 2e3d 5ede 3ebe 2dd3 52be
00000040: 55ca 283e d295 59bd 1df3 933e 7c80 9d3e
00000050: 07b6 c13d 6de3 de3d c223 953d ca47 a23b
00000060: 896a bcbc 2a6b 8e3b bed7 f13d b489 963e
00000070: 22d7 a7bd f6e1 08be 95d5 9cbd a771 1cbe
00000080: f03e 5c3d 7eb6 713e bf37 7d3e 3aac 143e
00000090: ac4e 6ebe 54cb 2dbe ee4a 8ebd d5bf 6ebd
000000a0: dd10 d53c a3a0 94be a492 c93d f807 77be
000000b0: c5e4 4cbe a59b 86be fc12 8d3e 5651 99be
000000c0: e646 743e f52b 2ebc 62a3 16bd 6c8a 4a3e
000000d0: ee6f efbc 5415 4b3e ec1f 6a3e 1992 8cbe
000000e0: 0a33 f93d 0285 743d be3f 8b3d 2219 3d3d
000000f0: e825 b13d 19c7 1bbe dab7 25bd 26d5 993e
00000100: 738e 593e 1ea5 42bc b247 98be 3313 633c
00000110: ce82 5cbe a8a9 833e da95 44be 7f0a bbbc
00000120: dbbc 8fbd 827f 663d 495c 983e a126 f63c
00000130: 158b 3b3e 9c5a 7b3e ecb5 823e 58a9 dfbd
00000140: 07d9 90bd 4c0f 1c3e f0b7 b0bd c7a1 173e
00000150: ba7c 8dbd 3aa1 5bbe c2ce 033e 8e96 463d
00000160: 965f 103e 9cda a03e a814 5d3e 7f7c 993e
00000170: 25a7 8a3c 9c46 8bbe a72a 63be 9225 49be
00000180: 84ae 8ebe 0650 22be 400c 95be 1e61 95be

bias f4 [10]
-0.18896334 -0.31174806 -0.19410454 0.12058039 0.26375064 -0.094066 -0.091983944 0.16885085
-0.15601757 -0.14952278
00000000: 9b7f 41be 719d 9fbe 57c3 46be daf2 f63d
00000010: 530a 873e ada5 c0bd 1462 bcbd 3de7 2c3e
00000020: 12c3 1fbe 801c 19be

weight f4 [10, 10]
0.19483726 -0.27552977 0.038666673 0.2793499 0.05422879 0.08599618 -0.18416825 -0.004362858
0.01738761 0.07761314 0.12286903 0.2747791 -0.24137649 0.009479021 -0.15799887 -0.25015637
-0.025322776 -0.27835533 0.22069511 0.036623858 -0.1704335 0.16525401 -0.29928678 -0.12231665
-0.061607093 -0.26871464 -0.20108555 -0.05161426 0.23994245 0.3053667 0.20120384 -0.18882719
-0.2068829 0.2759698 0.111855276 0.008401443 0.04279577 -0.25415123 -0.10558385 0.30440658
-0.077991955 -0.015863283 -0.26257375 -0.17690006 -0.0064572436 -0.19642785 -0.03921528 0.12869179
-0.30932683 0.09392347 -0.20909238 -0.15433529 0.121402904 0.2514391 -0.08642778 -0.12983334
-0.2859445 -0.16306527 -0.2769007 -0.07237521 0.06452799 -0.2962661 0.27610272 0.19839841
-0.30956987 -0.15104082 0.103139326 -0.06497203 -0.03446139 -0.1427818 0.25400034 -0.17677076
0.26224035 0.020403732 0.063568674 0.24669933 -0.052103456 -0.18004216 -0.051144853 0.2564776
-0.234637 0.07177752 -0.31078592 0.16579889 0.11683596 0.013405608 0.13572279 0.0003556739
0.17498553 -0.2503324 -0.046438836 0.14028326 0.31490493 0.16108371 -0.22995274 0.24320978
-0.07051824 -0.067519195 -0.28742248 -0.049778778
00000000: 6b83 473e 3d12 8dbe f260 1e3d f306 8f3e
00000010: 021f 5e3d c41e b03d 9a96 3cbe 4ef6 8ebb
00000020: 7670 8e3c a3f3 9e3d c2a2 fb3d d9af 8c3e
00000030: 662b 77be e54d 1b3c 75ca 21be 7f14 80be
00000040: b671 cfbc 9784 8ebe e6fd 613e e602 163d
00000050: 1f86 2ebe 5938 293e 1e3c 99be 2781 fabd
00000060: b857 7cbd f794 89be 5fe9 4dbe 7969 53bd
00000070: 79b3 753e 0659 9c3e 6108 4e3e ea5b 41be
00000080: 1cd9 53be ea4b 8d3e 6114 e53d 35a6 093c
00000090: 9e4a 2f3d 1c20 82be 583c d8bd 2edb 9b3e
000000a0: 3fba 9fbd b7f3 81bc 1170 86be 4a25 35be
000000b0: 4997 d3bb 6224 49be 34a0 20bd c8c7 033e
000000c0: 1660 9ebe f35a c03d 501c 56be 120a 1ebe
000000d0: 16a2 f83d a0bc 803e 0c01 b1bd 08f3 04be
000000e0: 5167 92be 95fa 26be eec5 8dbe 7439 94bd
000000f0: 4027 843d 31b0 97be 565d 8d3e f428 4b3e
00000100: f17f 9ebe 72aa 1abe b63a d33d 0e10 85bd
00000110: 6327 0dbd 6435 12be 550c 823e 6503 35be
00000120: 5e44 863e ba25 a73c 4b30 823d c09e 7c3e
00000130: 6f6a 55bd f95c 38be 447d 51bd 0851 833e
00000140: af44 70be 1800 933d 551f 9fbe 2fc7 293e
00000150: b147 ef3d 32a3 5b3c eafa 0a3e be79 ba39
00000160: 682f 333e 912b 80be a636 3ebd 6aa6 0f3e
00000170: 383b a13e 21f3 243e bb78 6bbe fc0b 793e
00000180: de6b 90bd 8147 8abd 0a29 93be d5e4 4bbd

bias f4 [10]
0.22367637 0.044096325 -0.18418811 0.09733873 -0.10139666 0.28871405 -0.27447134 -0.099888615
-0.30534115 -0.12454004
00000000: 6b0b 653e 599e 343d cf9b 3cbe 8759 c73d
00000010: 0da9 cfbd 54d2 933e 8287 8cbe 6792 ccbd
00000020: ad55 9cbe d90e ffbd

weight f4 [10, 10]
0.09969006 0.30440548 0.053109296 0.31001657 0.061870635 0.18263291 0.25350785 0.26434216
-0.17700018 0.29073665 0.19155985 -0.14786147 -0.15090495 -0.26523483 0.07941657 -0.25631818
0.13358241 0.099864 -0.27473938 0.08617234 -0.025718974 0.14445846 0.1814482 -0.31437626
0.29001212 0.2652019 0.12582186 -0.28901985 -0.112963125 -0.09164561 -0.08126988 0.17832814
0.11497111 0.25050902 -0.11843462 0.106423214 0.112512305 -0.26328832 -0.3067472 -0.16408713
0.21647298 -0.2977157 -0.27525532 0.17715098 0.17061403 0.2600634 -0.23873259 -0.23144701
0.16222063 0.27500123 0.18921135 0.04953774 0.10422067 0.30014023 -0.20403151 -0.14357114
0.22119087 -0.21637556 -0.17437197 0.23084344 0.09977684 0.10216372 -0.1340301 -0.0043641017
0.289422 -0.18980625 0.0024862492 0.15039778 -0.21830982 0.30711308 -0.15799072 -0.07593768
-0.085561834 -0.20607263 -0.31030312 0.17830552 0.08401353 -0.29617918 -0.20353267 0.3125494
0.12087333 0.1268847 -0.18919846 -0.13863301 -0.047735885 -0.05783171 -0.21669456 0.026052406
0.031429246 -0.040041078 0.04383923 -0.12533706 0.08229887 0.11926226 -0.1665695 -0.31356484
0.16552448 0.075431935 -0.16082963 0.3047493
00000000: 4d2a cc3d 09db 9b3e 2289 593d 7eba 9e3e
00000010: 106c 7d3d 1f04 3b3e c8cb 813e db57 873e
00000020: 893f 35be 6fdb 943e 4428 443e ff68 17be
00000030: d486 1abe dccc 87be 28a5 a23d 233c 83be
00000040: d4c9 083e 7f85 cc3d a4aa 8cbe 207b b03d
00000050: 99b0 d2bc ebec 133e 8fcd 393e edf5 a0be
00000060: 787c 943e 8bc8 873e 72d7 003e 69fa 93be
00000070: 3659 e7bd b2b0 bbbd d370 a6bd a79b 363e
00000080: f975 eb3d b842 803e da8d f2bd 6af4 d93d
00000090: da6c e63d bacd 86be f80d 9dbe 7506 28be
000000a0: 18ab 5d3e 316e 98be 44ee 8cbe 1167 353e
000000b0: 72b5 2e3e 0827 853e 5176 74be 7200 6dbe
000000c0: 2a1d 263e f6cc 8c3e 9fc0 413e 16e8 4a3d
000000d0: a671 d53d fbab 993e a3ed 50be 5004 13be
000000e0: dc7f 623e 8e91 5dbe 918e 32be 3962 6c3e
000000f0: cd57 cc3d 363b d13d 303f 09be bd00 8fbb
00000100: 1f2f 943e 925c 42be 57f0 223b e001 1a3e
00000110: 9c8c 5fbe ed3d 9d3e 52c8 21be 3785 9bbd
00000120: 0b3b afbd b404 53be 0de0 9ebe b995 363e
00000130: 490f ac3d cca4 97be de6a 50be 7a06 a03e
00000140: 708c f73d 10ee 013e 3ebd 41be d0f5 0dbe
00000150: b486 43bd f1e0 6cbd 2ee5 5dbe db6b d53c
00000160: f4bb 003d 1d02 24bd c490 333d 5c58 00be
00000170: 4f8c a83d c63f f43d 3291 2abe 928b a0be
00000180: 407f 293e 0f7c 9a3d 86b0 24be 1a08 9c3e

bias f4 [10]
-0.14301337 0.2136899 0.16043136 -0.26512793 0.20394835 -0.29076287 -0.17519483 -0.052719884
-0.21315223 0.30892602
00000000: 1972 12be 86d1 5a3e 1e48 243e d9be 87be
00000010: d6d7 503e dfde 94be 4666 33be cef0 57bd
00000020: 9444 5abe 8d2b 9e3e

weight f4 [1, 10]
-0.06342885 0.12560242 -0.28236353 0.1820417 -0.09827845 -0.24054538 0.046239756 0.15320027
0.2736626 -0.1931496
00000000: fce6 81bd ec9d 003e f491 90be 2469 3a3e
00000010: 3646 c9bd 8751 76be e665 3d3d 88e0 1c3e
00000020: 811d 8c3e 02c9 45be
