src/torchfort/torchfort_local/examples/fortran/burgers/burgers_model_trained.pt (torch, 15799 bytes, 7 tensors)

weight f4 [20, 2]
-1.3638898 -1.7972757 -1.3152286 0.57778025 -0.55030227 -0.971414 -0.91890323 -0.04616112
0.59607077 1.1269022 0.80215615 0.5590345 -2.8353834 0.9182683 -0.34553242 -2.0045269
-0.77415204 -0.5149072 -0.7186554 1.9846418 -1.0784615 -1.4523901 -0.59762543 1.4350096
-0.2430758 0.87407166 0.64748436 -3.183828 1.4392382 1.0321205 0.72020257 -1.9594858
-0.023873018 0.9351805 0.30693206 -3.5657115 3.7870483 -2.1332772 1.7219387 -0.13255931
00000000: f193 aebf 210d e6bf 6959 a8bf 68e9 133f
00000010: 9ce0 0cbf 97ae 78bf 3e3d 6bbf 7113 3dbd
00000020: 1898 183f 553e 903f 1b5a 4d3f e31c 0f3f
00000030: ec76 35c0 a213 6b3f a0e9 b0be 2b4a 00c0
00000040: d42e 46bf f5d0 03bf cdf9 37bf be08 fe3f
00000050: 070b 8abf ebe7 b9bf fbfd 18bf 65ae b73f
00000060: dde8 78be 29c3 5f3f 89c1 253f d7c3 4bc0
00000070: f538 b83f 861c 843f 325f 383f 6ed0 fabf
00000080: 5991 c3bc fd67 6f3f 3326 9d3e 9e34 64c0
00000090: 005f 7240 9d87 08c0 7d68 dc3f a1bd 07be

bias f4 [20]
1.0762708 0.20565385 0.39144346 0.45032272 -0.48781312 -0.70984715 0.7029102 0.26931867
0.57937026 0.56871116 0.65919936 0.62304306 0.43300062 -0.58152187 -0.34640247 -0.6450503
0.69435275 -0.3340225 2.7744184 0.026700763
00000000: 3ec3 893f ec96 523e 476b c83e b390 e63e
00000010: a4c2 f9be 8bb8 35bf ecf1 333f 23e4 893e
00000020: 9c51 143f 0e97 113f 4ac1 283f c07f 1f3f
00000030: 42b2 dd3e 9ede 14bf aa5b b1be 0422 25bf
00000040: 1ac1 313f ff04 abbe 1290 3140 8fbb da3c

weight f4 [20, 20]
0.58618295 0.3846433 0.6178509 0.6114297 -0.4958811 -0.42599258 0.47895777 -0.3831738
0.32478884 -0.28026065 0.5350757 -0.45007852 -0.15979688 0.19016652 -0.7192018 0.046692103
-0.022527404 0.45206344 0.17063926 -0.038067836 -0.19173837 0.4624804 -0.05940951 0.26315105
0.27019888 0.20143445 0.21073048 -0.3425183 -0.084876366 0.49680015 0.06324104 0.08481737
0.08763239 -0.82878435 0.08289232 -0.6489767 -0.10635224 -0.87011415 -0.07854118 -0.42842555
1.0059454 -0.44348767 0.47387156 -0.11251701 -0.37761325 -0.6033237 -1.0244502 1.1512744
0.78057134 -0.7974165 0.76946896 -0.7407706 -0.6132406 1.0436426 -0.35626134 1.1704506
-0.20503747 0.95180434 -0.1275402 -0.029966967 0.23165426 -0.21021914 0.025982246 -0.32227343
-0.48279846 -0.26361886 -0.42874762 0.3964319 -0.1534208 0.46133536 0.33373713 1.0195496
0.87834394 -0.014278845 0.04786879 -0.49612108 0.84624857 0.059616096 0.47990286 0.35233146
-0.53601706 0.54760706 -0.35032082 -0.025621435 0.24270342 0.46600387 -0.084456034 -0.28502962
-0.18346311 -0.27286223 -0.2719219 -0.05535423 0.07895334 0.50581473 0.61194026 0.23481546
-0.0025539652 0.28775054 -0.57170206 -0.60603905 -0.42559564 -0.054744378 -0.12999563 -0.02471293
0.29229003 0.028835794 -0.08952346 -0.3959255 0.10387283 -0.6028662 -0.27220294 -0.70999897
-0.31831494 0.36467364 0.068394646 0.6716558 -0.34960935 0.03943826 -0.2162401 0.27629828
-0.8249401 -0.53803074 -0.38646764 -0.6122275 0.62616265 0.82459337 -0.62486553 -0.18983416
-0.68886626 0.41552877 -0.7560907 0.31036144 0.13675033 -0.6248664 0.7911332 -0.41312304
0.2988235 -0.34374425 -0.38252604 0.25505307 -0.20460078 -0.6096614 0.16359809 -0.31695938
-0.04855712 -0.07649681 -0.8756695 -0.08957002 0.02547227 -0.524065 0.15504873 -0.69708765
-0.22777762 0.33857092 -0.21677652 0.51131684 -0.36536345 0.2656377 -0.033431683 0.39025512
0.67449987 -0.78759 0.13832486 -0.121481374 -0.47234318 -0.2766917 -0.983695 0.39362776
0.54908454 -0.73579866 0.29970035 -0.81370866 -0.4964154 0.8104425 -0.30017403 1.0370531
-0.48000753 0.6038221 0.05183933 0.108500324 -0.32149297 0.36537474 -0.31259635 0.11602248
0.079283625 0.037369553 0.46024963 0.5284812 -0.42347947 -0.24797411 -0.15316786 -0.20385553
0.0392872 0.29595917 0.010936637 0.20895323 -0.17334837 0.45555064 -0.44919184 -0.2812538
-0.4540389 -0.16824694 -0.5418106 -0.4416808 0.47438246 0.43550315 -0.14886826 -0.28498855
-0.53886026 0.27967817 -0.5867029 0.27851188 0.36546093 -0.13035598 0.38117015 -0.36557582
0.08424955 -0.3083717 -0.22903612 0.1835009 -0.37004918 -0.12540309 -0.193205 -0.37607625
0.091302544 0.304802 0.05414469 -0.18814166 -0.26418385 0.14417689 -0.185386 -0.1442153
-0.22915362 -0.050109573 0.30577907 -0.2702102 -0.23019794 0.14664961 0.16743506 -0.21594073
0.21767691 -0.61085445 -0.2929673 -0.32562423 0.22231834 0.07096633 -0.7891758 -0.4461786
0.012340605 -0.44653168 0.11060201 -0.5446182 -0.7784833 0.5875358 0.1272022 0.5642582
00000000: 1610 163f f7ef c43e 7a2b 1e3f a886 1c3f
00000010: 21e4 fdbe b31b dabe f439 f53e 5b2f c4be
00000020: b94a a63e 537e 8fbe b9fa 083f b170 e6be
00000030: cba1 23be 03bb 423e 9c1d 38bf 3840 3f3d
00000040: 648b b8bc dc74 e73e 0fbc 2e3e 05ed 1bbd
00000050: 1057 44be 3bca ec3e 6357 73bd bcbb 863e
00000060: 8257 8a3e d544 4e3e bbc9 573e 8f5e afbe
00000070: a9d3 adbd 975c fe3e 8584 813d bbb4 ad3d
00000080: 9c78 b33d 362b 54bf 73c3 a93d 5623 26bf
00000090: 34cf d9bd cdbf 5ebf 33da a0bd 985a dbbe
000000a0: d2c2 803f d110 e3be 4b9f f23e 516f e6bd
000000b0: 8656 c1be 6c73 1abf 2f21 83bf f65c 933f
000000c0: 86d3 473f 7d23 4cbf ebfb 443f 24a3 3dbf
000000d0: 56fd 1cbf 1596 853f e367 b6be 53d1 953f
000000e0: 58f5 51be 73a9 733f e699 02be 497d f5bc
000000f0: c636 6d3e b043 57be b8d8 d43c 0601 a5be
00000100: 5c31 f7be 0df9 86be cf84 dbbe 1ff9 ca3e
00000110: 581a 1dbe 2634 ec3e 98df aa3e 9a80 823f
00000120: 26db 603f d1f1 69bc 1012 443d 9503 febe
00000130: bfa3 583f 0230 743d d4b5 f53e ca64 b43e
00000140: 6a38 09bf fa2f 0c3f 405d b3be 0be4 d1bc
00000150: 3f87 783e 0f98 ee3e 49f7 acbd 67ef 91be
00000160: c1dd 3bbe 99b4 8bbe 5939 8bbe 1ebb 62bd
00000170: 4ab2 a13d 137d 013f 1ea8 1c3f 7773 703e
00000180: 6d60 27bb 0a54 933e 115b 12bf 6025 1bbf
00000190: ace7 d9be a43b 60bd 931d 05be c572 cabc
000001a0: 0aa7 953e 0b39 ec3c 1358 b7bd bfb6 cabe
000001b0: 47bb d43d 7055 1abf 2f5e 8bbe 7ec2 35bf
000001c0: 2dfa a2be 81b6 ba3e 7e12 8c3d a2f1 2b3f
000001d0: ffff b2be 038a 213d 0b6e 5dbe f876 8d3e
000001e0: 462f 53bf 62bc 09bf 16df c5be f1ba 1cbf
000001f0: 324c 203f 8d18 533f 30f7 1fbf e363 42be
00000200: 8a59 30bf 30c0 d43e 298f 41bf b2e7 9e3e
00000210: 4708 0c3e 3ff7 1fbf b587 4a3f dd84 d3be
00000220: 65ff 983e 3fff afbe 74da c3be 5196 823e
00000230: de82 51be c512 1cbf 4286 273e 8048 a2be
00000240: d5e3 46bd 5caa 9cbd e02b 60bf 7d70 b7bd
00000250: 39ab d03c 2029 06bf 18c5 1e3e 5674 32bf
00000260: 893e 69be 2b59 ad3e aafa 5dbe a9e5 023f
00000270: eb10 bbbe aa01 883e a9ef 08bd 85cf c73e
00000280: 06ac 2c3f 809f 49bf 08a5 0d3e 3acb f8bd
00000290: f7d6 f1be 89aa 8dbe 6fd3 7bbf 9489 c93e
000002a0: ce90 0c3f 4d5d 3cbf 5372 993e 364f 50bf
000002b0: 292a febe 2979 4f3f 69b0 99be 28be 843f
000002c0: 8cc3 f5be 1694 1a3f 7a55 543d 6b35 de3d
000002d0: ba9a a4be 6612 bb3e a10c a0be 329d ed3d
000002e0: 745f a23d d110 193d d7a5 eb3e 8b4a 073f
000002f0: 4dd2 d8be edec 7dbe 09d8 1cbe 81bf 50be
00000300: 9deb 203d f687 973e 952f 333c d6f7 553e
00000310: 3c82 31be ef3d e93e 79fc e5be 8000 90be
00000320: c977 e8be ed48 2cbe 19b4 0abf fc23 e2be
00000330: 42e2 f23e 45fa de3e ec70 18be 05ea 91be
00000340: bff2 09bf fa31 8f3e 2932 16bf 1c99 8e3e
00000350: b21d bb3e 0a7c 05be bc28 c33e c12c bbbe
00000360: 078b ac3d e5e2 9dbe 7288 6abe a9e7 3b3e
00000370: 1677 bdbe ab69 00be 88d7 45be 118d c0be
00000380: d4fc ba3d 020f 9c3e d3c6 5d3d 35a8 40be
00000390: 1b43 87be 1ba3 133e d4d5 3dbe 2dad 13be
000003a0: 3fa7 6abe b23f 4dbd 138f 9c3e fe58 8abe
000003b0: 02b9 6bbe 512b 163e 1974 2b3e 911f 5dbe
000003c0: b2e6 5e3e f560 1cbf cfff 95be 38b8 a6be
000003d0: 6ba7 633e cc56 913d 6d07 4abf 8571 e4be
000003e0: 4030 4a3c cd9f e4be 4e83 e23d 196c 0bbf
000003f0: ae4a 47bf bf68 163f 4b41 023e 3a73 103f

bias f4 [20]
0.099816285 0.074510075 -0.07399268 0.48038366 -0.11174091 -0.15949288 -0.31668365 -0.3415667
-0.38435727 -0.2177268 -0.2156559 0.120634995 -0.0927375 -0.13084571 0.48371395 -0.11633345
0.06931176 -0.03167162 -0.093748234 0.14915253
00000000: 7b6c cc3d bd98 983d 7989 97bd d9f4 f53e
00000010: 6bd8 e4bd 1a52 23be 5c24 a2be d5e1 aebe
00000020: 7aca c4be c6f3 5ebe e6d4 5cbe 7b0f f73d
00000030: 29ed bdbd 6bfc 05be 5ba9 f73e 3b40 eebd
00000040: 53f3 8d3d 1aba 01bd 13ff bfbd 71bb 183e

weight f4 [20, 20]
0.0024869556 -0.15465276 -0.06606553 0.083444364 0.042230904 0.31341994 0.20879892 -0.16250186
0.15158449 0.03715669 -0.0942786 0.19552523 0.34931904 0.018444875 0.23397882 0.13465323
-0.051767465 0.3030244 0.083756074 -0.08693797 -0.25203207 0.12224913 -0.054914072 0.008232913
0.4420992 0.09263753 0.16753992 0.3071512 -0.06433432 0.25036463 -0.19037876 -0.041807167
0.024517747 0.031888425 -0.04835376 0.05813999 0.063514665 0.29815796 -0.13297902 0.2870902
0.22773853 0.4662211 -0.22113942 -0.19434 0.43417785 0.11287915 -0.30098146 -0.03468361
-0.19026029 0.23014326 0.033754177 0.17453286 -0.016175149 0.22893192 0.03494267 0.18063998
0.22277924 0.058383323 0.43483305 0.30868378 1.1187844 0.55308497 0.6489709 0.068446584
-1.0305129 0.28915593 -1.7414451 0.6668903 1.626695 -0.0871187 -0.97632974 -0.021379774
1.341209 1.6196655 2.0721505 -0.4304386 0.030173043 -2.0042763 -0.5948554 -0.5273747
0.1313857 0.10236827 -0.047175266 0.17738783 0.24913558 0.07532871 0.105212815 0.12971526
-0.16388637 0.101805545 -0.13112493 -0.09375535 -0.06974178 0.1207309 -0.18773031 0.08852992
0.0128053585 -0.094615504 0.35105047 -0.021998469 -0.14546302 0.1046731 -0.62583554 0.1162483
-0.07759983 -0.32400772 0.3292785 -0.25789404 -0.889578 0.009924232 0.34669456 0.15265326
-0.28679016 0.043519862 -0.9957122 -0.07225431 -0.0067938794 0.6547561 0.6506307 0.079834715
-0.32263163 0.06011533 0.06088395 -1.0292829 0.17339642 1.4590392 0.21327558 -0.23277976
0.43960786 0.7218998 0.09398008 0.30132437 1.013517 -0.35357025 0.240235 0.44684702
-0.53463614 0.10275065 0.22339912 0.7612354 0.16882919 -0.17244896 0.15943436 0.123007305
-0.3058592 -0.0808779 0.10624771 -0.0058576767 0.19360404 -0.13815959 0.19225863 -0.026103161
0.18747923 -0.43360025 0.26332566 -0.14693752 0.037473556 -0.049987573 0.19358814 0.080309406
-0.28364435 0.17717572 -0.42667183 -0.24896908 -0.2110184 0.072790675 0.8802302 -0.41323262
-0.22743534 0.17378782 0.8348272 0.43049905 -0.2258137 -0.37225258 -0.3189305 0.2521301
0.049029045 0.75420266 0.7290261 0.010604044 0.3614362 -0.040956747 0.7044282 0.02420631
-0.11352105 0.082401976 0.30087486 -0.09518586 0.41542885 -0.30112678 -0.068646595 -0.52520335
0.32437828 -0.18378073 0.36673102 0.14100537 -0.067332715 -0.11500617 -0.6655027 0.026815215
0.39397287 -0.07362691 -0.31611642 -0.5041609 -0.53584754 0.28370196 0.57122654 -0.4161975
0.4321335 0.3011675 0.38933775 -0.5430753 0.30298555 -0.9186708 0.3772123 0.19956905
-0.5568396 0.41955698 -0.03936676 0.16552654 -0.11765976 -0.18145831 0.11380954 0.39813632
-0.0039877286 0.06057928 -0.26220605 0.08176353 -0.07445557 -0.07022085 -0.18069938 0.086993836
-0.0033276386 0.34444585 -0.35711002 -0.3635564 0.15599905 -0.011273171 -0.08141971 -0.17201047
0.029400757 0.03436623 -0.19999696 -0.43065926 -0.19321321 0.15937282 0.47205204 -0.5255805
0.07848688 -0.02303304 0.18718515 -0.19234906 0.32541516 -0.27669346 -0.16667083 0.33582217
00000000: 31fc 223b 4b5d 1ebe 5d4d 87bd e1e4 aa3d
00000010: 50fa 2c3d 9478 a03e 62cf 553e e366 26be
00000020: f738 1b3e 9d31 183d 2315 c1bd c437 483e
00000030: f2d9 b23e b519 973c 2598 6f3e 89e2 093e
00000040: 1f0a 54bd 0426 9b3e 4e88 ab3d 890c b2bd
00000050: 590a 81be c05d fa3d 94ed 60bd 57e3 063c
00000060: d45a e23e bfb8 bd3d 968f 2b3e ec42 9d3e
00000070: b6c1 83bd cb2f 803e a6f2 42be fe3d 2bbd
00000080: 71d9 c83c 709d 023d 980e 46bd 3324 6e3d
00000090: fa13 823d 29a8 983e a72b 08be 7dfd 923e
000000a0: 4a34 693e 88b4 ee3e 5f72 62be 1101 47be
000000b0: 8f4c de3e 2f2d e73d 3e1a 9abe 6710 0ebd
000000c0: 98d3 42be adaa 6b3e d241 0a3d beb8 323e
000000d0: bf81 84bc 216d 6a3e 0c20 0f3d b0f9 383e
000000e0: 3e20 643e 5a23 6f3d 70a2 de3e cd0b 9e3e
000000f0: 5434 8f3f fa96 0d3f f522 263f b92d 8c3d
00000100: d9e7 83bf 3f0c 943e ace7 debf 53b9 2a3f
00000110: 8b37 d03f 4a6b b2bd bff0 79bf a324 afbc
00000120: bdac ab3f 3351 cf3f 1d9e 0440 7362 dcbe
00000130: 752d f73c 1046 00c0 7248 18bf 0702 07bf
00000140: f989 063e 75a6 d13d da3a 41bd 28a5 353e
00000150: 661d 7f3e f045 9a3d d179 d73d 14d4 043e
00000160: d4d1 27be 6d7f d03d 9d45 06be ce02 c0bd
00000170: c7d4 8ebd c341 f73d 603c 40be 2d4f b53d
00000180: 91cd 513c c6c5 c1bd e3bc b33e 2236 b4bc
00000190: 42f4 14be da5e d63d c236 20bf 9713 ee3d
000001a0: a9ec 9ebd 57e4 a5be 3197 a83e b00a 84be
000001b0: 62bb 63bf 3f99 223c f381 b13e 2351 1c3e
000001c0: 29d6 92be e241 323d ffe6 7ebf 11fa 93bd
000001d0: 319f debb 199e 273f bc8f 263f 6280 a33d
000001e0: f92f a5be 7e3b 763d 7361 793d 8bbf 83bf
000001f0: d58e 313e ccc1 ba3f ea64 5a3e d15d 6ebe
00000200: 4814 e13e 6dce 383f a178 c03d 3047 9a3e
00000210: edba 813f 2907 b5be 2a00 763e 22c9 e43e
00000220: eadd 08bf ef6e d23d bdc2 643e 53e0 423f
00000230: 8fe1 2c3e 7696 30be c342 233e 41eb fb3d
00000240: 9499 9cbe 50a3 a5bd 6698 d93d c1f1 bfbb
00000250: 2340 463e b579 0dbe 72df 443e 4cd6 d5bc
00000260: 8efa 3f3e da00 debe 9fd2 863e ca76 16be
00000270: df7d 193d c5bf 4cbd f83b 463e 4279 a43d
00000280: d539 91be 8d6d 353e bb74 dabe c0f1 7ebe
00000290: 3515 58be 4713 953d c456 613f 3a93 d3be
000002a0: cfe4 68be 6ff5 313e 3cb7 553f 5f6a dc3e
000002b0: b53b 67be e497 bebe dc4a a3be 3217 813e
000002c0: aed2 483d 6d13 413f 74a1 3a3f 96bc 2d3c
000002d0: 2a0e b93e 43c2 27bd 6855 343f 504c c63c
000002e0: b97d e8bd 5ec2 a83d 450c 9a3e cef0 c2bd
000002f0: 17b3 d43e 4a2d 9abe 9696 8cbd ba73 06bf
00000300: e914 a63e 0431 3cbe 2bc4 bb3e b663 103e
00000310: bce5 89bd 5b88 ebbd 635e 2abf 95ab db3c
00000320: d0b6 c93e b5c9 96bd 03da a1be b010 01bf
00000330: 4e2d 09bf 6241 913e e73b 123f d717 d5be
00000340: 9a40 dd3e a032 9a3e 4757 c73e fc06 0bbf
00000350: ec20 9b3e 022e 6bbf f821 c13e d45b 4c3e
00000360: 0a8d 0ebf 2cd0 d63e 0a3f 21bd ca7f 293e
00000370: 9af7 f0bd 35d0 39be fa14 e93d 86d8 cb3e
00000380: 7eab 82bb fb21 783d df3f 86be a373 a73d
00000390: 297c 98bd f3cf 8fbd 4209 39be d329 b23d
000003a0: 8314 5abb 355b b03e 20d7 b6be 1124 babe
000003b0: 37be 1f3e 1bb3 38bc 60bf a6bd 8323 30be
000003c0: dbd9 f03c 9bc3 0c3d 01cc 4cbe 5f7f dcbe
000003d0: afd9 45be a132 233e ceb0 f13e 728c 06bf
000003e0: bbbd a03d c9af bcbc 77ad 3f3e 27f7 44be
000003f0: d19c a63e c4aa 8dbe c2ab 2abe e2f0 ab3e

bias f4 [20]
0.051044196 -0.03932517 -0.048232943 0.369741 0.09288209 -0.12409279 0.04618073 0.03920591
-0.17037283 0.19520181 -0.061231423 0.032075107 -0.09035911 -0.007780039 -0.1664371 -0.079871215
0.116363496 -0.19182412 -0.11403517 -0.22913207
00000000: b813 513d 6e13 21bd e88f 45bd b14e bd3e
00000010: f738 be3d 5c24 febd 0128 3d3d 6096 203d
00000020: 3776 2ebe fce2 473e cdcd 7abd 3061 033d
00000030: 320e b9bd b3ef febb 7d6e 2abe 8593 a3bd
00000040: fc4f ee3d 8b6d 44be 458b e9bd 99a1 6abe

weight f4 [1, 20]
-0.024313089 0.34207812 0.22970375 0.89149123 0.17607942 0.29871544 -0.34918174 -0.13098218
-0.26518923 -0.24439229 -0.36389917 0.26740295 -0.37493196 -0.2457742 0.3019693 -0.32918343
-0.451011 -0.32821065 0.4666283 0.21293692
00000000: 3e2c c7bc dd24 af3e 7637 6b3e c538 643f
00000010: 2a4e 343e 3bf1 983e f3c7 b2be 3120 06be
00000020: e2c6 87be f941 7abe fe50 babe 0ae9 883e
00000030: 15f7 bfbe 3bac 7bbe b89b 9a3e bb8a a8be
00000040: eaea e6be 3a0b a8be e8e9 ee3e 230c 5a3e
