src/torchfort/torchfort_local/examples/fortran/burgers/burgers_trained_net.pt (torch, 13829 bytes, 7 tensors)

weight f4 [20, 2]
-0.18399063 -0.23972654 -0.36534128 -0.05302714 -0.3647415 -0.47950915 -0.6989947 -0.2655609
-0.18980277 0.6464046 0.17290398 0.39627418 -0.5336259 0.098180324 -0.5855765 -0.5206789
0.4241722 -0.16529454 -0.4903929 0.6871907 0.14697972 -0.4594406 -0.10697351 0.28734997
0.09514744 0.40784922 0.19514766 -0.6231072 0.46156698 0.63502276 0.36285442 -0.36926505
0.17176981 0.43695575 0.4993674 -0.45200276 0.43076658 0.020931894 0.603281 -0.20820905
00000000: 0a68 3cbe e07a 75be 030e bbbe fd32 59bd
00000010: 66bf babe 3982 f5be 51f1 32bf 99f7 87be
00000020: a85b 42be c67a 253f be0d 313e 73e4 ca3e
00000030: b59b 08bf c412 c93d 57e8 15bf 364b 05bf
00000040: 192d d93e f942 29be c714 fbbe bbeb 2f3f
00000050: da81 163e cc3b ebbe ed14 dbbd 891f 933e
00000060: a9dc c23d 9dd1 d03e cad4 473e f483 1fbf
00000070: 8252 ec3e da90 223f 0ec8 b93e 4f10 bdbe
00000080: 6de4 2f3e aab8 df3e 15ad ff3e e86c e7be
00000090: 708d dc3e 5d79 ab3c a070 1a3f c134 55be

bias f4 [20]
0.4269145 -0.07999438 0.16901164 0.34308335 -0.45203024 -0.17354277 0.3012639 -0.14699337
0.23668203 0.12845922 0.28913572 0.462835 0.28499025 -0.25429082 -0.15798391 -0.086454734
0.5915299 -0.04261552 0.5820743 0.12592399
00000000: 8a94 da3e 18d4 a3bd 6311 2d3e 9fa8 af3e
00000010: 8270 e7be 32b5 31be 433f 9a3e 6e85 16be
00000020: c65c 723e d08a 033e 9909 943e b6f8 ec3e
00000030: 3eea 913e 6832 82be 89c6 21be 2e0f b1bd
00000040: 816e 173f 9d8d 2ebd d202 153f 38f2 003e

weight f4 [20, 20]
-0.09871527 0.029796725 0.18786362 -0.03341416 -0.10741115 0.11517322 0.18105152 -0.16629566
-0.17457066 -0.008301773 -0.12196214 -0.21909076 -0.02688946 -0.19580312 -0.14779034 -0.18342699
0.09824765 0.20699245 0.2004422 0.15570506 -0.0063984813 0.14879806 0.13005239 0.022367002
0.03353323 0.010388326 -0.11172098 0.039725315 0.19733514 -0.0023553248 0.21945123 -0.22013658
0.04095333 -0.14417416 -0.046406936 -0.05021288 -0.09724194 -0.084981486 0.12722413 -0.1993538
0.052140936 -0.18808308 -0.21757 -0.15464967 0.116649404 -0.16814317 -0.21636988 0.052510228
0.15600681 0.14723036 0.12854852 0.018995391 -0.17460479 -0.032737948 0.22131704 0.13417658
0.1955887 -0.13957267 -0.076944694 -0.14064242 -0.13920353 0.19662164 -0.15443283 0.028238894
-0.19882476 -0.077494875 -0.16095331 0.12762697 -0.20179464 0.09440143 0.00268426 -0.076285064
0.109404705 -0.118804894 -0.05589533 0.11638959 0.15396382 -0.038670614 0.042743787 0.0892039
0.03774592 0.10438127 0.035865977 -0.1725544 -0.08712121 0.098457 0.2000044 -0.11525205
0.21316606 0.051683918 0.057942536 0.041657288 0.0686748 0.22349028 0.22317292 0.058779854
0.047585476 0.13974881 -0.162326 -0.21136703 -0.20832826 0.062518016 0.034901883 0.13704278
0.18939343 -0.02985281 0.15843377 -0.20328785 0.19227703 -0.16770901 -0.099405445 -0.1837148
-0.021943757 0.075074166 -0.07052292 0.03996218 -0.047590036 -0.15645607 -0.137799 0.20983148
-0.072099485 -0.023921687 -0.039064966 0.12903365 0.12528299 0.159087 0.07452412 -0.07566998
-0.18863823 0.0012632548 -0.2154695 0.14237565 -0.10572695 -0.17872794 0.17484592 -0.034434948
0.21740824 -0.030576173 0.13377386 0.08078449 -0.19097754 -0.0034462218 0.08677698 -0.2165877
0.1335938 0.0027693727 -0.027905134 -0.09980473 -0.08087907 -0.124192655 -0.037855048 -0.028516516
0.21208236 -0.01798966 -0.09997269 0.049846947 0.13788883 0.04163359 0.011335254 0.01477785
-0.14207795 -0.22179915 -0.18965378 0.033323526 -0.17157081 -0.011058538 -0.0072001074 0.023756526
0.05951852 -0.057169832 -0.14059545 -0.15871686 0.009521206 0.14464413 0.132684 0.19916777
-0.0008433161 -0.042352185 0.15096441 -0.20403667 -0.15802503 0.06514963 -0.101741344 0.20666626
0.008508944 -0.11584461 0.1889192 0.1712251 -0.14211997 -0.121004306 -0.012744743 -0.21276256
0.09531802 0.14490147 -0.07024727 0.148535 -0.13442108 0.21726295 -0.1915638 -0.07397074
0.093709275 0.20288858 -0.1727639 -0.095352136 0.086109295 0.005078556 0.21202743 0.036599096
-0.069060065 0.11137301 -0.1858271 0.1395539 0.22037248 0.08520665 0.05678852 -0.19423057
-0.051073205 -0.13930635 -0.19468452 0.111698344 -0.17418183 -0.142836 0.04378537 -0.08750693
-0.09852247 0.20322655 -0.056359623 -0.10962501 0.01398009 0.07910098 0.11398101 -0.16628942
-0.19392362 0.017136667 0.1143938 -0.21464977 -0.20036694 0.19348627 0.1700579 -0.20407265
0.04094456 -0.050346293 -0.177666 -0.13405034 0.20325866 0.17242268 0.05588357 -0.0025393313
-0.06036677 -0.037446573 0.21926947 0.03077812 -0.21306781 0.1491089 0.06140358 -0.07928539
00000000: 3b2b cabd 4318 f43c 525f 403e 49dd 08bd
00000010: 61fa dbbd f0df eb3d 9265 393e 6949 2abe
00000020: a7c2 32be 2904 08bc 49c7 f9bd 5459 60be
00000030: 4947 dcbc 9d80 48be 5a56 17be 49d4 3bbe
00000040: 1036 c93d d4f5 533e b840 4d3e 2671 1f3e
00000050: 5aaa d1bb 855e 183e 742c 053e 013b b73c
00000060: 245a 093d cc33 2a3c f8cd e4bd 03b7 223d
00000070: 3912 4a3e cb5b 1abb d3b7 603e 7c6b 61be
00000080: aebe 273d 64a2 13be 3315 3ebd 05ac 4dbd
00000090: c826 c7bd c60a aebd 0b47 023e 6723 4cbe
000000a0: bc91 553d da98 40be acca 5ebe 7c5c 1ebe
000000b0: e2e5 ee3d b92d 2cbe 1190 5dbe f714 573d
000000c0: 40c0 1f3e 8ec3 163e 39a2 033e 399c 9b3c
000000d0: 99cb 32be 3a18 06bd efa0 623e 9665 093e
000000e0: 6748 483e 23ec 0ebe 2e95 9dbd 9104 10be
000000f0: 5f8b 0ebe 2f57 493e a423 1ebe 4155 e73c
00000100: b898 4bbe a2b5 9ebd f2d0 24be a5b0 023e
00000110: 41a3 4ebe 8955 c13d 69ea 2f3b 583b 9cbd
00000120: 930f e03d fb4f f3bd 80f2 64bd aa5d ee3d
00000130: b1a8 1d3e 1465 1ebd 1c14 2f3d 89b0 b63d
00000140: 779b 1a3d d9c5 d53d 34e8 123d 1ab2 30be
00000150: 9b6c b2bd d3a3 c93d f4cd 4c3e 4409 ecbd
00000160: 3448 5a3e 84b2 533d 2755 6d3d d5a0 2a3d
00000170: 60a5 8c3d a3da 643e 7187 643e 25c3 703d
00000180: fde8 423d 501a 0f3e c938 26be 9970 58be
00000190: 0154 55be 7209 803d 47f5 0e3d f154 0c3e
000001a0: 5af0 413e e18d f4bc 763c 223e b12a 50be
000001b0: 45e4 443e e9bb 2bbe 1595 cbbd bc1f 3cbe
000001c0: 65c3 b3bc 7cc0 993d 526e 90bd 62af 233d
000001d0: c5ed 42bd 0536 20be 2e1b 0dbe 10de 563e
000001e0: e5a8 93bd 6af7 c3bc 9602 20bd 6621 043e
000001f0: 2f4a 003e b4e7 223e 1aa0 983d ddf8 9abd
00000200: 612a 41be cc93 a53a 09a4 5cbe ecca 113e
00000210: 5f87 d8bd 7504 37be cf0a 333e a90b 0dbd
00000220: 44a0 5e3e e27a fabc 04fc 083e 5772 a53d
00000230: 9e8f 43be 02da 61bb 21b8 b13d 2bc9 5dbe
00000240: d0cc 083e 5d7e 353b 4f99 e4bc 6c66 ccbd
00000250: eda3 a5bd b858 febd e50d 1bbd 789b e9bc
00000260: 1e2c 593e 0d5f 93bc 7bbe ccbd 502c 4c3d
00000270: bb32 0d3e fc87 2a3d 80b7 393c cc1e 723c
00000280: e27c 11be 511f 63be 9a34 42be 407e 083d
00000290: 42b0 2fbe df2e 35bc e1ee ebbb 0c9d c23c
000002a0: b1c9 733d ea2a 6abd 41f8 0fbe ac86 22be
000002b0: d5fe 1b3c 971d 143e 51de 073e a3f2 4b3e
000002c0: fc11 5dba 7c79 2dbd 6a96 1a3e fdee 50be
000002d0: 50d1 21be 2b6d 853d c45d d0bd 52a0 533e
000002e0: 1969 0b3c f03f edbd 0974 413e a255 2f3e
000002f0: e687 11be 1bd1 f7bd 54cf 50bc 6ede 59be
00000300: 1836 c33d 0d61 143e cddd 8fbd 8f19 183e
00000310: aea5 09be 2e7a 5e3e 4d29 44be f97d 97bd
00000320: a6ea bf3d 06c2 4f3e 05e9 30be fb47 c3bd
00000330: 125a b03d 046a a63b b81d 593e efe8 153d
00000340: 5d6f 8dbd 8817 e43d 7649 3ebe 38e7 0e3e
00000350: 53a9 613e d380 ae3d 149b 683d 61e4 46be
00000360: 2332 51bd 53a6 0ebe 615b 47be 1ac2 e43d
00000370: b95c 32be 9a43 12be 4a58 333d d536 b3bd
00000380: 26c6 c9bd 9f1a 503e 59d9 66bd 1483 e0bd
00000390: bf0c 653c b2ff a13d e06e e93d c647 2abe
000003a0: ea93 46be 3262 8c3c 4c47 ea3d 26cd 5bbe
000003b0: fe2c 4dbe 4421 463e a823 2e3e 6cf8 50be
000003c0: 7cb5 273d ea37 4ebd 13ee 35be 7e44 09be
000003d0: 0a23 503e 928f 303e 2ce6 643d e96a 26bb
000003e0: 2543 77bd 9461 19bd 2d88 603e 6522 fc3c
000003f0: 732e 5abe 01b0 183e 5282 7b3d 6160 a2bd

bias f4 [20]
0.05388541 0.21792272 0.10199055 0.2030446 0.06968536 -0.07478716 0.085628614 -0.117453486
-0.04561504 -0.12660879 -0.18801159 0.1196484 0.18253897 -0.021732962 0.005650727 -0.024384223
0.0015551115 -0.16102491 0.042421408 0.22284646
00000000: f3b6 5c3d 2227 5f3e 6ce0 d03d ecea 4f3e
00000010: 33b7 8e3d 032a 99bd 0e5e af3d 748b f0bd
00000020: d6d6 3abd bca5 01be 1c86 40be 380a f53d
00000030: 7feb 3a3e 5309 b2bc bc29 b93b 6cc1 c7bc
00000040: e2d4 cb3a b7e3 24be 12c2 2d3d dd31 643e

weight f4 [20, 20]
0.006647022 -0.14905243 -0.11077839 0.21141519 0.20255572 0.20970862 0.12837365 -0.13560475
-0.028896578 0.10940713 -0.14864501 0.13912229 0.14248519 0.20386396 0.07511087 0.10823538
-0.044826448 0.20867786 0.024094818 0.015548635 -0.12452655 0.17170328 -0.07670863 -0.036156263
0.17098786 0.14671175 0.19509529 0.17636245 -0.022054302 0.15983348 -0.1397302 0.09530317
-0.008673091 -0.033919238 -0.03735421 0.035481464 0.044969805 0.19715726 -0.02076471 0.21570225
0.0009526324 0.21791562 -0.12233332 -0.22019808 0.16644542 0.16263051 -0.22316742 -0.070588656
-0.13040596 0.10891503 0.09033225 -0.15340178 0.058689386 0.044514067 0.13669334 0.15111087
0.07405742 0.0010199922 0.123153046 0.16329336 -0.032455582 -0.16707373 0.16233124 0.022640467
0.064979106 0.091291174 -0.10376675 0.0072696796 -0.028087301 -0.05588797 -0.15653837 0.023683036
0.055838205 0.17091815 0.16797571 -0.12815168 0.15201212 -0.16625778 -0.13495411 -0.21953602
0.18285589 0.10194382 0.06441525 0.13950531 0.047452223 0.0859845 0.07774827 -0.09166865
-0.037647825 0.047924194 -0.17841683 -0.19362465 -0.14275004 0.06308469 -0.027189981 0.08105654
0.035679705 -0.19201961 0.14563917 -0.021060804 0.03484937 0.014314969 -0.19921505 0.084855564
-0.1606398 -0.17403954 -0.0971628 -0.08687617 -0.18183537 -0.06385412 0.22258262 0.004062082
-0.050228555 -0.019003041 -0.013881142 -0.06495986 0.06027078 0.04756226 0.117477424 0.035356954
0.12321745 -0.065225974 -0.0377935 0.061442498 0.17175822 0.091510475 0.020524912 -0.15868947
-0.007228656 0.07408957 0.06281091 0.14524563 0.108992845 -0.026778838 0.009914888 -0.16651818
-0.0018814877 -0.09962875 -0.08461579 -0.06300462 -0.045776602 -0.19695924 0.12781672 0.16975503
0.018584142 -0.092526175 -0.044579 0.20968375 0.10384751 0.014697109 0.09116 0.18548791
-0.0144301765 -0.17132738 0.22141533 -0.11437821 0.009860244 -0.022699669 0.12014966 0.09921753
0.10538815 0.1701003 -0.20408857 -0.079877764 -0.0150724 0.122392125 0.12981713 -0.13237023
0.03144356 0.16753258 0.21721655 0.199507 0.1677115 0.19411194 -0.09011762 0.10505825
-0.01973664 0.09767169 0.0095053725 0.09696539 0.12298845 0.01970724 0.22244318 0.113135934
0.09339071 0.0045192596 0.12792444 0.018346237 -0.022892686 -0.16423737 0.13674252 -0.14698933
0.082299836 0.04790636 0.097931266 0.12394441 -0.108098105 -0.11638509 -0.15701732 0.11506201
0.069066964 -0.19820306 -0.22279686 0.17830049 -0.03784084 -0.107072674 0.10015147 0.15281886
0.15993506 0.09442112 0.024676159 -0.14306393 0.13715705 -0.17901817 -0.041742135 -0.14068401
-0.14176323 0.050570123 -0.09345532 0.13886765 -0.13909693 -0.07619923 0.056085546 0.13012044
-0.11692932 0.19030179 -0.16816741 -0.1816336 0.07077429 -0.10458967 -0.034826715 -0.03743239
0.07601984 -0.012528163 -0.16323659 -0.2213336 0.0797758 0.08865015 -0.018233696 -0.15997875
0.047741495 0.0074544325 0.092716314 -0.11489216 -0.089993 -0.060296047 0.14018026 -0.22165133
0.12952556 -0.07108907 -0.05722085 0.021659393 0.15278222 0.13517682 -0.088387564 0.20038493
00000000: 43cf d93b 33a1 18be c8df e2bd 397d 583e
00000010: c46a 4f3e dbbd 563e 6274 033e f9db 0abe
00000020: 84b8 ecbc d810 e03d 6636 18be 1376 0e3e
00000030: a3e7 113e b7c1 503e bad3 993d 83aa dd3d
00000040: f09b 37bd a6af 553e 7f62 c53c b4bf 7e3c
00000050: c707 ffbd fcd2 2f3e 6a19 9dbd 9718 14bd
00000060: 7117 2f3e 9b3b 163e 0fc7 473e 5c98 343e
00000070: 39ab b4bc 63ab 233e 6f15 0fbe 4f2e c33d
00000080: 9519 0ebc e6ee 0abd ba00 19bd 0355 113d
00000090: 4232 383d 98e3 493e c11a aabc 0de1 5c3e
000000a0: 14ba 793a 4625 5f3e e489 fabd 9b7b 61be
000000b0: ab70 2a3e 9d88 263e 0086 64be c990 90bd
000000c0: 2489 05be d80e df3d 1d00 b93d 5b15 1dbe
000000d0: 4864 703d 6254 363d 57f9 0b3e cfbc 1a3e
000000e0: 6bab 973d 42b1 853a aa37 fc3d 6036 273e
000000f0: 25f0 04bd 6015 2bbe 293a 263e 8078 b93c
00000100: c413 853d def6 ba3d a983 d4bd 7e36 ee3b
00000110: 5717 e6bc c9ea 64bd 984b 20be ed02 c23c
00000120: 9ab6 643d 2b05 2f3e d301 2c3e 323a 03be
00000130: 11a9 1b3e 7b3f 2abe 6931 0abe 0dce 60be
00000140: 933e 3b3e ecc7 d03d 25ec 833d 7bda 0e3e
00000150: 435d 423d a418 b03d 7c3a 9f3d c6bc bbbd
00000160: 9b34 1abd 294c 443d e7b2 36be 8a45 46be
00000170: 112d 12be 8c32 813d 86bd debc f900 a63d
00000180: e224 123d caa0 44be 6f22 153e b587 acbc
00000190: 37be 0e3d 5589 6a3c 08ff 4bbe c1c8 ad3d
000001a0: c27e 24be 6c37 32be 4afd c6bd 22ec b1bd
000001b0: 0d33 3abe f3c5 82bd b3ec 633e 371b 853b
000001c0: 75bc 4dbd 44ac 9bbc bb6d 63bc ad09 85bd
000001d0: 7ede 763d a5d0 423d 0198 f03d 74d2 103d
000001e0: 6e59 fc3d 3295 85bd 5bcd 1abd 21ab 7b3d
000001f0: 63e1 2f3e d869 bb3d dc23 a83c 7e7f 22be
00000200: 5dde ecbb 46bc 973d 02a3 803d 45bb 143e
00000210: a437 df3d 4b5f dbbc 0e72 223c be83 2abe
00000220: 409c f6ba 280a ccbd 0b4b adbd 9108 81bd
00000230: 3f80 3bbd afaf 49be 63e2 023e 43d4 2d3e
00000240: c53d 983c 5d7e bdbd 7898 36bd 56b7 563e
00000250: 01ae d43d 25cc 703c 18b2 ba3d 8bf0 3d3e
00000260: 8c6c 6cbc 7270 2fbe b3ba 623e 1f3f eabd
00000270: dc8c 213c a8f4 b9bc 0611 f63d 8f32 cb3d
00000280: bed5 d73d c62e 2e3e 98fc 50be f496 a3bd
00000290: 3af2 76bc b9a8 fa3d c8ee 043e 108c 07be
000002a0: f6ca 003d a98d 2b3e 046e 5e3e 904b 4c3e
000002b0: 90bc 2b3e 48c5 463e 968f b8bd c828 d73d
000002c0: bcae a1bc 1808 c83d 6cbc 1b3c ca95 c63d
000002d0: 5ee1 fb3d 1471 a13c 25c8 633e d0b3 e73d
000002e0: a143 bf3d 4c16 943b a0fe 023e d94a 963c
000002f0: 7189 bbbc d72d 28be 3b06 0c3e 5f84 16be
00000300: d18c a83d 7639 443d 3090 c83d 91d6 fd3d
00000310: 8a62 ddbd 4e5b eebd 26c9 20be a2a5 eb3d
00000320: fb72 8d3d bef5 4abe dc24 64be 6794 363e
00000330: fffe 1abd eb48 dbbd 371c cd3d 8c7c 1c3e
00000340: 04c6 233e dc5f c13d a825 ca3c 5a7f 12be
00000350: e672 0c3e 8a50 37be cdf9 2abd 780f 10be
00000360: 612a 11be 9e22 4f3d 8165 bfbd 5233 0e3e
00000370: 6d6f 0ebe 580e 9cbd f5b9 653d 4b3e 053e
00000380: a478 efbd 79de 423e 1434 2cbe 29fe 39be
00000390: 1cf2 903d 1c33 d6bd 75a6 0ebd b552 19bd
000003a0: 4ab0 9b3d ed42 4dbc 7e27 27be 46a5 62be
000003b0: 7f61 a33d 368e b53d d55e 95bc 78d1 23be
000003c0: 968c 433d 5044 f43b 0de2 bd3d 954c ebbd
000003d0: 404e b8bd fdf8 76bd 6a8b 0f3e 91f8 62be
000003e0: 59a2 043e 2597 91bd 6960 6abd 0a6f b13c
000003f0: f172 1c3e cb6b 0a3e 8a04 b5bd b531 4d3e

bias f4 [20]
0.06630789 -0.019099455 0.016201202 0.14665657 0.13299178 -0.14460759 0.18356344 -0.03239683
-0.11456312 0.19364758 -0.10330424 -0.033994034 -0.03748072 -0.044493567 -0.1714735 -0.026359007
0.09093838 -0.19800723 -0.15540943 -0.19395022
00000000: 6ecc 873d 7676 9cbc 62b8 843c 242d 163e
00000010: ff2e 083e 0314 14be 0ef8 3b3e 8ab2 04bd
00000020: 12a0 eabd 8d4b 463e 2c91 d3bd 543d 0bbd
00000030: 6285 19bd e33e 36bd c096 2fbe d8ee d7bc
00000040: e73d ba3d 68c2 4abe a623 1fbe e39a 46be

weight f4 [1, 20]
-0.042218264 0.1583528 0.10095424 0.037551116 0.16538112 0.10145311 -0.018566282 -0.020620927
0.020986995 -0.044573322 0.008087299 0.057348695 -0.097305566 -0.043597553 0.1572319 -0.07416117
-0.012445929 -0.18755217 0.18439578 0.13577501
00000000: 0fed 2cbd 3d27 223e 19c1 ce3d 33cf 193d
00000010: ab59 293e a6c6 cf3d 5118 98bc 38ed a8bc
00000020: ebec ab3c 8492 36bd 9780 043c 77e6 6a3d
00000030: 2448 c7bd 5993 32bd 6601 213e d0e1 97bd
00000040: 03ea 4bbc ad0d 40be 3fd2 3c3e 9b08 0b3e
