src/torchfort/torchfort_local/examples/fortran/burgers/burgers_model_trained_04.pt (torch, 17996 bytes, 17 tensors)

weight f4 [10, 2]
00000000: 38a8 e53e e4a9 9f3f 15c8 edbd 81d3 283f
00000010: f53a 6e3d 595c 0a3f 5086 3cbf 6830 9c3f
00000020: 0ea5 253f 6e50 6cbf 15bc 373f bf7f 763e
00000030: 3728 db3f 4420 0bbe eef1 3e3f ee61 1f3f
00000040: 1694 173f e5d6 983e f1bb 7dbf fb21 e33e
0.44854903 1.2473722 -0.11610428 0.6594773 0.058161695 0.5404716 -0.73642445 1.2202272
0.6470498 -0.92310226 0.71771365 0.24072169 1.7121648 -0.13586527 0.74587905 0.62258804
0.59210336 0.29851452 -0.991149 0.44361863

bias f4 [10]
00000000: b4e3 2bbf 4006 3c3e 6378 41be 7b4c 053f
00000010: e3f9 06bf 0f55 33be 5507 6e3e 4533 c3be
00000020: 4609 c43e 4ea3 21bf
-0.6714432 0.18361759 -0.1889358 0.52069825 -0.52725047 -0.17512916 0.23244984 -0.38125053
0.38288325 -0.6313981

weight f4 [10, 10]
00000000: 38f9 033f 6e78 f7be 2869 aa3e c2ac cbbe
00000010: 4cc2 6b3c 8b22 e53e d3cb 233f c20e 113f
00000020: 4bf8 0b3f 9f2b 62be f1ad bcbd 3395 8dbe
00000030: e721 4b3d a34b e9bb 7505 ee3e 9f60 9dbe
00000040: 1cc1 863e dcaa 453d ea1f 5dbd 1368 a0be
00000050: 462a 41bf e5f9 423d e43f afbe db4f 063f
00000060: 719d 96be 657c 163f a970 103f bb99 c33c
00000070: d8e8 733f 95ac 04bf c59a 45be b7b2 88be
00000080: 2565 003d cf4c 0bbe b375 0e3e 5b3e adbe
00000090: d28c d53d 9d85 a2be 046f d5be f926 3cbe
000000a0: c4d7 df3e 98f0 cc3e 7a34 ab3e 4f4f 833d
000000b0: 2a76 1ebf 050b 4bbe 19ef b0be df3f e3bb
000000c0: 9555 c93e 347a 573e 3c4f cdbe 6609 11bf
000000d0: 5199 74bd 2d97 0ebf af45 223f 3e6e 8cbd
000000e0: cc15 a03e 39f0 d4bd 0e07 3abe 253d 1cbd
000000f0: f7a7 f8be 0ea2 dabe 5a9f 8bbe 34ad 1fbd
00000100: 3654 ba3d 6cd2 44bf b90a 13be 812a 26bf
00000110: b35a 89be f37a 15bf 5ca3 553f 0956 8bbe
00000120: ac7f b2be af13 aabf 3ff4 8d3f 8c17 bf3e
00000130: 94be 1b3f 86c0 053f 4a1f 883e edc3 67bf
00000140: 6aa0 c53e 1057 683e bd2d 813e 0fc4 00be
00000150: 69ef cbbe 853a 613d 5e0a 363e ccf8 17be
00000160: 7535 b93d aa1d b0bd 8eaf b3be 25d2 f3bd
00000170: cf69 c0be 599f 79be 8a9f 61be fa62 adbe
00000180: daf4 e7bd 9d29 93be 82f5 903e ba19 dcbe
0.5155215 -0.48334068 0.33283353 -0.3978024 0.014389586 0.44752917 0.63982886 0.56663144
0.5467574 -0.22086953 -0.09212864 -0.27652892 0.04959288 -0.0071196123 0.46488538 -0.3073778
0.26319206 0.048258647 -0.053985514 -0.31329402 -0.7545513 0.0476016 -0.34228432 0.524656
-0.29416993 0.5878356 0.56421906 0.023877015 0.95277166 -0.5182584 -0.19297321 -0.2669885
0.03134646 -0.13603519 0.13912086 -0.33836636 0.1042725 -0.31742564 -0.4168626 -0.18374242
0.43719304 0.40027308 0.33438474 0.06411611 -0.61899054 -0.19828422 -0.34557417 -0.0069351043
0.39323106 0.2104271 -0.40099514 -0.56654966 -0.059716526 -0.55699426 0.6338758 -0.068569645
0.3126663 -0.10397381 -0.18166754 -0.03814425 -0.48565647 -0.42701763 -0.27270013 -0.03898354
0.09098093 -0.7688358 -0.14359559 -0.64908606 -0.2682701 -0.5839073 0.8345239 -0.27214077
-0.3486303 -1.3287257 1.1090163 0.37322652 0.60837674 0.5224689 0.26586372 -0.90533334
0.3859895 0.22689462 0.25230208 -0.1257479 -0.39831093 0.05498745 0.17777392 -0.14841002
0.09043399 -0.08599408 -0.35094875 -0.11905316 -0.37580726 -0.24377193 -0.22033516 -0.33864576
-0.113259986 -0.28742686 0.28312308 -0.42988378

bias f4 [10]
00000000: 160b 943e 1402 08be 9c0c 1abd cd80 fa3d
00000010: 20b6 233e 47de 37be 8559 8f3d 098d 8cbc
00000020: e0af 0a3e 2eee 963d
0.28914708 -0.13282043 -0.03760968 0.12231598 0.15987444 -0.17955886 0.06999496 -0.017157095
0.13543653 0.07369648

weight f4 [10, 10]
00000000: e0fc 13be 8c13 d9be 8ece 623f ccb4 aabe
00000010: 9ec8 003e 1cd0 45be 61e5 0e3f 56ba 303e
00000020: db1b 3b3f ec79 69be 06bf 503e dcdb 11bf
00000030: fa8b 343e 8239 00bf 0275 433f e3a5 06bf
00000040: 4bf9 fa3d 7b3c 033d 6d4e bd3e 5aa8 cdbe
00000050: 6210 4e3f 9f5b 45be 7167 0dbe 2618 f6be
00000060: bc48 e83e 53f8 14bf 5650 07bf b967 373e
00000070: f84d 8c3e ebd7 ffbe b32c d43d 8465 58bd
00000080: 88fc 30bd b141 07be 84e8 3bbe 90fa 1fbe
00000090: 4fd8 18bf 08bb f23c f35e b83e dfb2 15bf
000000a0: c554 ae3c 348f 573d a509 ff3e abda 24be
000000b0: d300 ae3e 5a9f c6bd 75b1 3d3e e2d4 14be
000000c0: 603b 2a3e 952e d5bc 9287 82be 45d0 debe
000000d0: 2262 043f d2ae 6f3d 3144 573e a9d5 8dbe
000000e0: 5273 65be 085e 30bf 2a97 963e 9f9c e9bd
000000f0: 5f47 b9be cdc9 c8be 3968 1b3f bc85 3ebe
00000100: 999a 903e 031d 1cbf 538f 78be baf6 39bf
00000110: 46f0 d83d a3d5 2c3c a3bd 81bc 8108 5bbf
00000120: c22c c7bf 60c8 d4be f502 ba3d 148e 0a3f
00000130: 9532 1abf 37a6 cabd 4bdb 1dbd f9f0 88bf
00000140: d07f 2bbe 6cc1 1b3f f33e e2be 1f8e 243e
00000150: d6d2 4bbf f855 db3e c17e f23d 7ce4 a43e
00000160: f4c5 fabe fb0a 4bbe 4c72 babf 1419 9b3d
00000170: 1ac9 533e 1af7 963f 1124 953d 8799 d43e
00000180: c8b3 743f cc57 2abf 8454 9bbc fd52 603e
-0.14451933 -0.42397726 0.8859643 -0.33341062 0.1257653 -0.19317669 0.55818754 0.17258582
0.7308938 -0.22800416 0.2038537 -0.56976104 0.17631522 -0.5008775 0.76350415 -0.52596873
0.1225458 0.0320401 0.36973897 -0.40167505 0.8049375 -0.19273232 -0.13808991 -0.480653
0.45367992 -0.5819141 -0.5285696 0.17910661 0.27403235 -0.4996942 0.10360088 -0.052831188
-0.043209583 -0.13208653 -0.18350416 -0.15622926 -0.5970506 0.0296302 0.3600994 -0.5847606
0.021280656 0.052626804 0.49812046 -0.1609904 0.33985004 -0.09698363 0.18524726 -0.14534333
0.16624212 -0.026023189 -0.25494057 -0.43518272 0.5171224 0.05851633 0.21022107 -0.27702072
-0.22407272 -0.6889348 0.29412204 -0.11406826 -0.36187264 -0.39216462 0.60705906 -0.18605703
0.2824295 -0.6098177 -0.24273424 -0.726421 0.105927035 0.010548982 -0.015837496 -0.8555985
-1.5560534 -0.41559124 0.09082595 0.54123044 -0.6023343 -0.09894984 -0.038539212 -1.0698539
-0.16747975 0.60842013 -0.4418865 0.1606984 -0.79618585 0.42839026 0.11840583 0.3220557
-0.4897915 -0.19828407 -1.4566131 0.07573143 0.20682183 1.179416 0.0728227 0.41523382
0.95586824 -0.6654022 -0.018961199 0.21906658

bias f4 [10]
00000000: b97d be3e c652 77bd 0627 5ebe 3877 aabe
00000010: 84ab 3a3e ef02 3fbe 03d7 5cbd 8349 d6be
00000020: f6b1 26be f77d 813d
0.37205294 -0.060381673 -0.21694574 -0.33294082 0.1822949 -0.18653463 -0.05391599 -0.4185296
-0.16278824 0.06322854

weight f4 [10, 10]
00000000: be73 e6be 8f21 15bf 1b67 8fbf dcff aabe
00000010: e2e7 e0be a10e 53bf 1d82 1fbe 4264 c6be
00000020: 4541 e53e 9e9b 4fbd 3ed1 323f d877 a1be
00000030: d44b d53c 9cb6 bbbe b7ab 153f 7a20 653f
00000040: 2a7a 6f3e c6b0 e3bd 12de 28be 43bc 33be
00000050: 6493 f6bc ae38 67be e95d b33e 5800 c43e
00000060: 09e4 993d d812 743d 9588 0abe dbfe 0f3f
00000070: 91d6 b03e 15d8 f0be a505 9fbe d2aa 1bbf
00000080: e098 bbbe b6e5 06bf e7e6 c4be d86b 18bf
00000090: 26a6 29bf 449d 1a3e aead 483f 6f8e 1dbe
000000a0: dc9e 4abe 7745 31bc eda5 053d 16ba aebe
000000b0: 5ef7 593c fe64 4abf b247 2dbf b020 67bd
000000c0: 86e2 343e b566 03bf 15d8 79bb 6100 e3bd
000000d0: 3cd8 3ebf 416c 19bf d5cb 43be bc6f 9c3e
000000e0: c640 fbbd da90 abbe d972 f8bd b91a 373f
000000f0: ac07 193f c6b6 ad3e 3f80 4cbe 2b32 9d3d
00000100: 0b15 fe3e 8883 b73e f951 d73e 8465 5a3e
00000110: 8fa9 66be a5d0 263e c044 e7b9 553e 293f
00000120: 795d 243f 9486 313f edbd 35be fe2c 9ebe
00000130: cadd 59be ee13 bb3e 3272 7abf 1c19 42bf
00000140: 127a a5bd 31ff d23d 9ed3 8abe 633e 8abe
00000150: a408 03be f0f0 0cbf 9edb f0be 1e39 2b3d
00000160: 1afd c43d afc2 93be 1402 fbbe 9595 35bf
00000170: 04a5 16bf 1d72 5dbf ebb2 3abf 1415 e2bd
00000180: 7511 143e 8641 3cbf 384b 973e 01b2 1a3f
-0.4501018 -0.5825433 -1.120334 -0.3339833 -0.43926913 -0.82444197 -0.15576978 -0.38748366
0.4477636 -0.050685517 0.6985053 -0.31536746 0.026037134 -0.36662757 0.5846514 0.8950268
0.23386446 -0.11117701 -0.16490963 -0.17552285 -0.030099578 -0.22580215 0.35032585 0.38281512
0.075141974 0.059588283 -0.13528664 0.56248254 0.345387 -0.47039858 -0.31058994 -0.60807526
-0.36640072 -0.5269426 -0.38457415 -0.59539557 -0.6626915 0.15099055 0.78390014 -0.15386365
-0.19787163 -0.010819784 0.032628942 -0.34126347 0.013303606 -0.7906035 -0.67687523 -0.056427658
0.17664537 -0.51328593 -0.003812318 -0.11084057 -0.745487 -0.5993081 -0.19120724 0.30553997
-0.12268214 -0.3350895 -0.121312805 0.7152515 0.5977733 0.33928508 -0.19970797 0.076755844
0.4962543 0.35842538 0.42054728 0.21327788 -0.22525619 0.16290529 -0.00044110976 0.66110736
0.6420513 0.69345975 -0.17748232 -0.308937 -0.21276012 0.36538643 -0.978305 -0.75819564
-0.08079924 0.1030258 -0.27114576 -0.27000722 -0.12796265 -0.5505514 -0.47042555 0.041802518
0.09618588 -0.2885947 -0.49025023 -0.7093137 -0.58845544 -0.8650225 -0.7292926 -0.110391766
0.14459784 -0.7353748 0.29549575 0.6042786

bias f4 [10]
00000000: b4bf bc3d a424 c23e ca45 9b3c a71b 933d
00000010: 970f 9ebe 6c2a 883e acd1 cf3e 0b23 98be
00000020: 565b 9abe 6122 6b3d
0.09216252 0.3791858 0.018954176 0.07183009 -0.3087127 0.26594865 0.40589654 -0.29714236
-0.3014781 0.057405833

weight f4 [10, 10]
00000000: 9cf5 debe ea24 8d3d a183 08be 0b9b a2be
00000010: c487 3ebe 875e e0be 7b6e 8b3e 98b4 523e
00000020: 836b 43bf f875 09bf c297 4d3b 38b0 c83e
00000030: 3c06 50bd f0b4 b3be 6f43 5bbe 6f37 f6bd
00000040: 6d1e 503e d83c d13e 7c30 a73e 35f4 20bf
00000050: 0339 133f 2576 17be 3f12 9c3b 1cf2 d93e
00000060: d244 e83e 7853 ce3e dc2d 0abf 8a8b 84be
00000070: fedf 233f 40e9 213e f42c b03d 90a1 31bf
00000080: 0271 ce3e 50b2 fc3e f58c c13e db1f b3bd
00000090: b012 67bf b87e b13d 7bf4 183f 448f 72be
000000a0: 6b11 c23e c021 913e 3bd0 4bbe 77fe 103f
000000b0: 3706 5b3e 57eb 913d 530e 0bbf 011b 7abf
000000c0: dc4c 97bd 3f44 483f ee6e e5bd e963 00bf
000000d0: f4cf 603f 2729 07bd 5565 993e 7e09 f6be
000000e0: 55ba 31be 0a7c fd3e e2f2 463d 9fcd 90be
000000f0: 132e 773d 61b1 c03d 5dab 37bf 8715 5b3c
00000100: 41c8 883e 0ea9 203f e788 02bd 7664 59bf
00000110: 9be1 6ebe 7b80 ff3e e0c5 eb3e eb97 e63c
00000120: 6fbb e1be 9850 fa3e 4358 f9bd 5a3b 1e3f
00000130: 4214 c4be 7e76 0bbf ddcd ec3d b0ea 063f
00000140: d46b b53e 8b83 b33e 5d3c 53be 40b7 aa3e
00000150: d1a8 d63e a701 a93d 1993 cbbe 1998 963e
00000160: b912 ee3e 1a9e d5be 6f7f 8fbe 0910 1fbf
00000170: 4bb9 09bf 0fa8 e3bd 97df a23d 81f1 2f3c
00000180: 0b6c 623c 4d43 263e b2bd a03e fd57 86be
-0.4354676 0.068918064 -0.13331462 -0.31758913 -0.18606478 -0.4382212 0.27232727 0.20576704
-0.76335925 -0.5369563 0.0031370972 0.39196944 -0.050787196 -0.35098982 -0.21412443 -0.12022292
0.20324107 0.40866733 0.32654178 -0.6287263 0.5750887 -0.14791162 0.0047629173 0.42567527
0.45365006 0.40298057 -0.53976226 -0.2588771 0.6401366 0.15811634 0.08602324 -0.6938715
0.40320593 0.49354792 0.37802854 -0.0874631 -0.9026289 0.08666748 0.5974805 -0.23687464
0.37903914 0.28346062 -0.19903652 0.5663828 0.2138909 0.07124966 -0.5431873 -0.97697455
-0.07387707 0.78229135 -0.11202799 -0.5015245 0.8781731 -0.03299823 0.29960123 -0.48054117
-0.17356236 0.49508697 0.048571475 -0.28281876 0.060346674 0.09408832 -0.71745855 0.013371832
0.26715282 0.62757957 -0.03186884 -0.84918916 -0.23328249 0.4990271 0.46049404 0.028148612
-0.44088313 0.48889613 -0.12175038 0.61809313 -0.38296705 -0.5447768 0.11562703 0.52701855
0.3543383 0.35061297 -0.20628496 0.33342934 0.41925672 0.08252268 -0.39760664 0.29412916
0.4649866 -0.41722184 -0.28026912 -0.6213384 -0.5379836 -0.11116039 0.07952803 0.010738731
0.013819705 0.1623661 0.31394726 -0.26239005

bias f4 [10]
00000000: eed2 683d f1e5 723d 9487 e03d c89f 07bf
00000010: 643c ef3d 772f a5be 3e10 09be 61a7 3fbe
00000020: 2a1c dd3e 106e 5d3e
0.056841783 0.05930132 0.109633595 -0.5297818 0.116814405 -0.32262775 -0.13385102 -0.18716194
0.4318555 0.21624017

weight f4 [10, 10]
00000000: 6691 863f 242e 223f 5d60 dfbd 1a8f 05be
00000010: 5749 ffbe 1e8e 273e 0e3c e2be c24c 51bf
00000020: 2039 12bf 9824 2b3e e6e0 b8bc 9a22 ccbd
00000030: 6765 bcbe e443 b33e 2fea cabd c9de 05bf
00000040: 7377 c1bd 9b86 a6be a285 a23e 2198 513f
00000050: c329 9a3e 5799 2b3d c4b9 173e bbfb a0be
00000060: 67ce 49be 849c c73e b4f8 bb3d 293f d23e
00000070: f53c 91bc 1c51 01bf 0e25 9c3e 36da 203e
00000080: 9777 18be cf0c 2abd 4a28 1c3e d3e1 843d
00000090: 3283 b2be 99ae 87be af14 bebe 2c07 ee3e
000000a0: 1d79 50be 5269 f4be b60d aa3e 2ddd 22be
000000b0: e821 853d 6416 b7be 0281 093f 9cc5 43be
000000c0: b709 cc3e 7f42 30be c7a7 f4be 74c3 153c
000000d0: d8d6 ff3e fc3b a93e b355 b63e 2dca 71be
000000e0: f28f d23c 68c1 8c3e 1f57 ce3e 1f10 ec3e
000000f0: f2ed 9c3d 49c6 a5be 648b 27be 5f51 173f
00000100: 6395 063f 599b 2cbe d035 5abe e2c0 063e
00000110: e750 d6be fa83 c53e 98c8 81be fc85 bbbe
00000120: cd31 9f3c 65a2 703e c84b d83e c342 253d
00000130: 750a ba3e 9b3e f93e 1c0a ca3e b55d 65be
00000140: b52d f8bd 7bda 2a3e be47 88bc 0327 b43e
00000150: 854c 8bbc b703 91be 5e89 523e 3b48 0dbe
00000160: cd90 463e 58c7 fd3e a38f e53e 505c 313f
00000170: 16fc 8cbe e40f 97be a714 18bf 445f 983b
00000180: b026 02bf 53f0 dbbe 113a 87be c5af 96bf
1.0513122 0.63351655 -0.10907052 -0.1304287 -0.4986064 0.16362807 -0.44186443 -0.8175775
-0.57118416 0.16713178 -0.022568177 -0.09967537 -0.36796114 0.35012734 -0.09907948 -0.5229307
-0.09446611 -0.3252457 0.3174258 0.81872755 0.30109987 0.041894283 0.14816958 -0.31442055
-0.19707642 0.389866 0.09178296 0.41063812 -0.017729262 -0.5051439 0.3049702 0.15708241
-0.1488937 -0.04151612 0.15249744 0.06488385 -0.3486572 -0.26500395 -0.37125155 0.46489847
-0.20358701 -0.47736603 0.33213586 -0.15904684 0.06500608 -0.3575927 0.53712475 -0.1911835
0.39851162 -0.17212866 -0.47784254 0.009140838 0.499686 0.33053577 0.35612258 -0.2361228
0.025703404 0.27491307 0.40300843 0.4610605 0.07662572 -0.32377842 -0.16361767 0.5910854
0.52571696 -0.16856135 -0.2130959 0.13159516 -0.418586 0.38577253 -0.25348353 -0.3662566
0.019432927 0.23499449 0.42245317 0.040346872 0.36336103 0.48680577 0.39460838 -0.22399028
-0.12118093 0.16684906 -0.016635772 0.35186014 -0.01700426 -0.28323147 0.20560214 -0.13797085
0.19391175 0.4956615 0.4483615 0.6928148 -0.27536076 -0.2950431 -0.5940651 0.0046500284
-0.5084028 -0.4295679 -0.2641149 -1.1772391

bias f4 [10]
00000000: 3ab2 2cbe 460b 69be 7619 73be 0963 3b3e
00000010: 4a8a 563e 360a 1ebe f385 84bc c5a9 ac3d
00000020: 8059 1ebe 6d12 22be
-0.16864863 -0.22758207 -0.23740181 0.18299498 0.2095119 -0.15433583 -0.016177153 0.084308185
-0.15463829 -0.15827341

weight f4 [10, 10]
00000000: 4b9e 183f e296 a03e 3169 bebc 7133 233e
00000010: c007 793d 9eb6 64be d3c8 3ebf dc03 c6be
00000020: e2c6 fc3e 760a 873e 99b4 f03e 135a d53e
00000030: ad47 16bf 175a 4e3d a946 46be 3a9a aabe
00000040: 1d0a 6a3e 5d61 fabe bc1b 273e 7ca0 e23e
00000050: 1fc2 32be a948 f23e e0a6 16bf cdc5 40be
00000060: 88e1 843d ea47 63be cba3 393e b1e1 d0bd
00000070: e99a 043f 8a82 023f 4adf fe3e 2e88 7cbe
00000080: e31a c3be bab4 643f 8937 463d d74c a8be
00000090: 3577 9f3e f243 23bf ffcd dfbe 7d2b 083f
000000a0: 6ac3 7cbe 9741 54bd 7c8c bebe 3730 2fbe
000000b0: 7615 983d 4917 64bd c343 f43e 6607 3c3e
000000c0: 2f00 e53a bc30 4f3e 0231 c6be a8bb 8bbf
000000d0: 81f4 123f a28d 5b3e 0528 8bbe 495b 453e
000000e0: 899c dcbe 7f8a 3d3d 9512 01bf f54e dfbe
000000f0: f521 f13e c7c6 9bbe 0d1c ff3d ed67 213f
00000100: 9660 dfbe 5ed4 02bf 6ec5 843e 8247 a2be
00000110: 4b93 47be 5487 3b3e 804c ed3e 37d9 5f3e
00000120: bf1e 513e 3424 8f3e 530b 35be 952d f3bd
00000130: 34d1 45bd ec4d dcbe fc51 ae3e aa0a b63e
00000140: 8191 40be f74c e73d 9edc e1be 8f6c d03e
00000150: dbe0 2a3d b2d3 92bd 598c 533f 96ea 21be
00000160: 7791 853e 4e16 0abd b9ab 643e 4a8a 483d
00000170: 9e35 953e feaa e13e be5a cabe 529e 3fbe
00000180: d81c 313e 0a5b 7ebe 957a e0be 2622 133e
0.59616536 0.31365114 -0.023243519 0.15937592 0.060798407 -0.22335288 -0.74525183 -0.3867482
0.49370486 0.2637517 0.47012785 0.41670284 -0.5870312 0.050378885 -0.19362892 -0.3332079
0.2285542 -0.48902407 0.16319174 0.44263065 -0.17456864 0.4732106 -0.5884838 -0.18825455
0.06488329 -0.22195402 0.18128888 -0.10199297 0.51798874 0.50980437 0.4977973 -0.24661323
-0.3810645 0.89338267 0.048392806 -0.32871124 0.31145635 -0.6377555 -0.4371185 0.5319136
-0.2468392 -0.051820364 -0.37216556 -0.17108236 0.07425968 -0.05568627 0.47707948 0.18362197
0.0017471368 0.20233434 -0.38709265 -1.0916643 0.57404333 0.21440747 -0.2717897 0.19273104
-0.43088177 0.04627466 -0.5041898 -0.43614927 0.4709622 -0.30425093 0.12456522 0.63049203
-0.43628377 -0.51105297 0.25931877 -0.3169518 -0.19489782 0.18313342 0.46347427 0.21860205
0.20421885 0.27957308 -0.17680101 -0.118739285 -0.048295215 -0.430282 0.34046924 0.3555501
-0.18805505 0.11293977 -0.4411363 0.40707824 0.041718345 -0.07169284 0.8263603 -0.15812144
0.26087543 -0.033712678 0.22331132 0.048960008 0.2914247 0.4407577 -0.39522356 -0.18712738
0.1729616 -0.24839416 -0.43843523 0.14368495

bias f4 [10]
00000000: 33ec 363e 9957 433e d3b9 e3bd e3c5 1d3e
00000010: dd65 a2bd 1a93 453e 08b4 31be a96b f9bd
00000020: d87e b1be 7fa1 c7bd
0.1786354 0.19076385 -0.111194275 0.15407519 -0.07929585 0.19294396 -0.17353833 -0.12178738
-0.34667087 -0.097476

weight f4 [10, 10]
00000000: 2141 893d b5f9 ea3e e4d2 053f 0bf6 e13e
00000010: f100 8d3e 37a8 83be 10a9 dc3d 83dc d03e
00000020: acef fdbd 1135 dd3d d6af ab3e 775b 77be
00000030: 2b8f 61be 1182 b3be f5c9 d2bd 65e5 85be
00000040: dc3c 9d3e 16c8 883e 432e debe bbbf 5f3e
00000050: 8d6d 5abe 8fa7 7a3e 22dc 2f3e bf5a 68be
00000060: 8e27 f03e 19e9 5a3e d22b 2c3d 3b7e b6be
00000070: eeea 133d 4c38 19be bf1e 483d b7a8 aebc
00000080: 2cf3 f4bb 22dc 4a3d a98a 83be 6091 413e
00000090: 0228 0d3e b27e 84be 72eb e6be 86af 1abe
000000a0: 0dfc ef3c 5ed1 39be b041 8cbe 83b1 943e
000000b0: 2091 bc3e 04ab 203e 7caf b1be 484d a3be
000000c0: 59a0 ac3e 5ffc 473e 70ce 063e 8130 a13e
000000d0: 9cbe 013e a00a 213f 280d 8abd 55d7 89be
000000e0: 8b3d 523e 33ed c4bd 2267 55be 8f60 3b3e
000000f0: 2ca0 963e ebd3 76bd 338a 39be 9c75 55be
00000100: e124 363d 176e 0dbe 1332 723d bc43 483e
00000110: 6522 cbbe 1e2e af3e 1466 3bbe 182c b6be
00000120: 2b0f 2cbf 87f7 d5be fd94 e1be 9fb3 233f
00000130: 07a6 843e 8fd5 acbe c384 e3be 2536 de3e
00000140: 13f6 903e f302 e7bc 73a9 aabe e21b 97be
00000150: b62f 4ebe 8ae3 573d d911 05be 2836 f03d
00000160: 1596 19be 0b82 ec3c bc02 3cbe 3752 ca3d
00000170: 7746 753e ed80 b53e 5927 613d 6123 11bf
00000180: 70eb f83d 07aa a53d 51b5 8a3d 1e5f 8c3e
0.067018755 0.45893636 0.5227492 0.44133028 0.2753978 -0.25714275 0.107744336 0.40793237
-0.123992294 0.10801137 0.3353259 -0.24155985 -0.2202727 -0.3506017 -0.102924265 -0.26151577
0.30710495 0.26715153 -0.4339467 0.21850483 -0.21330853 0.24477981 0.17173818 -0.22690867
0.46905178 0.21377982 0.042033978 -0.3564318 0.03611272 -0.14962882 0.048857447 -0.021320684
-0.0074752774 0.04952634 -0.25691727 0.18903112 0.13784793 -0.2587791 -0.45101506 -0.1510602
0.029294992 -0.18146273 -0.27393866 0.2904168 0.36829472 0.15690237 -0.34704196 -0.31894898
0.33716086 0.19529866 0.13164687 0.31482318 0.12670368 0.6290684 -0.067407906 -0.26922098
0.2053129 -0.09615555 -0.20840123 0.18298553 0.29419076 -0.060260694 -0.18119125 -0.20845646
0.044468764 -0.13811527 0.059129786 0.19557089 -0.39674678 0.34214872 -0.18300658 -0.35580516
-0.67210644 -0.4179041 -0.44058982 0.63945955 0.2590792 -0.33756682 -0.44437227 0.43400684
0.2831274 -0.028199648 -0.33332404 -0.2951346 -0.20135388 0.052707233 -0.1299509 0.117290795
-0.14998658 0.028870603 -0.18360418 0.098789625 0.23952661 0.35449925 0.054969165 -0.5669461
0.12154281 0.08089071 0.067728646 0.2741632

bias f4 [10]
00000000: 7a3b 21be 7469 503e 6b27 103e 5b29 83be
00000010: 71ea 303e 33ad 8bbe 8099 05be 2a0d 38bd
00000020: ea2a 64be a243 963e
-0.15745345 0.20352727 0.14077537 -0.2561749 0.17276932 -0.27280578 -0.13046837 -0.04493443
-0.22281995 0.29348475

weight f4 [1, 10]
00000000: aa4f 36be bb14 a63e 3a6e a9be 22ea 4e3e
00000010: e607 adbd d32f 8bbe 0d0c 073e 50a3 1f3f
00000020: ba94 c13e 65af 9dbe
-0.17803827 0.3243769 -0.3309191 0.20206502 -0.08448772 -0.27184924 0.13188191 0.6235857
0.37808782 -0.30797878
