src/torchfort/torchfort_local/examples/fortran/burgers/burgers_inference_model.pt (torch, 13993 bytes, 7 tensors)

weight f4 [20, 2]
-0.265374 -0.24381302 -0.5545636 0.46572924 0.038331125 -0.12686352 -0.58486086 -0.42552772
0.05319244 0.49213004 0.039246216 -0.07469366 0.15957917 -0.6871283 -0.44404072 -0.7056752
-0.36561084 0.207685 -0.15203017 0.3829884 -0.3184207 -0.19863464 0.2551136 -0.45854995
-0.33568817 -0.27436224 0.22064152 0.008662694 0.48294842 -0.4852236 0.293542 -0.38784733
0.6504191 0.6571116 -0.5187859 0.47619784 -0.48372704 -0.17667638 -0.40000284 -0.42688546
00000000: 1adf 87be 1faa 79be e1f7 0dbf 1074 ee3e
00000010: 1901 1d3d 83e8 01be 71b9 15bf c5de d9be
00000020: 51e0 593d 78f8 fb3e a4c0 203d fdf8 98bd
00000030: b968 233e a4e7 2fbf 4e59 e3be 21a7 34bf
00000040: 5831 bbbe 60ab 543e ccad 1bbe 0e17 c43e
00000050: 0a08 a3be e166 4bbe 409e 823e 0fc7 eabe
00000060: 52df abbe 3579 8cbe daef 613e f9ed 0d3c
00000070: 0445 f73e 3a6f f8be 234b 963e ed93 c6be
00000080: de81 263f 7738 283f 27cf 04bf 34d0 f33e
00000090: 12ab f7be a7ea 34be 2ccd ccbe bb90 dabe

bias f4 [20]
-0.08458577 0.3657644 -0.10057359 -0.27605292 0.14680228 0.67237127 0.25671172 0.12513609
-0.3984369 -0.09101941 -0.124890044 0.32240626 -0.6894136 -0.2512323 0.25258487 0.022257918
-0.41358456 -0.008295933 0.04412623 0.47653055
00000000: 4e3b adbd 7945 bb3e 87f9 cdbd cf56 8dbe
00000010: 5653 163e 8620 2c3f b86f 833e ad23 003e
00000020: ecff cbbe 6268 babd 5ac6 ffbd 6f12 a53e
00000030: 697d 30bf 85a1 80be ce52 813e 3d56 b63c
00000040: 5bc1 d3be aaeb 07bc b5bd 343d d0fb f33e

weight f4 [20, 20]
-0.1269765 -0.19311997 0.053955197 0.112574585 -0.19467479 -0.14849305 0.21850017 -0.17193277
0.07887371 0.15496376 0.025852995 0.18296449 -0.08405236 0.11392074 -0.025246091 -0.0433959
0.032662377 -0.1425253 0.040432446 -0.2068593 0.053667154 -0.08264394 -0.069507 -0.14805815
-0.17805235 -0.1697708 -0.090149894 -0.14749421 -0.018482449 -0.2071067 0.014149728 -0.16561607
-0.017668668 -0.17119475 0.073033355 0.020153673 -0.03468693 0.009429403 0.08840228 0.053867124
-0.20946701 0.082096554 -0.19089705 -0.2070774 0.0107536195 -0.13275844 0.09331727 0.21095228
0.15339695 -0.17831947 0.06470724 -0.064840816 -0.054476615 -0.17760673 -0.13253018 0.1137439
-0.1703575 0.21261492 -0.21083353 0.21934141 -0.13762371 -0.10333942 0.18478248 0.025452621
-0.09526364 0.0039968016 -0.005343383 -0.057691116 0.114092536 0.20075953 0.08133803 0.15379572
-0.16558975 -0.03900984 -0.1848444 0.10846063 0.13092408 -0.08219497 0.034200136 0.11516432
-0.15377067 -0.0949427 -0.14698139 -0.18070787 0.0508369 0.18155843 0.12724437 -0.1134593
-0.07866129 -0.07363818 -0.049507268 -0.102929614 0.10407169 0.043457314 0.18446003 0.06361389
-0.06781016 -0.13158911 0.030756688 -0.015600721 -0.092604406 0.102377884 -0.21929975 -0.08991287
-0.057918973 -0.21851693 0.15194662 0.09426103 0.0752156 0.062118385 -0.02695714 0.085167065
-0.2216451 -0.09828376 0.22238576 0.028979158 0.17537448 0.18700866 0.010818394 -0.030347545
-0.0029839 0.1986177 -0.03836687 0.13426617 0.08559638 0.21863775 -0.18119612 0.22252677
0.13224813 -0.08062373 -0.0388567 0.22060171 -0.1949595 0.076136835 -0.13824221 -0.034631617
-0.10854108 -0.16415857 0.17629099 0.15364765 0.19745073 0.12461017 0.03190431 -0.0690715
0.06082669 -0.021579504 0.051620692 0.03365694 -0.2028459 -0.16641714 -0.077618614 0.099935874
-0.05763106 -0.15241268 -0.03648008 0.032606374 -0.1958505 -0.0070831943 -0.012125284 0.22224419
0.16548814 -0.0042069578 -0.18143086 -0.07098639 0.20126824 -0.013865761 -0.11697141 0.14205183
-0.041361168 0.20043294 -0.09961665 -0.20610999 -0.17830987 0.0028932963 0.12042371 0.16110337
-0.13403277 0.115200974 -0.17651194 -0.15992384 -0.029587928 -0.10744546 0.07476106 0.0148936445
0.13420369 -0.07331529 -0.17310596 -0.047140054 0.09535504 0.18182087 0.14385071 0.16505902
-0.16750059 -0.16683462 0.2030709 0.022527952 0.040580973 -0.1507743 0.18208475 -0.11658674
0.16949515 0.1657973 -0.07991647 0.050102018 0.0939327 -0.20154354 -0.1460505 -0.06956237
-0.21081841 -0.012834361 0.21546723 0.12683867 0.20238942 -0.12648827 0.010954606 -0.14868782
-0.20108508 0.14099756 0.13773087 0.13994478 0.12852658 -0.20729974 -0.0983435 0.03103335
-0.08305969 0.11434385 0.048402563 0.13666487 0.14135899 0.0029644412 0.071054414 0.19104227
-0.11181899 -0.113804914 0.0857367 0.050493356 0.21997854 -0.013263896 0.20839871 0.086006485
0.025191765 -0.14766721 0.21518014 -0.002860536 0.16236478 -0.016314676 -0.19462697 0.019529311
0.20787762 -0.19961146 0.12474214 -0.025674587 -0.10529051 0.16567926 -0.18301122 0.06418553
00000000: 2106 02be 3ec1 45be 2000 5d3d 818d e63d
00000010: d458 47be 900e 18be 82be 5f3e 250f 30be
00000020: 8a88 a13d d2ae 1e3e a9c9 d33c 0b5b 3b3e
00000030: a523 acbd 474f e93d e4d0 cebc e6bf 31bd
00000040: fcc8 053d 27f2 11be 7e9c 253d edd2 53be
00000050: 17d2 5b3d 3a41 a9bd b059 8ebd 8e9c 17be
00000060: 5b53 36be 66d8 2dbe 82a0 b8bd b908 17be
00000070: 8168 97bc c713 54be 43d4 673c 4297 29be
00000080: e2bd 90bc ad4d 2fbe 8392 953d 5119 a53c
00000090: e213 0ebd c87d 1a3c 410c b53d c6a3 5c3d
000000a0: 857e 56be 3d22 a83d 847a 43be 190c 54be
000000b0: f32f 303c d4f1 07be 201d bf3d e003 583e
000000c0: 1714 1d3e 6199 36be 3b85 843d 43cb 84bd
000000d0: df22 5fbd 8ade 35be feb5 07be 90f2 e83d
000000e0: 3272 2ebe bab7 593e bfe4 57be 099b 603e
000000f0: 3bed 0cbe 9ea3 d3bd 9e37 3d3e 0482 d03c
00000100: 9519 c3bd 9af7 823b 8c17 afbb 854d 6cbd
00000110: 59a9 e93d e893 4d3e 8e94 a63d a07c 1d3e
00000120: 5c90 29be c8c8 1fbd da47 3dbe 9b20 de3d
00000130: f610 063e d655 a8bd 7115 0c3d 45db eb3d
00000140: 0f76 1dbe 5171 c2bd 4a82 16be 7c0b 39be
00000150: 5a3a 503d 74ea 393e 594c 023e 595d e8bd
00000160: 2c19 a1bd 9dcf 96bd 22c8 4abd c3cc d2bd
00000170: 8a23 d53d 4c00 323d 17e3 3c3e 0048 823d
00000180: 0ee0 8abd 4cbf 06be 73f5 fb3c 2b9a 7fbc
00000190: 61a7 bdbd 7fab d13d 1d90 60be 3d24 b8bd
000001a0: 723c 6dbd e7c2 5fbe e597 1b3e ed0b c13d
000001b0: a30a 9a3d d96f 7e3d 38d5 dcbc 126c ae3d
000001c0: eff6 62be ff48 c9bd 18b9 633e b365 ed3c
000001d0: 5e95 333e 337f 3f3e a23f 313c 6a9b f8bc
000001e0: 898d 43bb 7062 4b3e 9426 1dbd 127d 093e
000001f0: 284d af3d 93e2 5f3e 7a8b 39be 0fde 633e
00000200: 0e6c 073e 0e1e a5bd 3428 1fbd 6ae5 613e
00000210: 77a3 47be a1ed 9b3d 5e8f 0dbe e2d9 0dbd
00000220: c94a debd 2f19 28be a085 343e cf55 1d3e
00000230: 8630 4a3e 9e33 ff3d 18ae 023d 5c75 8dbd
00000240: 6825 793d 80c7 b0bc 3870 533d dcdb 093d
00000250: d6b6 4fbe 4169 2abe 82f6 9ebd 2eab cc3d
00000260: 8c0e 6cbd 1212 1cbe 236c 15bd 438e 053d
00000270: 098d 48be 241a e8bb 21a9 46bc fb93 633e
00000280: b975 293e 85da 89bb 03c9 39be 5061 91bd
00000290: 4319 4e3e 382d 63bc b58e efbd 0976 113e
000002a0: 546a 29bd 4b3e 4d3e d003 ccbd 7f0e 53be
000002b0: dd96 36be 759d 3d3b b5a0 f63d 48f8 243e
000002c0: e33f 09be 7dee eb3d 8cbf 34be 13c3 23be
000002d0: 6262 f2bc 5e0c dcbd 541c 993d 7904 743c
000002e0: b16c 093e 5426 96bd b042 31be ee15 41bd
000002f0: 8149 c33d 402f 3a3e 9a4d 133e 3b05 293e
00000300: 4685 2bbe b2d6 2abe d1f1 4f3e 8a8c b83c
00000310: 3c38 263d 9464 1abe 6d74 3a3e 07c5 eebd
00000320: 2390 2d3e c4c6 293e 3fab a3bd c637 4d3d
00000330: ca5f c03d 6e61 4ebe 438e 15be b776 8ebd
00000340: c8e0 57be 3647 52bc 71a3 5c3e ffe1 013e
00000350: 2c3f 4f3e 2486 01be f37a 333c 9f41 18be
00000360: 3fe9 4dbe aa61 103e 5209 0d3e af4d 0f3e
00000370: 799c 033e 6246 54be 5168 c9bd a739 fe3c
00000380: 331b aabd 1c2d ea3d c441 463d e0f1 0b3e
00000390: 69c0 103e 1247 423b fa84 913d 96a0 433e
000003a0: 5b01 e5bd 8d12 e9bd b996 af3d 1fd2 4e3d
000003b0: 0e42 613e d050 59bc 7966 553e 2b24 b03d
000003c0: f65e ce3c 1336 17be 2f58 5c3e d577 3bbb
000003d0: f442 263e 5ba6 85bc 4b4c 47be effb 9f3c
000003e0: dfdd 543e f266 4cbe cf78 ff3d 8353 d2bc
000003f0: 8da2 d7bd d3a7 293e 4b67 3bbe b473 833d

bias f4 [20]
0.010338265 0.0342808 -0.14629449 -0.031031271 0.1824066 0.06755067 -0.10886865 0.04868882
-0.07374398 -0.07615824 0.059973005 0.018077224 -0.096403345 0.09622389 0.08151418 0.000779395
0.05228096 -0.10540452 -0.1455508 0.12781478
00000000: d461 293c 066a 0c3d 39ce 15be 4b35 febc
00000010: ccc8 3a3e 0158 8a3d 87f6 debd ee6d 473d
00000020: 1507 97bd daf8 9bbd 41a6 753d b016 943c
00000030: 1e6f c5bd 0811 c53d e8f0 a63d 5050 4c3a
00000040: 8f24 563d 53de d7bd 450b 15be e1e1 023e

weight f4 [20, 20]
-0.07786436 -0.043112814 -0.19752109 0.004063895 0.093348324 -0.19551149 -0.20416412 0.024215303
0.10823533 0.056472857 0.075561754 -0.09564733 0.17330414 0.15497862 -0.10211202 0.05000976
-0.13292077 0.17976636 0.17920013 0.09174049 0.028857527 0.035199072 -0.020778997 -0.15047435
0.2069305 -0.077561334 0.010733681 0.07664596 0.037433565 0.10782896 -0.03348954 0.17567804
-0.17399031 -0.031118702 0.05813174 -0.08328275 -0.1539075 -0.1692882 -0.0070186066 -0.20088053
-0.03199587 0.049664114 -0.18214178 0.18560663 -0.1001471 -0.16897608 0.20915438 -0.10989619
-0.122925006 -0.06060475 0.105389 0.06266822 -0.04394347 0.05446891 0.19284981 0.10387539
0.07941848 0.22179462 -0.19638179 -0.08392705 -0.09509728 -0.19721924 0.020253047 0.13587724
-0.06666638 0.059874296 -0.08019124 0.11421246 -0.16177352 -0.006869786 -0.20817383 0.21778467
-0.112232774 0.11081593 -0.022753354 0.1407053 -0.19381793 -0.13457169 0.17845117 0.22176455
-0.04575578 0.09015232 0.05204916 0.08549259 0.16288012 -0.22169732 0.14576587 0.15169865
-0.06517815 0.117217764 -0.012888099 0.055088982 -0.13386144 0.103148855 -0.1275983 0.052479602
-0.14710166 0.18128334 0.16870987 -0.1538549 -0.14400746 0.084952585 0.0527834 0.044381373
-0.031144772 0.14514013 0.043922435 -0.12719041 0.17713825 0.05256218 -0.14209528 0.12411711
0.18671563 0.022160232 0.05290551 0.04900784 0.058672298 0.13412893 0.0765737 0.0221046
0.21179715 -0.19288543 -0.12583408 0.16394159 0.21239406 -0.2210192 -0.16010995 0.12777948
-0.07168269 0.10067369 0.047740854 0.19970374 -0.21534532 0.20193355 0.09917991 -0.038330484
0.1332351 -0.107846364 0.20420825 -0.15287393 0.06950421 0.011724485 0.08216445 0.07245359
0.09239495 -0.07282363 0.22133882 -0.21975708 0.20100184 -0.072103724 -0.16550668 -0.10636656
0.13947745 -0.07754544 0.03829866 -0.039226126 0.008398429 -0.18712042 -0.07202029 -0.21651576
0.07487723 0.18578789 0.028306628 0.10061774 0.17398746 -0.091529906 0.036475945 -0.16444711
-0.071467236 -0.012479916 -0.073701404 -0.0729825 -0.07433875 0.21136454 -0.098434955 0.009847315
-0.03744868 0.046421677 0.035884958 -0.13689515 0.067249104 0.07578308 -0.048019838 -0.013820553
-0.22167562 -0.07878079 0.09582779 0.16718619 -0.19936737 -0.02401245 0.08304935 0.17935124
-0.16113274 -0.04731732 0.0041827806 0.030739494 0.20790716 -0.066336356 -0.12796995 -0.16612445
-0.09982496 -0.13887107 -0.12923819 -0.19412267 0.20624177 0.039527792 0.0056423303 -0.16955182
-0.00013434628 -0.1718484 -0.036658034 0.008230309 0.0031231511 0.10263349 -0.118797936 -0.1673281
-0.18637003 -0.113179676 -0.052093275 -0.1620311 -0.08988803 0.106221415 -0.116776 0.1151286
0.20342728 0.1411908 0.16504966 0.1738421 -0.16168444 0.029790727 -0.20572536 0.18814151
0.18256272 0.19441733 0.19473194 -0.1814143 0.09989117 0.18401015 0.1199157 0.06781131
0.06679188 0.14292806 0.049982227 -0.20795177 0.13820857 -0.11721987 -0.019612264 0.043851744
0.10938303 -0.1862618 0.11406676 -0.06575072 0.12926601 0.16807114 0.119491845 0.19911033
00000000: 5977 9fbd 1097 30bd f842 4abe 6c2a 853b
00000010: 682d bf3d 2a34 48be 6610 51be 2c5f c63c
00000020: 7caa dd3d 1550 673d 1fc0 9a3d bfe2 c3bd
00000030: a476 313e b7b2 1e3e 1b20 d1bd 09d7 4c3d
00000040: 621c 08be ac14 383e 3d80 373e 70e2 bb3d
00000050: 9f66 ec3c e72c 103d b738 aabc f315 1abe
00000060: 97e5 533e 7ad8 9ebd 52dc 2f3c 8ff8 9c3d
00000070: f053 193d 6ed5 dc3d 542c 09bd f2e4 333e
00000080: 842a 32be a6ec febc 8c1b 6e3d 2590 aabd
00000090: ed99 1dbe e359 2dbe 57fc e5bb a0b3 4dbe
000000a0: 1a0e 03bd 996c 4b3d 6083 3abe aa0f 3e3e
000000b0: ec19 cdbd 1108 2dbe 912c 563e 4111 e1bd
000000c0: 1bc0 fbbd b03c 78bd 30d6 d73d 3258 803d
000000d0: 11fe 33bd cb1a 5f3d 6c7a 453e 9fbc d43d
000000e0: 28a6 a23d 211e 633e 4f18 49be f2e1 abbd
000000f0: 5dc2 c2bd d7f3 49be b8e9 a53c 6723 0b3e
00000100: 6288 88bd c03e 753d 4e3b a4bd 39e8 e93d
00000110: f5a7 25be f11b e1bb 852b 55be f202 5f3e
00000120: 4cda e5bd 76f3 e23d 3e65 babc 0d15 103e
00000130: 3578 46be 29cd 09be e7bb 363e 3f16 633e
00000140: 6a6a 3bbd c8a1 b83d 8031 553d bd16 af3d
00000150: 0cca 263e 9f04 63be a643 153e e456 1b3e
00000160: 1f7c 85bd de0f f03d 9b28 53bc fca4 613d
00000170: f912 09be b53f d33d 21a9 02be daf4 563d
00000180: d1a1 16be 57a2 393e 48c2 2c3e 248c 1dbe
00000190: b176 13be 9ffb ad3d 6833 583d 3ec9 353d
000001a0: 5223 ffbc 9d9f 143e 03e8 333d 343e 02be
000001b0: bb63 353e 714b 573d 6d81 11be 1d31 fe3d
000001c0: 6232 3f3e 6089 b53c 73b3 583d 72bc 483d
000001d0: 5d52 703d 1859 093e acd2 9c3d b514 b53c
000001e0: 5ae1 583e c283 45be a6da 00be 4ee0 273e
000001f0: d47d 593e db52 62be ddf3 23be a0d8 023e
00000200: 60ce 92bd 022e ce3d ea8b 433d 237f 4c3e
00000210: 7c83 5cbe abc7 4e3e d61e cb3d 6d00 1dbd
00000220: c86e 083e 8ede dcbd f81b 513e fc8a 1cbe
00000230: 3958 8e3d 0e18 403c d645 a83d 8c62 943d
00000240: 9039 bd3d 8e24 95bd a5a6 623e 0008 61be
00000250: 6dd3 4d3e 1eab 93bd 957a 29be b6d6 d9bd
00000260: 2dd3 0e3e 25d0 9ebd 0edf 1c3d 93ab 20bd
00000270: 9099 093c 7f9c 3fbe 607f 93bd 4fb6 5dbe
00000280: 3c59 993d 2e3f 3e3e 4de3 e73c ac10 ce3d
00000290: c529 323e 0874 bbbd cd67 153d d364 28be
000002a0: 6a5d 92bd 9078 4cbc c3f0 96bd d977 95bd
000002b0: ea3e 98bd f26f 583e 4498 c9bd a256 213c
000002c0: c963 19bd a824 3e3d 1bfc 123d 3e2e 0cbe
000002d0: e6b9 893d 2934 9b3d 73b0 44bd 9a6f 62bc
000002e0: effe 62be d357 a1bd 5c41 c43d db32 2b3e
000002f0: f626 4cbe c2b5 c4bc c715 aa3d daa7 373e
00000300: fbff 24be cecf 41bd b50f 893b 64d1 fb3c
00000310: 9de5 543e 5bdb 87bd 8e0a 03be 871c 2abe
00000320: 0771 ccbd 3834 0ebe 0457 04be 18c8 46be
00000330: 0b31 533e e5e7 213d 4ce3 b83b fe9e 2dbe
00000340: 4edf 0cb9 07f9 2fbe bc26 16bd 6bd8 063c
00000350: c8ad 4c3b 8231 d23d 554c f3bd 0f58 2bbe
00000360: c9d7 3ebe bfca e7bd c25f 55bd 7beb 25be
00000370: 3717 b8bd 9d8a d93d 4128 efbd 8bc8 eb3d
00000380: 3e4f 503e 5294 103e c702 293e aa03 323e
00000390: 9b90 25be af0b f43c aba9 52be 2ba8 403e
000003a0: b9f1 3a3e 5615 473e cf67 473e acc4 39be
000003b0: be93 cc3d 286d 3c3e 5d96 f53d a8e0 8a3d
000003c0: 2eca 883d bc5b 123e 2aba 4c3d 4ff1 54be
000003d0: 8c86 0d3e f910 f0bd e6a9 a0bc e39d 333d
000003e0: 3604 e03d 6abb 3ebe d59b e93d 50a8 86bd
000003f0: 4f5e 043e d71a 2c3e 24b8 f43d 94e3 4b3e

bias f4 [20]
0.13784413 -0.08232369 -0.056410454 -0.08305367 0.077550106 0.18827164 0.012462216 -0.05035485
-0.121736385 -0.21013296 0.092396624 0.080868885 -0.10639878 0.10999625 -0.049689915 -0.13221419
0.14880894 -0.1272956 -0.13988598 -0.21203785
00000000: 0327 0d3e 5399 a8bd a60e 67bd 0b18 aabd
00000010: 97d2 9e3d 48ca 403e 532e 4c3c e340 4ebd
00000020: ed50 f9bd 182d 57be 713a bd3d 969e a53d
00000030: 9be7 d9bd b745 e13d a787 4bbd 2863 07be
00000040: 5f61 183e c759 02be 453e 0fbe 7320 59be

weight f4 [1, 20]
-0.04168013 -0.12238165 0.1719492 -0.11604421 0.12612244 0.05292774 -0.029694391 0.21973099
0.12925154 0.13696189 -0.0014255366 0.18419042 -0.20327109 0.15674034 -0.04715469 -0.109111086
-0.03795733 -0.18164013 -0.09403706 -0.005848888
00000000: c9b8 2abd 3ba3 fabd 7313 303e 96a8 edbd
00000010: 3e26 013e c2ca 583d a741 f3bc 2901 613e
00000020: 845a 043e bd3f 0c3e 12d9 baba 6a9c 3c3e
00000030: 4c26 50be 8a80 203e 4725 41bd a275 dfbd
00000040: 2579 1bbd dfff 39be 8196 c0bd 07a8 bfbb
