src/torchfort/2025-07-17-c/burgers_model_trained.pt (torch, 18313 bytes, 25 tensors)

b0 f4 [10]
000000 a1 30 64 bc 38 09 08 3d 1a 9b 02 3e 00 00 00 00
       -0.01392761 0.033211917 0.12754479 0.0
000010 00 00 00 00 9b 80 76 bd 4e 26 86 3d 04 8b f5 bb
       0.0 -0.06018124 0.06550275 -0.0074933786
000020 71 c1 dd bc c3 e6 82 bb
       -0.02706978 -0.003994794

b1 f4 [10]
000000 1d 87 36 bc 2b e8 bf bc 99 06 04 3d 06 d8 ed bb
       -0.011140612 -0.023426136 0.032232855 -0.007258418
000010 00 00 00 00 36 cf 28 bc c3 0d 2e bc cc fa 43 3d
       0.0 -0.010303309 -0.010623398 0.0478466
000020 fd 3f f8 3c a7 2f 2f bc
       0.03030395 -0.010692514

b2 f4 [10]
000000 00 00 00 00 79 d8 67 3d ee ec 05 3d 15 4d 53 3c
       0.0 0.05660293 0.032696657 0.012896796
000010 af 96 4e bc e2 b4 21 3c d5 c6 a4 3c 00 00 00 00
       -0.012609168 0.009869786 0.020114342 0.0
000020 99 1c 85 bc 1c 45 d9 3c
       -0.016248988 0.026522212

b3 f4 [10]
000000 00 00 00 00 1a 60 56 3c 79 fe f8 bb 00 00 00 00
       0.0 0.013084436 -0.007598695 0.0
000010 9c b3 7f 3c 4a b5 59 bc 86 95 61 3c d0 d9 0f 3c
       0.015606787 -0.013287852 0.013768559 0.008779958
000020 6a 9f 11 bc b7 b1 52 3c
       -0.008888105 0.012859753

b4 f4 [10]
000000 00 00 00 00 00 00 00 00 00 00 00 00 00 00 00 00
       0.0 0.0 0.0 0.0
000010 00 00 00 00 00 00 00 00 89 8a f8 3b 00 00 00 00
       0.0 0.0 0.007584874 0.0
000020 97 8a 8c 3c 00 00 00 00
       0.017155929 0.0

b5 f4 [10]
000000 b1 01 61 bb 00 00 00 00 00 00 00 00 00 00 00 00
       -0.0034333284 0.0 0.0 0.0
000010 88 96 52 3c 00 00 00 00 e8 29 8e 3c 00 00 00 00
       0.012853272 0.0 0.017353967 0.0
000020 5e ad bf bb da a2 da 3b
       -0.0058495244 0.0066722455

b6 f4 [10]
000000 bf 87 a6 3c 45 ce b8 bb 00 00 00 00 00 00 00 00
       0.0203284 -0.0056398236 0.0 0.0
000010 00 00 00 00 00 00 00 00 00 00 00 00 00 00 00 00
       0.0 0.0 0.0 0.0
000020 00 00 00 00 c3 9b 2c bc
       0.0 -0.010535183

b7 f4 [10]
000000 da b3 a9 3c 00 00 00 00 00 00 00 00 6e b7 a4 3c
       0.020715643 0.0 0.0 0.020106997
000010 16 b1 ab bc 00 00 00 00 6f b3 ab bc 00 00 00 00
       -0.020958465 0.0 -0.020959584 0.0
000020 00 00 00 00 00 00 00 00
       0.0 0.0

weight f4 [10, 2]
000000 31 ff 27 be 70 79 d8 3e 22 7a 2a bf ff 41 7d be
       -0.16405942 0.4228015 -0.6659261 -0.24732207
000010 c2 98 4b 3f 98 f1 23 3f 8b ad a1 be 6c ae c4 bc
       0.79529965 0.6404052 -0.31577715 -0.024008952
000020 e8 d5 55 3d e8 76 d2 be ef c8 f5 3e 72 99 38 bf
       0.05220595 -0.41106343 0.48004863 -0.7210914
000030 8f 9e e3 be 87 a5 11 3f 28 22 42 3f 75 5e 8a 3e
       -0.44456908 0.568932 0.7583337 0.2702519
000040 f8 6b 1f 3e c2 eb b1 be 1d 4f 7f 3e e3 db 88 be
       0.1556853 -0.3475018 0.24932523 -0.2673026

bias f4 [10]
000000 ae 7c c7 3e 72 f9 a7 be 56 30 0e bf 66 8a 1e bf
       0.3896231 -0.328075 -0.55542505 -0.6192993
000010 51 8d 77 be b4 76 4b 3e c4 4e a9 3d ae 12 20 3f
       -0.24175002 0.198695 0.082669765 0.625285
000020 a1 bc 03 be d8 81 09 3f
       -0.12864925 0.5371375

weight f4 [10, 10]
000000 a8 5f df bd a2 48 94 3e 26 f0 5c 3e 6e 49 96 3e
       -0.10906917 0.28961664 0.21575984 0.29352897
000010 80 10 e4 3c 81 f5 31 3e d8 8f 74 be a6 81 a9 3d
       0.027839899 0.17378809 -0.23882997 0.082766816
000020 22 d7 76 be 44 47 8e 3e 88 79 0f 3e cb 3b 46 be
       -0.24105504 0.27788746 0.14011204 -0.19358747
000030 9b 7c 26 3e 7f f0 8d be 82 26 d9 3d 24 3f fa bd
       0.1625847 -0.27722546 0.10603048 -0.12219074
000040 8f a4 67 bc 63 f1 7b be db 36 a9 bd ef c5 0c be
       -0.014138355 -0.246038 -0.08262416 -0.1374738
000050 6f d0 5c 3e 74 3d 12 3e 98 f9 85 3e 39 a2 8d bd
       0.21563886 0.14281255 0.26166987 -0.06915707
000060 b3 5c e2 bd 39 52 d5 be e2 64 46 bd 93 f8 9c 3e
       -0.11052837 -0.41664293 -0.048436053 0.30658397
000070 38 98 7c 3e dd b9 3b bd 12 6c d2 3d 73 87 9b be
       0.24667442 -0.04583155 0.10274519 -0.30376777
000080 7a 39 8e be a5 f2 46 3e 45 ce 51 be df 0f 38 be
       -0.27778226 0.19428499 -0.20488842 -0.17974804
000090 1c c0 87 3d e8 9f 10 3e 01 fb b4 bd 2f db c9 bd
       0.06628439 0.141235 -0.08836938 -0.09856259
0000a0 19 92 68 bd 2f 79 4e be 5c c2 d4 3c 57 50 1c 3e
       -0.056779955 -0.20163415 0.025971584 0.15265022
0000b0 c7 6d 5f 3d 7a 10 c0 bd 9f 49 76 be 98 d1 dd bd
       0.05454805 -0.09378143 -0.24051522 -0.108309925
0000c0 40 c3 7b bd b4 c8 59 be 85 62 af 3d 3d 40 8b be
       -0.0614655 -0.21267968 0.08563713 -0.27197447
0000d0 36 f1 b2 be 3c 0e 93 3e 1c bd f2 bd af 33 c2 bd
       -0.34949654 0.28721797 -0.11852476 -0.09482514
0000e0 d6 59 f0 bd dd 76 6c 3e 1d c7 2f be 00 e6 09 3e
       -0.11735885 0.23092218 -0.171658 0.13466644
0000f0 ee 9e 4f be c6 1f 85 be 46 ae 06 3d 87 99 02 be
       -0.2027547 -0.26000804 0.032881044 -0.12753879
000100 00 4b 87 3e 64 8c 6a bd d8 02 25 be bf ba 39 3e
       0.26424408 -0.057262793 -0.16114366 0.18137644
000110 11 67 84 bd fb a4 2c be 7a 5b e5 bc 3f 8e 73 be
       -0.06464971 -0.1685981 -0.027997721 -0.23784731
000120 b6 59 6d 3e 3b 0f 83 3e b1 f0 30 3e 43 31 ad be
       0.23178753 0.25597557 0.17279316 -0.33826646
000130 64 cd bd bd c3 8a 64 3d 27 db dc 3c 7b fb 67 be
       -0.09267691 0.055796396 0.026959969 -0.22654526
000140 d0 db 7b bc 42 de 6d bd 11 ba df 3e 93 b1 f7 3d
       -0.015372232 -0.05807329 0.43696645 0.120944165
000150 d6 11 0a be c8 90 f0 be 17 c0 5e 3e 61 48 86 bd
       -0.13483366 -0.4698546 0.21752964 -0.06556774
000160 7a 1f bf 3d db 3e 84 3e f4 52 85 be 1c bb 88 3e
       0.093321756 0.25829205 -0.2603985 0.26705253
000170 08 fd 4b be ae bf 88 39 35 86 90 3e 10 81 08 3e
       -0.19920743 0.00026082754 0.28227392 0.13330483
000180 e2 07 f1 bd 30 b1 00 be 33 76 8f 3d 4e 85 80 3e
       -0.11769082 -0.12567592 0.070049666 0.25101703

bias f4 [10]
000000 59 f2 58 3e e2 3c 2d bd 1c 15 0b be 14 4b 40 be
       0.21186198 -0.04229439 -0.13582271 -0.1877864
000010 fc c5 95 be 18 b4 11 3d 46 2f 2f bc e9 c0 40 3e
       -0.29252613 0.03557214 -0.010692423 0.1882359
000020 15 8d 80 3d f2 49 05 be
       0.06276909 -0.13016489

weight f4 [10, 10]
000000 8d 37 9a be eb b1 31 be bf 51 94 be 9e 72 38 3e
       -0.30120507 -0.17353027 -0.28968617 0.18012473
000010 a8 0d 11 3e 56 b9 71 3e b6 23 0a 3e 27 9b 18 be
       0.14165366 0.23605856 0.13490185 -0.14902936
000020 3b 9b 7d 3e 2a 30 fe bc c3 ac c6 3e 1c 3b 5d 3e
       0.24766247 -0.031028826 0.38803682 0.2160458
000030 b8 f8 08 bf 26 25 8e 3e d0 7b 90 3e 4a 54 ae 3e
       -0.53504515 0.27762717 0.2821946 0.34048682
000040 3c 9f ed 3d 0e 80 5a be 3a ff fd be be 55 87 be
       0.11602637 -0.21337911 -0.49608785 -0.26432604
000050 d7 a8 ec 3e c9 8d 69 be e1 12 a0 be fa 41 91 3d
       0.46222565 -0.22807993 -0.31264403 0.07092662
000060 93 d1 f7 bd 25 0c e1 3d 09 f3 f8 bd 1b e7 b7 be
       -0.1210052 0.109886445 -0.1215573 -0.35918507
000070 4e 47 09 bf bc cb c4 3d 65 d9 5e bd e3 a3 2e be
       -0.5362443 0.09609172 -0.054406542 -0.17054705
000080 ab 8b 6c 3e 77 92 08 be c0 89 9e 3e f9 4c c3 bd
       0.23100154 -0.13337122 0.3096447 -0.09536166
000090 23 61 f0 3c 3d 18 64 be eb da 9d 3c f2 e9 66 be
       0.029343193 -0.22274871 0.019269427 -0.2255018
0000a0 aa 10 8a 3e 6e a1 8d bc b9 05 3c be be 20 3c 3e
       0.2696584 -0.01728889 -0.18361558 0.18371865
0000b0 76 bd de 3d 4d 26 2b 3e f9 26 45 3e dc 0a a6 bd
       0.108759806 0.1671383 0.19253148 -0.0810754
0000c0 1b 5f d6 bd 20 95 c1 bd f8 21 a1 bc 6a 1a 98 3e
       -0.10467359 -0.094522715 -0.019669518 0.29707652
0000d0 0f 4d b5 be 65 7a 05 3e 6c 05 81 be 53 2c a7 be
       -0.35410354 0.13034971 -0.2519945 -0.32651004
0000e0 26 8f de 3d 9b 0e 8c 3e 3a d3 7d 3e 90 66 f8 bd
       0.10867147 0.27354893 0.24787608 -0.12128937
0000f0 d9 3a 1f bf 4c aa 98 be 63 d5 e2 bd 1e 3c 17 be
       -0.6219917 -0.29817426 -0.110758565 -0.14769027
000100 bc fc 41 3e a8 ea 12 3e 22 30 2f be f4 d9 68 3e
       0.18944067 0.14347327 -0.17108205 0.22739393
000110 bb 35 be 3e bd 49 e4 3d 1b 08 68 3d f6 1a ae bd
       0.37150368 0.11146877 0.056648355 -0.08501236
000120 5b e9 db 3d f5 96 37 be a6 c2 73 3d 93 69 b0 bd
       0.107378684 -0.1792868 0.059511803 -0.08613887
000130 5c e1 0f 3e 75 48 8e be 0c fc 50 3d 44 41 c2 bd
       0.14050812 -0.27789655 0.05102162 -0.09485105
000140 2e 01 86 3e a0 aa 96 3e 09 59 59 be be cc f7 bd
       0.26172775 0.29427052 -0.2122537 -0.12099598
000150 71 ca ba bd 66 4f 49 3e 30 be d0 3d 45 91 46 3e
       -0.09120644 0.19659194 0.101925254 0.19391353
000160 69 01 59 3e 6c 51 ba 3d d9 62 da bd 0f df 66 be
       0.21191944 0.09097561 -0.10663385 -0.22546028
000170 e4 87 ac be fa f7 9e be 84 84 44 bd 11 4b 43 be
       -0.33697426 -0.31048566 -0.04797794 -0.19071604
000180 68 fc 88 3e 31 d1 23 3e d8 0a b5 3e db f9 6a bc
       0.2675507 0.15997769 0.35359836 -0.014341797

bias f4 [10]
000000 4d 01 85 be e7 eb c5 bd 4a d4 cb bd 77 b7 f1 3d
       -0.25977555 -0.096641354 -0.099526 0.11802571
000010 44 8c c4 3d f4 a6 5c 3e 90 22 04 bc 86 c9 9a be
       0.09597066 0.21548063 -0.008064881 -0.30231875
000020 33 26 35 be 7b f7 fb 3d
       -0.17690353 0.123030625

weight f4 [10, 10]
000000 c2 28 6a be ec 60 7e 3e 61 99 1f bd 25 16 9f be
       -0.2286711 0.2484166 -0.038964633 -0.31071582
000010 cd 3a 68 3e 30 6e 9e be c9 d5 e4 bd 32 18 7a be
       0.2267868 -0.3094344 -0.11173589 -0.24423292
000020 23 f5 eb 3d 46 67 cf bd 64 4e b5 3d 0e bd 2b bd
       0.115213655 -0.1012712 0.088528425 -0.041928343
000030 96 6e f3 be f7 6a 5e 3e bc 08 74 be 33 22 79 3e
       -0.47545308 0.21720491 -0.23831457 0.24329452
000040 5d f1 1a be 29 d9 9d be 53 36 0c 3c 99 fa 0c 3e
       -0.15131135 -0.30829743 0.008557874 0.1376747
000050 df e4 3e 3e b6 e2 0a bd aa 56 92 3e 61 10 59 3d
       0.18641995 -0.033907615 0.28581744 0.052994136
000060 fb 6f 8c bd 85 d8 20 3e 37 dc 94 3e 25 b5 2f bd
       -0.06857296 0.15707596 0.2907426 -0.042897362
000070 bf f6 36 bd 73 58 a7 3d 83 31 38 3e 78 89 17 3e
       -0.04466891 0.08171167 0.17987637 0.14798534
000080 32 99 3b bd 64 a7 f9 bd c5 10 09 3e d6 af 4a 3e
       -0.045800395 -0.1219013 0.13385303 0.19793639
000090 51 90 12 be 22 ef b5 3c 8e 08 99 3e 12 b4 84 3d
       -0.14312865 0.022208754 0.2988934 0.06479658
0000a0 0c e4 12 3e e9 13 fa 3e 73 86 13 3f 80 33 8a 3e
       0.14344805 0.48843315 0.5762703 0.26992416
0000b0 9e 2c 97 3e b2 d5 48 bd 4a d1 f4 3e ab dc 1c 3e
       0.29526228 -0.04903192 0.47815925 0.15318553
0000c0 70 84 52 3e d1 21 04 be 75 1e 41 3e f0 b1 d4 bd
       0.20558333 -0.12903525 0.18859275 -0.103855014
0000d0 79 ce 46 3e 16 d7 c0 3d 42 38 85 3e be b5 14 3c
       0.194147 0.094160244 0.26019484 0.009076534
0000e0 c8 e8 17 3e 33 d8 04 bd 3a 43 af 3d c2 2a 9d be
       0.14834893 -0.032432746 0.08557744 -0.30696684
0000f0 be 63 19 bc df 0f 9d 3e 72 b2 40 3e a8 42 99 3e
       -0.009362159 0.3067617 0.18818071 0.29933667
000100 00 17 5f be 81 f9 1b be 39 11 12 3e ee 7b 6b 3e
       -0.21786118 -0.15231897 0.14264382 0.22996494
000110 cc f1 4c be c5 05 98 be 29 3d 21 3e a7 41 1b bf
       -0.20014113 -0.29691902 0.15745987 -0.6064705
000120 d4 05 20 be 3b a3 94 3e ea b8 e1 3d 21 2a 60 3e
       -0.15627223 0.29030785 0.11021598 0.21891071
000130 0b 25 c4 be 0e 2f 37 3e 64 1b 5a 3e 07 29 39 3e
       -0.38309512 0.17889044 0.21299511 0.18082057
000140 56 45 3b 3e f3 93 dc 3e e3 f8 f9 3e 0f cd 78 3c
       0.18288168 0.43081626 0.48822698 0.0151856085
000150 b9 8b 7e 3e ed e0 26 be ce 27 c9 bd a1 04 e5 3a
       0.24857987 -0.1629674 -0.09822045 0.0017472693
000160 f9 e1 86 3e ac 1a cc 3d c7 89 50 be 4b c9 54 3e
       0.26344278 0.09966025 -0.20365058 0.20779912
000170 8e 6a b3 3e 32 18 9b 3e 86 4f 32 3e b5 f6 1e 3d
       0.35042232 0.30291897 0.17413148 0.038809497
000180 b6 ad 2f be 97 75 77 bd b3 f7 9a 3e 8f 6e 22 be
       -0.17156109 -0.060414877 0.30267105 -0.15862487

bias f4 [10]
000000 c5 a0 66 be 6d 07 9a 3e 9b 0a d2 bd 6e 8c 32 be
       -0.22522266 0.3008379 -0.10255929 -0.17436382
000010 aa 94 dd 3d c0 ab 94 3e 3f 17 36 3e 3e 76 3b 3e
       0.10819371 0.29037285 0.17782305 0.18306825
000020 b6 4d b2 bb b1 67 12 3e
       -0.005441393 0.14297368

weight f4 [10, 10]
000000 97 4a fb 3d d5 13 c9 bd ac a2 95 3e 86 ac 06 3e
       0.12270086 -0.09818236 0.2922567 0.1315175
000010 d1 f1 bb bd 42 a3 81 be 52 59 15 3d e6 fe 27 be
       -0.09176982 -0.25319868 0.036462136 -0.1640583
000020 d0 e4 1e bd 67 96 80 be e1 fe 04 3e 88 c6 61 bc
       -0.03879243 -0.25114748 0.12987854 -0.013780244
000030 54 c0 98 be ae a8 23 3e 35 b8 95 3e f2 bf 3a 3c
       -0.29834235 0.15982315 0.292421 0.011398302
000040 60 0e f6 3d cf 70 dd 3c 8f 80 e3 bd c4 72 03 be
       0.120144606 0.02703133 -0.11108505 -0.12836748
000050 84 85 cc bd aa d2 a4 3d 78 73 89 3e 84 a5 99 3d
       -0.099864036 0.080479935 0.26845908 0.07502273
000060 24 7a 14 bd 44 39 8c 3d 6f 53 93 be 64 f5 85 be
       -0.036249295 0.0684686 -0.28774592 -0.2616378
000070 2c 18 78 3d 46 c9 e7 3d 55 62 fc bd 1d 0f 7a be
       0.060569927 0.11317687 -0.12323443 -0.24419828
000080 85 7b 38 be fd 9a 2c 3e 63 7e 28 be 9f 20 73 3d
       -0.18015869 0.16855998 -0.16454463 0.05935728
000090 6a 98 43 3e 3b 08 66 be f8 c4 6b 3c 3f 0e 10 be
       0.1910111 -0.22464077 0.014390223 -0.14067934
0000a0 87 8b c0 bd f2 a5 3d be f6 ac 9c 3e e4 06 43 be
       -0.09401613 -0.18520334 0.3060071 -0.19045597
0000b0 5b 9d 48 3e 93 39 01 3e 3b 39 86 be 2b 74 84 3e
       0.19591276 0.12619619 -0.26215538 0.2586988
0000c0 d7 65 e4 bd 01 1b 79 be 8f 80 16 3b 59 2d 41 be
       -0.11152237 -0.24326707 0.002296481 -0.18864955
0000d0 2e fe 36 3e bc a7 8c be 30 39 0c bd 69 75 80 be
       0.178704 -0.2747172 -0.034234226 -0.25089577
0000e0 a6 a8 be 3c 17 b9 05 be 30 50 72 3d 5c 6a 1a 3e
       0.023273777 -0.13058887 0.059158504 0.15079635
0000f0 90 e6 2b 3e bb b7 8c 3e ee 07 61 3d c2 8a 96 bd
       0.16787171 0.27483925 0.054939203 -0.07350685
000100 f2 fa 87 bd 5f 9a 6d be bc 06 26 3e c2 1c ab 3e
       -0.06639661 -0.23203419 0.16213506 0.33420378
000110 3e e9 78 be 19 4b 29 3d e0 ca 6a bd db 96 0d be
       -0.24307725 0.041331384 -0.057322383 -0.13827078
000120 f3 b0 29 be 3d 0c 2a 3e 84 62 c6 bd e0 df 00 be
       -0.16571407 0.16606231 -0.09686759 -0.12585402
000130 2d 3e 91 3e 06 ea 90 be 6c 7f 93 3e c8 44 7a 3e
       0.2836775 -0.28303546 0.28808153 0.244403
000140 06 f4 85 be 07 f5 8c 3e f8 4e db bd 74 a7 a6 3d
       -0.26162738 0.2753069 -0.107084215 0.08137408
000150 a2 fd 0d 3e 9c 38 6f be d1 ad a6 3e 83 bd 56 3d
       0.13866284 -0.23361439 0.32554486 0.052426826
000160 c2 e2 ac bd 16 ec c3 3d 67 f8 92 3d e3 5f 98 be
       -0.08441688 0.09566514 0.07176285 -0.29760656
000170 9a fa 8c be 33 99 69 be 4c 17 2a 3b 0c 6c 8d be
       -0.27534944 -0.22812347 0.0025953827 -0.27621496
000180 13 b2 71 3c f8 2a 9b be 0a cc 7a be 2d de 69 be
       0.014751929 -0.3030622 -0.24491897 -0.2283866

bias f4 [10]
000000 46 90 10 be e9 b3 71 be 46 5b 4d be 90 f6 f5 bd
       -0.14117536 -0.23603787 -0.2005435 -0.12009919
000010 17 1b 89 bd 67 85 b0 bd 14 25 95 3c d8 a0 4b be
       -0.0669462 -0.086191945 0.018206157 -0.19885576
000020 70 bc e5 3c 6f 1a 53 3e
       0.028043956 0.20615552

weight f4 [10, 10]
000000 f9 25 81 be b3 bc 63 bd 8a 2c 43 3e 08 0c ba 3d
       -0.25224283 -0.05559988 0.19059959 0.09084326
000010 fa 81 7c be 9e 9d 24 3e ad 68 b5 be d0 52 2b 3d
       -0.24658957 0.16075751 -0.35431424 0.041827023
000020 31 e8 bb 3c 5d d5 f9 bd 25 7f 26 3e 96 aa 81 bd
       0.022937866 -0.12198899 0.1625944 -0.06331365
000030 bc 0c 84 3e 59 89 77 be 04 60 75 be bc 9c 57 be
       0.25790966 -0.24173488 -0.23962408 -0.21055883
000040 dd fc 7e be f2 4a e1 3d ac f0 c5 3d f0 c9 88 3e
       -0.24901147 0.11000623 0.09665045 0.26716566
000050 7a 22 0d be c5 11 65 be 40 fa 99 be 5a 94 53 3e
       -0.13782683 -0.2237006 -0.30073738 0.2066206
000060 5d 39 e9 3d 77 06 72 3d 7e fa 0e 3d ca 25 91 3e
       0.11387894 0.059088197 0.034906857 0.28349143
000070 ae 07 21 be 96 d2 82 3e eb a6 bc 3d 82 8d 27 3e
       -0.15725586 0.2555129 0.092115246 0.16362575
000080 5f e3 48 be 72 08 af bd 56 a9 1d be 3f 6a 1d bd
       -0.19617985 -0.08546533 -0.15396628 -0.038431402
000090 e8 d9 54 be d7 29 24 3d ea 9a bb bd 35 0a b9 bc
       -0.2078625 0.040078964 -0.09160407 -0.022587875
0000a0 1e 0a 34 3d e9 d8 56 3e 54 e0 8e bd bd 40 16 3e
       0.04395496 0.20981182 -0.06976381 0.14673133
0000b0 85 00 5f be 80 4f ac 3d d1 60 ca 3d c9 1c f3 bc
       -0.21777542 0.08413601 0.098817475 -0.029676812
0000c0 1a da 22 3e 22 c1 6e 3d 76 ce 0e 3a c9 73 0d be
       0.15903512 0.058289655 0.0005447635 -0.138137
0000d0 43 6d 85 bd a0 d8 6e 3e 5a 06 15 bc dd 01 5f bd
       -0.06514981 0.23324823 -0.009095753 -0.054445136
0000e0 95 47 02 be f4 3f c4 3d bb a6 e8 bc bd 86 8a 3e
       -0.12722619 0.095825106 -0.028399816 0.27055922
0000f0 b8 ba 22 3e ee 6a 45 3d 89 1f 43 be a5 7f 9f bb
       0.1589154 0.04819768 -0.19054998 -0.0048675113
000100 8f 4b 4b be 3f 92 86 bc 02 72 42 3e bb 1b 81 3e
       -0.19853042 -0.016427157 0.18988803 0.2521647
000110 aa 56 02 3e 6f e8 22 bc ca a7 e0 bc 81 b4 47 be
       0.12728372 -0.009943112 -0.027423758 -0.1950245
000120 bc e6 88 3d 4f c7 bf bb 88 d3 18 3e 37 87 49 3d
       0.06684634 -0.005852617 0.14924443 0.049201217
000130 4e 09 96 be b3 4d ec 3d 26 40 06 3d 75 d7 ec 3d
       -0.29303974 0.115382574 0.03277602 0.11564533
000140 b7 a3 51 be e4 8b ce bd 41 b4 0b 3e 6a 10 7b 3e
       -0.20472609 -0.10085276 0.1364298 0.2451798
000150 71 00 97 be 53 55 1e bd 11 56 2e 3e 1e 27 50 3e
       -0.29492524 -0.03865559 0.17025019 0.20327422
000160 56 26 43 be 0c 02 89 3d 15 d1 5a be 59 ef 8e bb
       -0.19057593 0.066898435 -0.21368821 -0.0043620286
000170 f7 ca 8d 3e f5 fe 97 3c 57 00 38 be 8e f1 32 3e
       0.27693912 0.01855419 -0.1796888 0.17474958
000180 64 6a b4 be b0 af 87 be 30 da 74 3e dd 05 50 3d
       -0.3523742 -0.26501226 0.23911357 0.05078684

bias f4 [10]
000000 1d 5c 41 3e a3 dd 7b be da 4b 64 be 79 55 06 be
       0.18882795 -0.24596266 -0.2229456 -0.13118543
000010 a1 36 87 3e 8a e0 24 be 91 c3 49 3e 6f 49 41 be
       0.26408866 -0.1610128 0.19703509 -0.18875669
000020 fb 92 88 3e 9e 50 1d 3e
       0.26674637 0.15362784

weight f4 [10, 10]
000000 c1 bb 85 3e 3f ee 14 3e 0a d1 ea 3d d1 55 11 bd
       0.26119807 0.14544009 0.11465652 -0.03548223
000010 c2 8f f4 3d d4 e7 0e 3e 20 e3 1f 3e 25 ae 82 be
       0.11941482 0.13955623 0.15613985 -0.25523487
000020 89 6b 16 3e 44 23 a2 3e d9 57 98 3e 98 b1 9d be
       0.14689459 0.3166753 0.29754522 -0.30799556
000030 90 5f 48 3e db e1 8c 3e f3 48 61 be 58 6d 44 3e
       0.19567704 0.27516064 -0.22000484 0.19182336
000040 79 90 d9 3d e7 76 33 be cc f2 ef 3d 84 f2 01 3e
       0.10623259 -0.17525826 0.11716232 0.12690169
000050 6d c9 1a be 89 72 9e 3e ee 81 2c be 98 5a 28 be
       -0.151159 0.30946758 -0.16846439 -0.16440809
000060 c5 b8 9b 3e 73 66 3b 3e 9b ed 94 3d 52 18 70 3d
       0.30414405 0.183008 0.07271882 0.058616944
000070 45 fe 62 be be ce f3 bd 75 0f 8e ba cc 42 3a be
       -0.22167309 -0.11904667 -0.0010838347 -0.18189543
000080 44 b6 14 3e 04 36 d1 bd fe 11 cc bd e7 b0 18 3e
       0.14522654 -0.10215381 -0.09964369 0.14911233
000090 04 3d 16 be bf 7c 4f be ad 56 09 be 8d a8 c8 bd
       -0.14671713 -0.2026243 -0.1341197 -0.097977735
0000a0 91 69 86 3e a1 38 3a 3e 23 8a d5 bc d6 f9 64 3d
       0.26252416 0.18185665 -0.026066845 0.055902325
0000b0 6d 2a 93 bc 45 c2 c2 bd eb dd 08 be 9c 09 0d be
       -0.017964566 -0.0950971 -0.13365905 -0.13773197
0000c0 cd 5c 39 3e fa 89 68 be 52 d4 2d be 69 63 1a 3e
       0.18101807 -0.22708884 -0.16975525 0.15076984
0000d0 74 0f 93 3e 47 11 60 3e ac 8e 2d be e9 e5 c0 bd
       0.28722727 0.21881591 -0.16948956 -0.09418852
0000e0 d2 2d 44 3e 47 ae 32 3e 37 5e 4e be e4 aa 8b be
       0.19158104 0.17449294 -0.20153128 -0.27278817
0000f0 43 2b 9f 3e 92 1a 47 3e 82 67 55 3a fc 1a f6 3d
       0.31087694 0.1944373 0.0008140729 0.120168656
000100 ac bb 07 be 76 c5 12 be 57 ba cb bc ee 58 0c 3e
       -0.13255185 -0.14333138 -0.024869127 0.13705799
000110 64 c4 16 bd fc a4 23 3d 6d ad 7f be 71 69 87 3e
       -0.036808386 0.039952263 -0.249685 0.26447633
000120 99 10 18 be b4 3c 99 be 06 d5 28 3d 2c d1 8f 3d
       -0.14850082 -0.29929125 0.04121878 0.07022318
000130 aa e7 92 be 99 56 a9 bd c7 68 c9 bd c1 5f e7 bd
       -0.2869237 -0.0826847 -0.09834438 -0.112975605
000140 fa 15 51 3e 73 4c cb 3d 27 c7 b9 3d bf e4 7c 3e
       0.2041854 0.09926691 0.090711884 0.24696635
000150 43 f1 9e bc 28 d9 15 be e0 87 44 bd 19 2a db bd
       -0.019402152 -0.1463362 -0.047981143 -0.10701389
000160 ff 67 4a be cd 33 61 3c 97 06 8a 3e 5c 35 8e 3e
       -0.19766234 0.01374526 0.26958153 0.27775085
000170 d1 32 98 3c e9 a9 69 3e a1 86 85 be 21 7f 80 be
       0.018578919 0.22818722 -0.26079276 -0.25096992
000180 61 fc 83 bd 60 c7 62 3e 74 fc 5a 3e fe b7 11 3e
       -0.06444622 0.22146368 0.21385366 0.14230344

bias f4 [10]
000000 50 ee 70 bc 27 49 0d 3e b6 d5 87 bd 72 8e 52 bc
       -0.014705256 0.13797437 -0.06632559 -0.012851344
000010 ab 2c 81 bd ef 9f 81 3d 9d 4d b1 bd 7b 6e b7 bc
       -0.06307348 0.06329333 -0.08657382 -0.022391548
000020 f6 43 9b be 49 e6 3f bd
       -0.30325288 -0.046850476

weight f4 [10, 10]
000000 9f 5b 8c 3e 02 b6 cc 3d 13 fc f5 3d 2f 92 15 be
       0.2741365 0.09995653 0.1201097 -0.14606546
000010 31 7f 27 3e de a6 c1 bd 54 a8 7f 3e bb 88 8d be
       0.16357113 -0.094556555 0.24966556 -0.2764338
000020 42 3e 9e bd 68 a0 c6 bd aa 18 81 3e 6a 4b 97 3e
       -0.077267185 -0.09698564 0.2521413 0.29549724
000030 70 34 52 bd 90 7f 5f bd c3 9b 95 3e 7c cc d2 bd
       -0.05131954 -0.054565012 0.292204 -0.102929085
000040 5f f4 52 3e 58 b7 46 3e 84 f5 97 be 15 41 07 bd
       0.20601033 0.19405878 -0.296795 -0.03302105
000050 15 50 37 3d 14 b1 66 be 37 a1 07 be dd 3a 8d 3e
       0.044754107 -0.22528487 -0.13245092 0.27583972
000060 29 1c bd bd 51 65 32 be 16 40 8c be 59 66 02 3e
       -0.09233887 -0.17421462 -0.27392644 0.12734355
000070 ff 55 58 be 17 99 5f be d5 e8 9b 3e 70 e2 57 3e
       -0.21126555 -0.21835743 0.30451074 0.21082473
000080 b4 fe b1 3d cf 76 18 3d f8 10 f0 bc c8 89 15 3d
       0.08691159 0.03722268 -0.029304966 0.03650835
000090 3d 89 f4 3d d3 56 3e be e6 c2 75 3d f5 e9 b0 bd
       0.119402386 -0.18587808 0.060000323 -0.08638374
0000a0 0e 26 49 3d a4 c5 90 bb 7a 6f dc 3b 00 12 47 3d
       0.049108557 -0.004418092 0.006727156 0.04860115
0000b0 53 6e 78 be d9 2b 80 3e 5b c2 30 3e d5 da 62 bd
       -0.24260835 0.25033453 0.1726164 -0.055384476
0000c0 69 5c 75 be 27 83 1c 3e b0 a8 88 be 29 02 b2 3c
       -0.23961033 0.15284406 -0.26691198 0.021729546
0000d0 aa 69 5a be 97 ce 2a 3e b1 81 b7 3d d3 15 0b 3c
       -0.2132937 0.1668037 0.089602835 0.00848909
0000e0 0b 4b b1 3d 0b 0a 3d be 63 37 3f be 11 18 0b 3e
       0.086568914 -0.18460862 -0.18673472 0.135834
0000f0 48 3c 81 bd a7 c7 31 3d a8 1d a6 3d 8a 69 34 bc
       -0.06310326 0.043403294 0.08111125 -0.011011491
000100 e3 f8 ea 3d 96 30 ff bd 17 7a 2a be fc 14 ba 3d
       0.114732526 -0.12460439 -0.16648136 0.09086034
000110 9c 53 85 bd 7c d1 90 3e 8a ca 74 bc 67 5a 94 bd
       -0.06510088 0.28284824 -0.014940867 -0.072438054
000120 79 1d d5 bd b4 d1 3a 3e 94 02 99 3d 52 f2 c3 bd
       -0.10406012 0.18244058 0.07471195 -0.09567703
000130 d3 44 84 3e 50 26 90 be e3 31 e8 bc 61 d8 95 3e
       0.2583376 -0.2815423 -0.0283441 0.29266647
000140 f3 cc 3a be a8 fc 36 3e 2d 15 31 3e 47 3b 4d 3e
       -0.18242244 0.17869818 0.17293234 0.20042144
000150 ac 0c 20 3e 65 e2 a1 3e 8c fa 80 3d 9a 13 ca 3d
       0.15629834 0.31618038 0.06297788 0.0986702
000160 23 dc 65 3e ab 85 18 3e 28 75 86 bd d4 84 96 3c
       0.22447257 0.1489474 -0.065653145 0.018373884
000170 19 99 c2 3c ca 2c 8a be bd 77 85 be 3a 23 93 3e
       0.023754643 -0.26987296 -0.26067916 0.28737813
000180 9b 99 81 3e f5 62 07 3e eb 08 62 be 9c a1 07 be
       0.25312504 0.13221343 -0.22073714 -0.13245243

bias f4 [10]
000000 10 d5 02 3e 6d 78 0e be aa 2b 0b be 2c d8 f5 3c
       0.1277659 -0.13913126 -0.13590875 0.030010305
000010 73 e0 64 3d d2 33 d4 3c 53 4b 6e 3e f8 49 97 be
       0.055878114 0.025903616 0.23270921 -0.2954862
000020 d6 d5 5c be b5 dc 93 be
       -0.21565947 -0.28879324

weight f4 [1, 10]
000000 3c 02 c8 bd 5c 4a d9 bc 4a e5 b5 3d 1b fc 1a bd
       -0.09766051 -0.026524715 0.08881624 -0.037838083
000010 e0 29 c6 3d cc 0f 91 3e fa ba 0b 3e b8 0a 27 be
       0.09675956 0.28332365 0.13645545 -0.16312683
000020 45 c6 55 be 3a 8b 92 be
       -0.20876415 -0.28621846
