src/torchfort/2025-07-12-a/examples/fortran/burgers03/burgers_inference_net.pt (torch, 12867 bytes, 7 tensors)

weight f4 [20, 2]
00000000: 9e63 45bd 86be 2dbf 317b 13be 7f0f 83be
00000010: 1f58 d7bd dab7 1ebf b506 50be 9303 20bf
00000020: 33a2 d3be 8d70 8d3e 1e79 863e f552 99be
00000030: 72cf 2abf 3600 65be ce04 9a3d bc62 0ebe
00000040: 6348 b13e 9fd8 18bf 9ab5 08bf d4bb 283e
00000050: a1df 013e 4080 423d 79a9 eebd b8a3 ae3e
00000060: b112 0a3f 1953 a63e 5925 2cbf fed4 1f3f
00000070: 71b8 be3d 25cd 343f 76e4 df3e 496f b43e
00000080: b939 733e b8ba ff3e 318f 6fbe bff5 0ebe
00000090: 96e1 023f 7aeb 6ebe 244a 2e3f 280c 673d
-0.048190705 -0.6786884 -0.14402463 -0.2559776 -0.10514855 -0.61999285 -0.20315059 -0.62505454
-0.41334686 0.27624932 0.2626428 -0.29946104 -0.66722786 -0.22363362 0.07520448 -0.13904852
0.3462554 -0.5970554 -0.534021 0.164779 0.12682964 0.04748559 -0.11653418 0.34109282
0.5393477 0.32485273 -0.6724449 0.62434375 0.09312523 0.70625526 0.4372899 0.35241154
0.23752488 0.49947143 -0.23394467 -0.13960932 0.51125467 -0.23332015 0.6808188 0.056408077

bias f4 [20]
00000000: 6ad7 ca3e d662 75be fd3e 9e3e 3cd9 463e
00000010: afcf 36bd c94d 97be 3b51 bbbe 38d3 2fbf
00000020: 8a26 63be 689e 9bbe e4ec 723d b74a 903e
00000030: 0e8d 0abf bc3a 293f 10f3 4f3e 8e8d 283e
00000040: aede c43e bfc1 0cbf 4051 2e3f 9d61 f6be
0.39617473 -0.23963484 0.3090743 0.19418806 -0.044631656 -0.29551533 -0.3658541 -0.6868167
-0.2218267 -0.30394292 0.059307948 0.28182003 -0.5412148 0.66105247 0.20307565 0.16460249
0.3845114 -0.54983133 0.6809273 -0.48121348

weight f4 [20, 20]
00000000: 911b 053e 75c6 0a3e 147b 27be 4bab 64be
00000010: efcb 0cbe 9f00 8dbb 8553 b23d 5361 a0bd
00000020: c79e 45be 2025 303e 2c5b e43d 0c0b 49be
00000030: 0d80 8ebd 4d4b a93c 046c 5ebd 00d6 0e3d
00000040: b747 1c3e 01d1 50bc 2ddf 433e 9b0e 4bbe
00000050: 3386 29be 84e4 123e 060b 0fbd 5e10 043e
00000060: 8dae 1fbe 73dc 34be df6f 0f3e bbf8 adbd
00000070: 70df 2cbe f863 473e d3dc af3c 6506 a4bc
00000080: f573 84bb 3b81 5dbc 14a9 50be e100 5dbe
00000090: 24f2 aa3c 1568 1dbe 7c12 063e 206f ff3b
000000a0: cd3e 063e a420 963d 1774 45be ab9c 2ab8
000000b0: 2029 473e 39b4 d3bd 4af4 3b3e c8c1 083c
000000c0: e7d6 c7bd 89d9 3c3e 1c10 dbbd f37c 22be
000000d0: 7b75 93bd 1dab 893a e8e5 41be 6267 8ebd
000000e0: ee91 3dbe 8fd8 2abe d124 4a3e 02f1 3cbe
000000f0: 596a 29be ae87 3bbe 0039 dbbd 3544 3f3e
00000100: 10af e13d 39bb cbbc 4715 0dbd 6254 de3d
00000110: 9dba 82bd 68f7 563e 1f54 1b3e c4af 7abd
00000120: 757c 523e 30da 393e 2020 45be fee0 dfbc
00000130: 17cc 64be 1ec1 1b3e 9a94 44be 25be 43bd
00000140: 83f4 fabd 54d3 713b 4418 f6bc 7db5 d0bd
00000150: 4cce 15be 7bf8 273d 41fc 603e da23 4abe
00000160: 1439 263e d72e 57be c03f 53be 0177 d7bd
00000170: 5929 193e a98e 653c 5bbd 303e ee0a 313e
00000180: f656 f7bc 06b2 583e d46d 4bbd b419 a9bd
00000190: c2ce e9bd d91e 93bd 1d50 5dbe dce2 d43d
000001a0: c5e0 833d ef7a 2ebe 76af 18be 04f6 183e
000001b0: 3063 57be 2a95 05be 83dd f6bd 3d5b 85bd
000001c0: 3392 22be bf25 0d3e 0ae7 ecbd 84c6 c33d
000001d0: b7c3 c93d 5b25 99bd bc4e db3d 9334 083c
000001e0: c4dd 76bc ebfa 0e3e bd7e 133e 8b6a c33d
000001f0: beef 30be 7dcd a5bc 1cae b9bd f945 14be
00000200: 2763 5fbe 56bb cb3c 0d33 5c3d 56ce e03d
00000210: 0cd3 933d 2869 693d 92c9 b8bd 13b4 3f3e
00000220: d654 603e 3ff0 31be e9a9 803d d190 d73d
00000230: 85dd b5bd 7659 173e e151 1f39 b06e 0f3e
00000240: 246e 30bd 3d56 64be 4322 53be e474 833d
00000250: 42a7 623e f4cc 26be 9472 593e 0736 51be
00000260: 54de 3c3e 4ab0 aa3d 4c58 2c3e 795e 5a3e
00000270: b24f 96bd 29c9 e43d c713 edbd 3d33 efbd
00000280: c547 f8bd b0ee bf3d 2677 5fbe 6d5c e13d
00000290: 4565 2d3e 057c 48bb 1066 a1bc 7ecd dd3d
000002a0: 744e 31be 9b9a 2abe 3425 12be 8dc7 ccbd
000002b0: a809 51be 395d 4d3e 1a8a d3bd d1ff 5fbe
000002c0: cce1 4b3e 2bc7 233c 1adf bdbd 42bd d83d
000002d0: 637f 31be ea15 d6bc 693a 5ebe 616a 1b3e
000002e0: e934 2bbe f5f8 d5bc d87e 8b3d bdcd 20be
000002f0: 5822 d2bd a047 3fbe b90b 463e ee1e 2e3e
00000300: d0ee 1dbe 422e 28bc 8537 ae3d ef0a 64be
00000310: 917b 883d 9212 413e 2559 353e 2542 203c
00000320: 2e86 133d 528a 85bd e331 ea3d fe37 3c3d
00000330: c15e 3cbe 3931 433e 359d 27be 0802 613e
00000340: a50f 343b a5da 343e ccb3 b93d e7e2 9ebd
00000350: aadd 213d 1f91 553e 71e5 62be 1385 2c3e
00000360: 2d5f 66bc ede2 533e 79bd 433e 306d 1b3e
00000370: e765 523d b5b3 f3bd 630e 233e 39f0 113c
00000380: bd69 47bd 4394 cdbd 8dcc 953d cf48 cc3d
00000390: fa05 063e 9e0e 283d 224e ccbc f9c9 09be
000003a0: 7d7f b2bd 7e06 5a3d 7f59 33be 85d6 f3bd
000003b0: cefe 5dbe ac20 26bd 1037 3bbe 2b62 9cbd
000003c0: d87b 5b3e cfd2 41be e422 cbba a741 2dbe
000003d0: ddf0 3dbc cf6a 573e 9d59 57bd 33fa 133e
000003e0: 1b0b 163e a50c 603e 90be e1bd dc55 06be
000003f0: f1a9 1cbe 92a6 bebd 0137 973d 0e0f 393e
0.12998797 0.13552268 -0.16355544 -0.22330968 -0.1374967 -0.0043030526 0.08707336 -0.07831063
-0.1929885 0.17201662 0.11150202 -0.1963312 -0.069580175 0.020665789 -0.05430223 0.034872055
0.15261732 -0.012745143 0.19128104 -0.1982979 -0.16555099 0.14344984 -0.034922622 0.12896869
-0.1559393 -0.1766222 0.14007519 -0.08494707 -0.1688211 0.19471729 0.021467602 -0.02002258
-0.0040421435 -0.0135195805 -0.20376998 -0.21582367 0.020867415 -0.15371735 0.13092989 0.0077952296
0.13109894 0.073304445 -0.19282566 -4.0677067e-05 0.19449282 -0.10337109 0.18354908 0.008346982
-0.09757786 0.18442358 -0.10696432 -0.15867977 -0.07200142 0.0010503266 -0.18935359 -0.069533125
-0.18512699 -0.16684173 0.19740607 -0.18451312 -0.16544475 -0.18313476 -0.10704231 0.18678363
0.11019719 -0.024869548 -0.03444412 0.108559385 -0.0638325 0.20992815 0.15168808 -0.06120278
0.20555289 0.18149638 -0.19250536 -0.027328964 -0.22343479 0.15210387 -0.19197312 -0.047788758
-0.12253668 0.0036899643 -0.030040868 -0.10190866 -0.14629477 0.041008454 0.21971227 -0.19740239
0.16232711 -0.21013962 -0.20629787 -0.10520745 0.14957179 0.014011064 0.17259733 0.17289326
-0.030192833 0.2116166 -0.049665287 -0.082568556 -0.11416389 -0.07183618 -0.21612592 0.103948325
0.06439356 -0.17039083 -0.14910683 0.14937598 -0.21033931 -0.13045183 -0.12053969 -0.06511543
-0.15876083 0.1378393 -0.11567505 0.09559348 0.09851783 -0.07477828 0.10708377 0.008313316
-0.0150675215 0.13962905 0.14403816 0.09541806 -0.17278954 -0.020239586 -0.09066412 -0.14479817
-0.21815167 0.024869602 0.053759623 0.109768555 0.07217988 0.05698505 -0.090228215 0.18721037
0.21907362 -0.17376803 0.06282408 0.105256684 -0.08880142 0.1478022 0.00015193924 0.14007068
-0.04307379 -0.22298522 -0.20618539 0.064187795 0.22134116 -0.16289121 0.21235114 -0.20430766
0.18444186 0.08334406 0.16830558 0.21325101 -0.073394194 0.11171181 -0.11576038 -0.11679695
-0.12123064 0.09371698 -0.21822795 0.11003957 0.16933163 -0.00305915 -0.019701988 0.1083021
-0.17315084 -0.1666054 -0.14272004 -0.09998999 -0.2041384 0.20055093 -0.10329075 -0.2187493
0.19910353 0.009996216 -0.09271069 0.10582973 -0.1733375 -0.026133496 -0.21701969 0.15177299
-0.16719402 -0.026119689 0.06811303 -0.15703483 -0.10260457 -0.18679667 0.1934041 0.17003986
-0.15423131 -0.010264935 0.08506683 -0.22269796 0.066641934 0.1885474 0.17709787 0.009781395
0.036016636 -0.06520523 0.114352964 0.045951836 -0.18395521 0.19061746 -0.16368563 0.21973431
0.0027475145 0.17661531 0.09067497 -0.07758122 0.039518036 0.2085614 -0.22157837 0.16847639
-0.014060778 0.20692034 0.19115247 0.1517837 0.051366713 -0.11899511 0.15923457 0.008907371
-0.048684824 -0.10038044 0.073144056 0.09974825 0.13088217 0.041029565 -0.0249396 -0.13455953
-0.08715723 0.053228848 -0.17514609 -0.11906151 -0.21679232 -0.040558502 -0.18282723 -0.076359116
0.21433961 -0.18928073 -0.0015498069 -0.16919576 -0.011593071 0.21036838 -0.052575696 0.14450912
0.14652674 0.21879824 -0.11022675 -0.1311869 -0.15299203 -0.093091145 0.07383538 0.18072149

bias f4 [20]
00000000: e7a5 2bbe 9906 b13d 0479 3dbe 4428 b2bd
00000010: 3ecc c93d 355c 63bd 31e3 4bbc 98eb 403e
00000020: 5d91 183e 3821 213d 68d1 9fbd 9c41 d43d
00000030: 1611 8d3d 573e 0fbd b09e ccbc 57e9 693c
00000040: 168d 4d3e 1ee1 fdbd a033 01be 6d00 acbc
-0.16762505 0.086438365 -0.18503195 -0.08699086 0.09853409 -0.055507857 -0.012444303 0.18839872
0.14899202 0.03933832 -0.07803613 0.103640765 0.068880245 -0.03497156 -0.024978012 0.014276824
0.20073351 -0.12396453 -0.1261735 -0.020996297

weight f4 [20, 20]
00000000: 90bd ddbd 36d5 c0bd e601 cc3d 9539 d1bd
00000010: e052 f43d 8962 bbbd 8c19 8a3d 30fa e53d
00000020: f40d 683d cf22 16be b73a 053d 62d3 223d
00000030: 3fc1 ad3d 69ec 833d 97f0 ef3d 9ea8 42bd
00000040: 6aab 42bd 50e4 0cbe 19a3 f6bd fbb6 af3d
00000050: 8c6b f0bb 907a cebd 0d4e 0f3d 165c 163e
00000060: be2e bb3d b702 5b3e 36a4 a0bd 237a 04be
00000070: 1bce 9e3d 4194 48be c137 4dbe d792 b0bd
00000080: 2cd2 f9bd 0779 4a3e 1309 3ebe bd89 45bd
00000090: cff6 8bbd 99cb 5f3e ab07 bc3c 32f0 373e
000000a0: 1bea fdbc 455a 83bc 3391 9ebd f515 7dbc
000000b0: 3fae 663d 3982 d53b 14e4 743c 4387 f9bd
000000c0: 7e94 413e f2b5 1fbe bb6b b53d 9215 8dbd
000000d0: 8188 a33d cc96 4f3e 0de4 383d 9c06 fb3d
000000e0: 224b 753d 8f4d 2dbe f761 eb3d f2b0 2a3e
000000f0: a4a9 61be eeef e4bd 13e3 65bb dd12 29be
00000100: 15c3 363e 2029 a5bd 3615 1fbe 8ee5 bbbd
00000110: 3c77 90bd 97c4 6bbd 0ac4 303e 3567 60be
00000120: 212e 6a3d 7007 8a3d 78d1 b3bd ab77 4c3c
00000130: 1641 123e b032 813d 942e b6bd 19d0 ee3d
00000140: bea0 d5bc 767b 26be b2e1 d13d 3d2e 6a3d
00000150: bd97 613d 9c82 623b fcb0 56be 3ea3 8f3c
00000160: 116b edbd e5d8 503e bf35 16bd 1b48 34bd
00000170: 94b9 143e ea63 7e3d 05c2 153e d461 1dbe
00000180: edea 463e 5864 0ebe c531 3dbe fdae c8bd
00000190: e36f 333e 0164 44bd 6a03 59bd 6baf 973d
000001a0: 72c7 a13c 4114 fe3c a21a fabd dbbc cabd
000001b0: d722 f5bd 8ba2 153e 9fc7 573e dc9d 523b
000001c0: 332b 1a3e 6091 9b3c 6454 47be 33a3 06bb
000001d0: 8875 373d eaee 0fbe acdd d2bd ef46 a5bc
000001e0: 9f8b 3cbd 1ef9 d13d 0870 1e3e 3691 603e
000001f0: 0343 b83d 191f b1bc d4f7 40bd e1f7 173e
00000200: 1d83 033e df59 35be 22fd 2abe 77eb 0e3e
00000210: b091 1d3e a5f0 40be 50a2 92bd 42f8 363b
00000220: a28b 1f3e ae62 a0bc 57d6 4d3e 9bb0 dd3d
00000230: 3f36 2cbe bec3 de3d 95ec 0cbe 1837 5f3e
00000240: 2a9f 3a3e 19e0 b8bd 5083 3bbe 4cae c5bc
00000250: 9ea8 603e 9013 413e faee 273d 52c4 163b
00000260: 3c05 623e 77ea 05be 9266 41bb 8fa9 4b3e
00000270: 809e 043e 9e72 0d3e 97d2 4abe 3657 233e
00000280: ce28 17be acc9 28be d95f d03d 422e 733c
00000290: c18e 0fbe 8aef 98bc eb1a 0a3b 617c 373e
000002a0: dd3c 033e 3ec7 2d3c bb9b dfbd 09f0 eabd
000002b0: 6875 61be 2483 35be aefe 52bd 7033 34be
000002c0: d1dc 593e d304 c0bc fe94 113b 3375 47be
000002d0: 1604 a33d eb89 4c3d eaff dcbd feed 33be
000002e0: 9187 bbbd c71c c8bd a486 62be 0415 803d
000002f0: 8396 3dbe bcee 643e c433 74bd aa31 973c
00000300: c5ef a5bd 22d3 d93d e196 fdbd 563e d23d
00000310: 1c26 9fbd 2699 273e 2e42 1f3e 3115 a43d
00000320: 2b41 cf3d daa8 053e 4c2c 213e 8068 42bd
00000330: 367c fabd f97d 17bd c493 e03c 2023 243d
00000340: 29b7 be3d cd06 9dbc 1681 bcbc 8a34 853d
00000350: a3cd 313e c941 31be 98dd 0dbe f017 27be
00000360: 86c5 21be 5df1 443e 5e9c a5bd dc75 37be
00000370: 0a51 353e 216c 4ebe c128 edbd 8270 c93d
00000380: 6f7e 0c3e 8e71 26be 2953 bbbd 7333 523d
00000390: cfc4 babd 0dea 94bd 7c12 443e 7a2e ac3d
000003a0: f350 c93c 9132 50be 6503 563e 13ab a13d
000003b0: fc29 f6bb 0a92 23be 0cb0 2abe cee6 29be
000003c0: e530 24be 9c73 8d3c 47c1 e4bb f1a5 27bd
000003d0: 823f 0fbe 4509 60bd 439c c13d 4688 a0bd
000003e0: 0036 45be 4149 dbbd 85f5 e53c f508 02be
000003f0: 979b 823d 04d5 44be dba4 b83c 9bcb fb3d
-0.10827172 -0.09415667 0.099612996 -0.10216061 0.1192987 -0.091496535 0.06743154 0.1122936
0.05665393 -0.14661716 0.032526698 0.03975237 0.084841244 0.06441576 0.11715811 -0.047524087
-0.047526754 -0.1375897 -0.12042827 0.08579823 -0.0073370393 -0.10081971 0.034986544 0.14683565
0.09139775 0.21387754 -0.07843821 -0.12937216 0.07754155 -0.19587804 -0.200408 -0.086217575
-0.1219829 0.19772731 -0.18558149 -0.04822706 -0.068341844 0.2185501 0.022952875 0.17962721
-0.03099542 -0.016034255 -0.07742538 -0.0154471295 0.056318518 0.006515768 0.014946956 -0.12184002
0.18904302 -0.1559675 0.088584386 -0.0688888 0.079850204 0.20272368 0.04513936 0.1225712
0.059886105 -0.16924118 0.11493295 0.16669062 -0.22037369 -0.111785755 -0.0035077974 -0.16511102
0.17847855 -0.080644846 -0.15535435 -0.091746435 -0.07053992 -0.05756053 0.17262283 -0.2191437
0.0571729 0.067397 -0.08780187 0.012479703 0.14282641 0.06308496 -0.08895603 0.11660785
-0.026077624 -0.16258034 0.10248126 0.057173003 0.05507635 0.0034562713 -0.20965952 0.017533895
-0.11592687 0.20395239 -0.03667235 -0.044014078 0.14523917 0.062107004 0.14624794 -0.1536935
0.19425555 -0.13905466 -0.18476017 -0.09799001 0.1752315 -0.047946934 -0.05298177 0.07406505
0.019748423 0.031015517 -0.12212111 -0.098993026 -0.11969536 0.14612786 0.21072243 0.0032137549
0.15055542 0.018990219 -0.19465786 -0.0020544052 0.04478982 -0.14055982 -0.10296187 -0.020175425
-0.04603159 0.102525935 0.15472424 0.21930394 0.089971565 -0.021621274 -0.047111347 0.14840652
0.12842984 -0.17710064 -0.16698125 0.1395701 0.15387607 -0.18841799 -0.07159865 0.002791897
0.1558061 -0.019578304 0.20101295 0.108247004 -0.16817568 0.108771786 -0.13762124 0.2179836
0.18224779 -0.09027118 -0.1831181 -0.024130963 0.21939322 0.18855119 0.04099939 0.00230052
0.2207231 -0.13077722 -0.00295106 0.198889 0.12951088 0.13813254 -0.19806896 0.15951237
-0.1476166 -0.16483182 0.101745315 0.014842572 -0.140193 -0.018668909 0.0021073173 0.1791854
0.12816186 0.010606585 -0.10918375 -0.11471564 -0.22017443 -0.17725807 -0.051512413 -0.17597747
0.21275641 -0.0234398 0.002221405 -0.19478302 0.07959764 0.049936216 -0.10790999 -0.17571256
-0.091567166 -0.09771114 -0.22121674 0.062540084 -0.18514447 0.22356695 -0.05961968 0.018456299
-0.08102373 0.106359735 -0.123822935 0.10265796 -0.07770941 0.16367015 0.1555259 0.080118544
0.10119852 0.13052693 0.15739554 -0.04746294 -0.122307226 -0.03698537 0.02741421 0.04007256
0.09312279 -0.019168282 -0.023010772 0.06504162 0.173636 -0.17310251 -0.13854063 -0.16317725
-0.15798005 0.19232698 -0.08086465 -0.17916054 0.17706695 -0.20158435 -0.11580039 0.09835912
0.13720106 -0.16254255 -0.09146721 0.051318597 -0.091195695 -0.07271204 0.19147676 0.08407302
0.024574732 -0.2033179 0.20899732 0.07893958 -0.007512329 -0.15973678 -0.16668719 -0.16591951
-0.16034277 0.01726704 -0.0069810483 -0.04092974 -0.1398907 -0.05469634 0.09453633 -0.07838492
-0.1925888 -0.107073314 0.028071174 -0.1269873 0.06377333 -0.19221884 0.022539547 0.12294694

bias f4 [20]
00000000: 3f8c 6ebd 2bff 3d3e 1452 92bd 2940 e43d
00000010: 4721 92bd 9625 053d dae7 37bc db14 c13d
00000020: f666 60be fe39 a43d f931 41be 9216 213d
00000030: 0141 50bc f6fe d23d 8351 25be b834 5fbe
00000040: e839 f03b 44e3 263e 08a9 2e3d 3fc7 00be
-0.058239218 0.1855437 -0.071445614 0.1114505 -0.071352534 0.032506548 -0.011224711 0.09427806
-0.21914276 0.08018874 -0.1886672 0.039328165 -0.012710811 0.10302536 -0.16144376 -0.21797454
0.0073311217 0.16297632 0.04264167 -0.12576006

weight f4 [1, 20]
00000000: 4c2e 5bbd 80f6 5fbe 4b83 8ebc a3e2 5fbe
00000010: 1208 473e ca2c ebba 05aa 343e d06f 63be
00000020: 0a7e 79bc 88ac ba3d ec45 e6bd 7796 b33d
00000030: e8de 61be 36ef d9bd 699a 5cbe 54fa 19bd
00000040: d1b4 a1bd f269 e4bd 2b4d 253e 26fa 5fba
-0.05351095 -0.21871376 -0.01739659 -0.21863799 0.19436672 -0.0017942425 0.17642982 -0.22210622
-0.015227804 0.09114939 -0.11243805 0.08768933 -0.22057688 -0.10641329 -0.21543278 -0.037592247
-0.07895816 -0.1115302 0.16142718 -0.000854405
