src/torchfort/2025-07-12-a/examples/fortran/burgers03/burgers_model.pt (torch, 15023 bytes, 7 tensors)

weight f4 [20, 2]
0.68229777 -0.20184302 0.6492311 -0.7019248 0.54185396 0.45203674 -0.033542063 0.18704046
-0.6770575 0.5178608 0.12637952 0.42040065 -0.26680145 0.36813197 0.18832628 -0.64155006
-0.1758337 0.5221225 0.63620996 -0.5180163 0.4353026 0.6989776 0.041145016 0.5930607
0.4551711 0.33903143 -0.56642085 -0.46601382 -0.33703545 0.6696411 0.11573516 -0.5341592
-0.5090101 -0.48869127 -0.47717515 0.32976055 0.34861293 0.409232 -0.3603285 0.54079604
00000000: 11ab 2e3f f0af 4ebe 0234 263f 58b1 33bf
00000010: f1b6 0a3f 5c71 e73e 6763 09bd 8987 3f3e
00000020: a453 2dbf 8692 043f a269 013e c13e d73e
00000030: 339a 88be cb7b bc3e 9bd8 403e a03c 24bf
00000040: c00d 34be d2a9 053f a8de 223f b79c 04bf
00000050: fbdf de3e 32f0 323f ad87 283d d3d2 173f
00000060: 300c e93e 8795 ad3e f500 11bf 5d99 eebe
00000070: e98f acbe 996d 2b3f 8e06 ed3d a8be 08bf
00000080: 7c4e 02bf be35 fabe 4d50 f4be 60d6 a83e
00000090: 657d b23e db86 d13e fa7c b8be 9c71 0a3f

bias f4 [20]
-0.6153128 0.6374279 0.5074435 0.17518565 0.6809991 0.6371109 -0.16470534 0.6701124
-0.60576904 0.48064324 -0.41846484 0.6269876 -0.5465942 -0.3803603 0.07435336 0.16945603
0.16930759 0.35090917 0.51746476 0.67977
00000000: 2485 1dbf 7a2e 233f d1e7 013f de63 333e
00000010: f555 2e3f b319 233f 84a8 28be 7c8c 2b3f
00000020: ae13 1bbf df16 f63e 0641 d6be 4282 203f
00000030: 99ed 0bbf 96be c2be 9346 983d e285 2d3e
00000040: f85e 2d3e 5eaa b33e 9278 043f 6805 2e3f

weight f4 [20, 20]
0.14892244 -0.19207628 -0.15314423 0.022943972 0.06873713 -0.17018972 -0.14083397 0.15152359
0.005395869 -0.17575827 0.035581823 -0.11069891 0.041001845 0.1023229 -0.108493604 -0.004076663
-0.051908415 -0.21438506 -0.12150112 0.18893437 0.013175504 0.112200625 0.075734355 -0.044490475
0.007181475 -0.22192067 0.1151125 -0.09678687 0.11410293 -0.124191776 0.0075476216 -0.16339408
-0.18941455 0.027472507 0.029347917 0.046537682 -0.056160662 0.19866511 0.16102014 -0.12644592
-0.118165895 -0.09584013 0.10268816 -0.10484733 0.21282575 -0.055924036 -0.15708135 0.06927635
-0.05994896 0.023618795 -0.1718997 -0.089807555 0.19368927 0.20017059 -0.1650005 -0.13372506
0.09080092 0.0532977 -0.12175774 0.0020866056 -0.09623512 0.17769204 -0.18687084 -0.21901724
-0.14268017 -0.03806707 0.07289208 -0.02738033 0.020857286 0.17574854 -0.07622101 0.18713528
0.043992862 -0.05602245 -0.11818226 0.04231204 0.03165129 0.013453553 -0.029882131 0.1953749
-0.2047193 0.14534591 0.06310735 0.12784655 -0.17377944 -0.11287867 0.10390506 0.13400766
0.018426897 0.01589527 -0.028786834 0.056942083 -0.17678592 -0.21708909 0.17922921 -0.07495701
-0.16104141 0.052473977 -0.07919612 -0.1186904 0.0012516062 0.08033771 -0.15046336 0.1355987
0.19437087 0.19253346 -0.09246361 0.0572389 -0.18277252 0.04188256 -0.1307114 -0.1757261
-0.0068080775 0.2234122 0.038415384 -0.19874036 -0.13543265 -0.13598007 0.070289016 -0.107972264
-0.14048715 0.00513448 0.084304556 -0.1745877 0.15885405 0.09277312 -0.044510253 0.12997413
-0.1905292 -0.061479896 0.098084725 0.15330784 0.09712183 -0.17739002 -0.17464472 0.13973306
-0.14438647 0.18981533 0.19971049 -0.13935849 -0.10731602 0.14119625 -0.13913663 0.15268873
-0.14809325 0.06639166 0.14399669 0.20454101 0.03257047 0.22100149 -0.21158904 -0.10858951
-0.031220742 0.11696619 -0.016875839 0.21800008 -0.04525425 -0.030142853 -0.15714614 0.21591891
0.0054408377 -0.1487812 -0.090913616 0.1168267 0.20863228 -0.08708382 -0.20006314 -0.111977406
-0.22216207 -0.07514048 -0.16814913 -0.06552457 -0.05902874 0.114247404 0.043074667 -0.1752613
-0.15806001 0.017447263 -0.05898476 -0.02017028 -0.16461316 0.18437347 0.08904348 0.00081522064
0.1736315 0.0889048 0.029830845 -0.14668347 -0.1185182 -0.15413734 -0.21857585 0.095819466
0.16878061 -0.12940921 -0.20146532 0.19323203 -0.08068915 -0.21851054 0.17093028 0.13041137
-0.070283204 -0.19789788 -0.124689475 -0.13745962 0.10657216 -0.15909278 0.13165154 -0.15364912
0.13112663 0.12321097 0.054931685 0.054854356 -0.1287931 -0.1081668 0.1306081 -0.09855197
0.19381022 0.16264339 -0.09403746 0.012871573 0.083138384 0.02338742 -0.16037677 -0.09586617
-0.043224394 -0.00052421703 0.09290218 0.07947854 -0.10130442 0.20128846 0.15778038 -0.006497455
-0.15184991 -0.2228705 -0.20082553 0.118844956 0.13930832 0.02902434 -0.07788416 0.086540915
0.033135362 -0.15880711 -0.04064532 -0.10616522 0.12565857 0.20501018 0.08264407 0.17274916
-0.18767042 -0.07343951 0.18651265 0.060862754 -0.07678628 -0.08096381 -0.20017853 0.17057477
00000000: 207f 183e a5af 44be d7d1 1cbe fff4 bb3c
00000010: 0dc6 8c3d 3746 2ebe c836 10be 0029 1b3e
00000020: d4cf b03b faf9 33be 3fbe 113d 1cb6 e2bd
00000030: 8df1 273d ab8e d13d e531 debd 8795 85bb
00000040: eb9d 54bd c287 5bbe 94d5 f8bd 0378 413e
00000050: 12de 573c 71c9 e53d 9d1a 9b3d a53b 36bd
00000060: 9452 eb3b 2c3f 63be 1ac0 eb3d 3238 c6bd
00000070: ccae e93d 4258 febd 0a52 f73b c750 27be
00000080: e3f5 41be 060e e13c 0b6b f03c 4c9e 3e3d
00000090: b908 66bd de6e 4b3e 77e2 243e 0a7b 01be
000000a0: f600 f2bd d447 c4bd 2c4e d23d 32ba d6bd
000000b0: feee 593e 9a10 65bd efd9 20be c2e0 8d3d
000000c0: 0a8d 75bd 347c c13c 7a06 30be 06ed b7bd
000000d0: 7b56 463e 85f9 4c3e e4f5 28be 39ef 08be
000000e0: d5f5 b93d b04e 5a3d 1f5c f9bd 6fbf 083b
000000f0: eb16 c5bd e7f4 353e 125b 3fbe 0e46 60be
00000100: c01a 12be 37ec 1bbd 7148 953d b74c e0bc
00000110: e6dc aa3c 6df7 333e c319 9cbd 64a0 3f3e
00000120: dc31 343d cc77 65bd 8a09 f2bd 644f 2d3d
00000130: c8a4 013d 4b6c 5c3c 5fcb f4bc 5c10 483e
00000140: f0a1 51be 8fd5 143e 6d3e 813d 35ea 023e
00000150: 3df3 31be ef2c e7bd 2dcc d43d 4e39 093e
00000160: 01f4 963c cc36 823c 5ed2 ebbc 1a3c 693d
00000170: 5e07 35be 9a4c 5ebe dd87 373e 1083 99bd
00000180: 0ae8 24be f4ee 563d 9331 a2bd f413 f3bd
00000190: ef0c a43a 1988 a43d 1113 1abe 63da 0a3e
000001a0: 2809 473e 7e27 453e 905d bdbd 5673 6a3d
000001b0: b828 3bbe 0c8d 2b3d 36d9 05be 8bf1 33be
000001c0: 4b16 dfbb 2bc6 643e 7359 1d3d 9882 4bbe
000001d0: dbae 0abe 5c3e 0bbe b0f3 8f3d 9020 ddbd
000001e0: dddb 0fbe 243f a83b dea7 ac3d 1ec7 32be
000001f0: a3aa 223e d5ff bd3d 6250 36bd f017 053e
00000200: 161a 43be 58d2 7bbd a5e0 c83d bbfc 1c3e
00000210: cfe7 c63d bba5 35be 11d6 32be 2f16 0f3e
00000220: 0cda 13be f35e 423e e880 4c3e feb3 0ebe
00000230: 80c8 dbbd c095 103e d579 0ebe 6f5a 1c3e
00000240: c2a5 17be 5af8 873d de73 133e 3373 513e
00000250: 9d68 053d 374e 623e ccaa 58be 2d64 debd
00000260: a4c2 ffbc f88b ef3d 333f 8abc 6a3b 5f3e
00000270: 855c 39bd 25ee f6bc ebea 20be d919 5d3e
00000280: 0e49 b23b 195a 18be eb30 babd d642 ef3d
00000290: b3a3 553e 0059 b2bd 5add 4cbe 6954 e5bd
000002a0: 747e 63be 41e3 99bd 492f 2cbe bf31 86bd
000002b0: 1fc8 71bd 8bfa e93d 106f 303d b377 33be
000002c0: 7cda 21be 90ed 8e3c 019a 71bd 253c a5bc
000002d0: 5a90 28be 66cc 3c3e 6e5c b63d 88b4 553a
000002e0: 75cc 313e b813 b63d d15f f43c 3134 16be
000002f0: acb9 f2bd 2ed6 1dbe 59d2 5fbe ff3c c43d
00000300: d3d4 2c3e d983 04be ed4c 4ebe 9ede 453e
00000310: 5a40 a5bd 3ac1 5fbe 5908 2f3e 8f8a 053e
00000320: a4f0 8fbd bea5 4abe 325d ffbd 37c2 0cbe
00000330: 8142 da3d 38e9 22be a9cf 063e 3256 1dbe
00000340: 0f46 063e 0856 fc3d 0c00 613d f6ae 603d
00000350: 57e2 03be 8e86 ddbd 21be 053e 9ed5 c9bd
00000360: 3076 463e fd8b 263e b696 c0bd 4ae3 523c
00000370: 7544 aa3d fa96 bf3c cf39 24be 7c55 c4bd
00000380: 100c 31bd 9c6b 09ba 8043 be3d a5c5 a23d
00000390: b178 cfbd 901e 4e3e 2e91 213e 9ae8 d4bb
000003a0: 8b7e 1bbe 2a38 64be 35a5 4dbe fc64 f33d
000003b0: d7a6 0e3e 74c4 ed3c bb81 9fbd 5d3c b13d
000003c0: f2b8 073d 559e 22be b57b 26bd 276d d9bd
000003d0: a4ac 003e 30ee 513e 4b41 a93d 28e5 303e
000003e0: ad2c 40be 7467 96bd 2cfd 3e3e 394b 793d
000003f0: 2042 9dbd 5bd0 a5bd 9afb 4cbe 27ab 2e3e

bias f4 [20]
0.17287862 0.07729685 0.04659454 -0.21801218 0.118512765 0.13665384 0.17014717 -0.06295304
0.069568366 0.1454995 0.10730672 0.18203896 -0.18320788 0.105979405 0.009183047 0.07738247
0.035971295 -0.15963374 0.20770086 -0.18117909
00000000: 1807 313e d04d 9e3d ebd9 3e3d 963e 5fbe
00000010: d2b6 f23d fcee 0b3e 0f3b 2e3e 86ed 80bd
00000020: dc79 8e3d d2fd 143e a0c3 db3d 6c68 3a3e
00000030: d99a 3bbe bb0b d93d 7e74 163c b37a 9e3d
00000040: a356 133d 0777 23be 89af 543e 0387 39be

weight f4 [20, 20]
0.05200571 -0.16525552 -0.1380295 0.023906013 -0.05577071 0.011593977 0.14669491 -0.04906022
0.102993906 -0.19670376 -0.1209443 -0.14544635 -0.06221243 -0.17686532 -0.089972824 -0.06973206
0.058119 0.17924243 0.09728792 0.017755913 -0.15253049 0.02087909 0.112305276 0.17230912
-0.15479895 -0.19174415 0.0034837269 0.18700394 -0.20621346 0.06844703 0.1504626 -0.14411485
0.21724054 0.15264916 -0.04269666 0.19030686 0.013142425 0.07241725 0.16191469 0.1410432
0.20450239 -0.040502656 0.073006615 -0.07917434 0.07297436 -0.21084787 0.15474716 0.012223672
0.019499188 -0.21177444 0.030790195 -0.14270176 0.19192766 0.19804272 0.038518116 0.062381454
-0.22158203 0.196008 0.10176861 0.16958949 -0.22143678 -0.16347769 -0.19275841 0.04794624
0.0017635081 0.16673133 0.13620716 -0.1695016 -0.11671146 -0.13395806 0.15549661 -0.2214256
0.03967208 -0.13050768 0.042867657 -0.1373909 0.12065204 -0.17314956 -0.07853835 0.05754816
0.04484319 -0.18993628 0.061952025 0.09514086 -0.13624877 0.2036942 0.017206399 0.032394513
-0.16515955 0.08976261 -0.034015384 -0.14253828 0.14852509 -0.17033292 -0.022104334 -0.051877815
-0.10447867 -0.17766239 0.21024589 0.19032165 -0.019269574 -0.08977287 0.0847456 -0.07447992
0.18005085 -0.12166977 -0.12831043 -0.13704965 -0.15228777 0.08939303 0.06406883 -0.21809325
-0.07174768 0.19057363 -0.13556372 -0.15152584 -0.16112864 -0.0007298415 0.033934988 -0.11996789
-0.16016896 0.033816583 -0.0047594835 -0.10312146 0.13378964 -0.20215286 0.06022093 0.11315091
-0.016257126 0.21136396 -0.042960715 0.21767162 -0.17303315 -0.028023914 -0.1966285 0.14818242
0.2085729 0.112326175 0.1651784 -0.027403442 -0.07831913 0.14879552 0.11765511 0.21764036
-0.05295488 0.14575851 -0.030230178 -0.15991391 0.19880332 0.10225706 0.054249294 0.12637699
-0.017040147 -0.19495702 0.03871966 0.085948005 -0.121465266 -0.023269627 0.19713703 -0.20691513
0.041603282 -0.17011145 0.12687553 -0.20707679 0.008407971 -0.039182972 -0.20358904 -0.19278629
0.099685766 0.16168529 0.13241518 -0.11727217 0.21682335 -0.06556375 0.096650444 -0.13352495
-0.21591902 -0.21378827 -0.09777042 0.093533106 -0.09331626 0.072117776 -0.1833937 0.061612323
-0.13827091 -0.052001737 0.0016338266 0.0029662538 0.12841776 -0.080520384 0.07545916 0.05589906
-0.20180319 -0.104445726 0.0021245903 -0.13271192 0.001604665 0.0021532988 0.15757914 0.099106155
0.047174416 0.06842821 -0.117547475 -0.02527448 0.19714476 0.18595818 -0.10414524 0.018609572
0.13117163 -0.13196069 -0.1251479 -0.06326334 -0.18151608 -0.19023812 0.10070128 0.2141627
-0.20388505 -0.032642387 0.05209461 -0.13255113 0.035762206 -0.21577297 -0.1183765 0.031316224
0.09397442 -0.17837632 -0.15307786 0.19777483 -0.039234016 0.18311742 0.14296715 0.19471928
-0.20955034 0.037208933 -0.015522912 -0.0040328675 0.13695323 1.6180196e-05 -0.13198596 -0.21323232
-0.06406611 -0.15391155 -0.13005657 -0.128271 -0.051442657 -0.04572289 0.09899004 -0.21262962
0.00949279 0.10874702 -0.06327603 0.0141584985 -0.07837117 0.015611757 0.18474168 0.034225512
00000000: f003 553d be38 29be 9b57 0dbe 8bd6 c33c
00000010: d46f 64bd aaf4 3d3c 3137 163e 5ff3 48bd
00000020: 78ee d23d b66c 49be a5b1 f7bd e3ef 14be
00000030: 76d2 7ebd 2f1c 35be ac43 b8bd afcf 8ebd
00000040: 300e 6e3d 548b 373e e43e c73d d974 913c
00000050: f430 1cbe a00a ab3c 4f00 e63d cd71 303e
00000060: 9e83 1ebe 9458 44be 3d4f 643b f67d 3f3e
00000070: 9f29 53be f52d 8c3d de12 1a3e d892 13be
00000080: 4e74 5e3e 1050 1c3e b1e2 2ebd cddf 423e
00000090: 5353 573c 7f4f 943d f7cc 253e a16d 103e
000000a0: 1369 513e 1de6 25bd 7e84 953d 2826 a2bd
000000b0: 9573 953d 81e8 57be 0a76 1e3e cc45 483c
000000c0: c3bc 9f3c 66db 58be b83b fc3c 6920 12be
000000d0: af88 443e b6cb 4a3e 2cc5 1d3d b283 7f3d
000000e0: 66e6 62be 52b6 483e 106c d03d dea8 2d3e
000000f0: 53c0 62be b266 27be 7662 45be 4763 443d
00000100: 8325 e73a 9ebb 2a3e e479 0b3e d491 2dbe
00000110: 6b06 efbd 4d2c 09be 813a 1f3e 64bd 62be
00000120: 317f 223d cea3 05be ff95 2f3d 33b0 0cbe
00000130: 6b18 f73d 1e4e 31be b7d8 a0bd 9fb7 6b3d
00000140: 7ead 373d a87e 42be 68c1 7d3d 36d9 c23d
00000150: cc84 0bbe 3695 503e 6ff4 8c3c 1cb0 043d
00000160: 961f 29be 76d5 b73d b753 0bbd 8ef5 11be
00000170: f616 183e c16b 2ebe 2614 b5bc d57d 54bd
00000180: eaf8 d5bd 21ed 35be b34a 573e aee3 423e
00000190: 3adb 9dbc d7da b7bd 1a8f ad3d ee88 98bd
000001a0: 405f 383e 002e f9bd cf63 03be be56 0cbe
000001b0: 53f1 1bbe b113 b73d 8536 833d d653 5fbe
000001c0: 73f0 92bd bc25 433e 37d1 0abe 9729 1bbe
000001d0: e8fe 24be d552 3fba 6aff 0a3d bab1 f5bd
000001e0: 5503 24be 4283 0a3d 71f5 9bbb 5831 d3bd
000001f0: 2700 093e 2901 4fbe 39aa 763d aabb e73d
00000200: aa2d 85bc cb6f 583e 93f7 2fbd 4fe5 5e3e
00000210: 9a2f 31be 6892 e5bc fb58 49be 22bd 173e
00000220: 2294 553e 440b e63d 8724 293e 2f7d e0bc
00000230: c865 a0bd da5d 183e 2af5 f03d 1ddd 5e3e
00000240: 37e7 58bd b841 153e 47a5 f7bc 79c0 23be
00000250: 1993 4b3e 266c d13d 8234 5e3d f868 013e
00000260: c797 8bbc d0a2 47be 8298 1e3d 8205 b03d
00000270: c8c2 f8bd f29f bebc 4ade 493e 8fe1 53be
00000280: 3468 2a3d b231 2ebe a9eb 013e f00b 54be
00000290: 96c1 093c 537e 20bd a579 50be c569 45be
000002a0: 0d28 cc3d d490 253e d897 073e 642c f0bd
000002b0: f106 5e3e 4a46 86bd abf0 c53d c4ba 08be
000002c0: e019 5dbe 50eb 5abe dc3b c8bd 498e bf3d
000002d0: 981c bfbd 7cb2 933d 8fcb 3bbe 345d 7c3d
000002e0: e496 0dbe c6ff 54bd 2026 d63a 7b65 423b
000002f0: f27f 033e dfe7 a4bd 558a 9a3d 6af6 643d
00000300: 7fa5 4ebe a4e7 d5bd b63c 0b3b a2e5 07be
00000310: 9f53 d23a 5c1e 0d3b 6d5c 213e 2bf8 ca3d
00000320: f639 413d 1724 8c3d bbbc f0bd 6d0c cfbc
00000330: 51e0 493e d26b 3e3e 194a d5bd 1a73 983c
00000340: db51 063e b420 07be c526 00be 3690 81bd
00000350: 5adf 39be c8cd 42be 793c ce3d 784d 5b3e
00000360: 3ec7 50be 06b4 05bd 2861 553d 7cbb 07be
00000370: 647b 123d 97f3 5cbe 616f f2bd 7145 003d
00000380: a975 c03d 48a8 36be 71c0 1cbe 7c85 4a3e
00000390: d9b3 20bd 2283 3b3e fb65 123e 7e64 473e
000003a0: 5d94 56be 6568 183d d053 7ebc 2526 84bb
000003b0: 783d 0c3e b5ba 8737 5427 07be 9359 5abe
000003c0: 1835 83bd fd9a 1dbe 8d2d 05be 7959 03be
000003d0: 89b5 52bd ed47 3bbd 4abb ca3d 94bb 59be
000003e0: a687 1b3c c2b6 de3d dd96 81bd 0cf9 673c
000003f0: 1081 a0bd 74c8 7f3c ec2c 3d3e 0d30 0c3d

bias f4 [20]
0.08869675 0.17411725 0.20590962 0.12521803 0.045682054 -0.07500366 -0.06237668 0.048069097
0.1690267 0.14934185 0.04498252 -0.07350061 0.15608852 0.195006 0.08702213 0.005231801
-0.123522654 -0.07725494 -0.0058398247 -0.05859033
00000000: a4a6 b53d cb4b 323e f9d9 523e 2839 003e
00000010: 1b1d 3b3d 859b 99bd b17e 7fbd 1ae4 443d
00000020: 5615 2d3e 12ed 183e 973f 383d 7d87 96bd
00000030: abd5 1f3e a7af 473e a938 b23d 876f ab3b
00000040: 72f9 fcbd d737 9ebd 005c bfbb 6afc 6fbd

weight f4 [1, 20]
-0.17286709 0.21672021 0.2224916 -0.21159607 0.1536028 -0.19178171 0.18635847 0.028789794
-0.14524694 0.2147307 -0.08076296 0.19340585 -0.15562147 0.08343301 0.20562503 0.12688923
0.11679553 -0.14979616 -0.2038608 -0.102643624
00000000: 1204 31be e7eb 5d3e d7d4 633e a4ac 58be
00000010: 0d4a 1d3e 6d62 44be c1d4 3e3e 93d8 eb3c
00000020: 9dbb 14be 5de2 5b3e 0d67 a5bd 2f0c 463e
00000030: 3c5b 1fbe edde aa3d 5e8f 523e 40ef 013e
00000040: 7f32 ef3d 2a64 19be e3c0 50be d236 d2bd
