src/torchfort/2025-07-12-a/examples/fortran/burgers03/loss_model.pt (torch, 15204 bytes, 7 tensors)

weight f4 [20, 2]
0	0x3e16fe7a	0.14745513
1	0xbf13e4a2	-0.5777074
2	0x3f179d8e	0.59224784
3	0x3eaba0f9	0.3352125
4	0xbec0884e	-0.37603992
5	0x3f2bb44c	0.67071986
6	0xbe703196	-0.23456416
7	0xbef5645c	-0.4792813
8	0xbcfe4079	-0.031036602
9	0x3e476188	0.19470799
10	0x3f2df6e3	0.67954844
11	0x3e56d401	0.2097931
12	0x3ed506ae	0.4160666
13	0x3f24bcf8	0.64350843
14	0xbe3cefa1	-0.18450786
15	0x3efc8c00	0.49325562
16	0x3f0c278f	0.5474786
17	0x3f142bf7	0.57879585
18	0x3f25b450	0.6472826
19	0x3eced6a4	0.40398133
20	0xbf12a696	-0.5728544
21	0xbf2ba50d	-0.6704872
22	0xbe9d4627	-0.30717584
23	0x3eb3b814	0.35101378
24	0x3ee4c306	0.4468004
25	0x3e98b3bf	0.29824635
26	0xbee77ee2	-0.4521399
27	0xbb9bc494	-0.0047536585
28	0x3ec3d3b7	0.38247463
29	0x3e23a3a8	0.15980399
30	0x3d83c55e	0.06434129
31	0x3ed0c453	0.40774783
32	0xbe8b58cf	-0.27216193
33	0xbdde8a2e	-0.108661994
34	0xbe32f6c0	-0.1747694
35	0x3e815bc7	0.25265333
36	0xbdcfc580	-0.10145092
37	0xbef8fb63	-0.48629293
38	0xbf10c158	-0.5654502
39	0xbe882b8c	-0.26595724

bias f4 [20]
0	0x3dd8663c	0.10566375
1	0xbee245ca	-0.4419387
2	0x3e0abb1f	0.13547944
3	0x3e61a52a	0.22035661
4	0x3ec1f153	0.37879428
5	0xbef1faf3	-0.47261772
6	0x3e907248	0.2821219
7	0x3eecc13a	0.4624117
8	0x3e395b43	0.1810122
9	0x3f0a2d33	0.5397522
10	0x3f0472e6	0.5173782
11	0xbd8e976a	-0.06962474
12	0x3f1da83b	0.61584824
13	0xbf172d28	-0.5905328
14	0xbec64283	-0.3872262
15	0xbf2256cc	-0.6341369
16	0xbf1ecf91	-0.6203547
17	0xbc0373eb	-0.0080232425
18	0xbe7367e8	-0.23770106
19	0xbd9f3488	-0.077736914

weight f4 [20, 20]
0	0xbc07f00a	-0.008296976
1	0xbe145bcf	-0.14488147
2	0xbdb145c8	-0.08655888
3	0xbd317679	-0.043325875
4	0xbe5cf3b2	-0.21577337
5	0x3e4dde7d	0.20104404
6	0xbe01bbbb	-0.1266927
7	0x3e18c255	0.14917882
8	0xbe225f98	-0.15856779
9	0x3d91b0dc	0.071138114
10	0xbe4ebea3	-0.2018991
11	0xbe2224a2	-0.15834287
12	0x3e524f79	0.20538129
13	0xbe0215c1	-0.12703611
14	0xbdc27ff3	-0.094970606
15	0x3e43ee58	0.1913389
16	0xbe3b3a79	-0.18284024
17	0x3df92ee9	0.121671505
18	0x3e35f417	0.17768894
19	0xbe58d217	-0.21173893
20	0x3e0faba4	0.1403032
21	0xbe14b59f	-0.14522408
22	0xbdc2f71e	-0.0951979
23	0xbe21c49b	-0.15797655
24	0xbe3bf06f	-0.18353437
25	0x3e00121f	0.12506913
26	0x3e1ec9d8	0.15506685
27	0x3d97f38c	0.074195
28	0x3e09b825	0.13449152
29	0x3e0e1e42	0.1387873
30	0xbe5753ac	-0.21028012
31	0xbda9cf10	-0.08291447
32	0xbe63a96c	-0.22232598
33	0xbe05c6bc	-0.13064092
34	0xbd4a36fc	-0.049368843
35	0xbe4ecbde	-0.20194957
36	0x3d071381	0.032977585
37	0xbe26f156	-0.16303
38	0xbc5ab606	-0.013349062
39	0x3e5458bf	0.20736979
40	0xbe269d0d	-0.16270848
41	0xbd1e73fa	-0.038684823
42	0xbe43be3c	-0.19115537
43	0xbddc72dc	-0.10764095
44	0x3c631817	0.013860724
45	0x3d408f52	0.04701168
46	0x3dd8616d	0.105654575
47	0x3d3fd5c8	0.046834737
48	0x3d80570d	0.062666036
49	0xbd0eefa2	-0.0348965
50	0xbe202450	-0.15638852
51	0x3e26a03f	0.16272067
52	0xbe073aea	-0.13206068
53	0x3e0829b9	0.13297166
54	0x3dd2ff28	0.103025734
55	0x3e1db6fb	0.15401833
56	0x3e31a56c	0.1734826
57	0xbe1a4ce7	-0.15068398
58	0x3e28d596	0.16487727
59	0x3e4f5cb3	0.20250206
60	0x3d7bd804	0.061485305
61	0xbd3c7816	-0.04601296
62	0xbe0663ab	-0.13123958
63	0xbdcc2f63	-0.09969976
64	0xbc8e444b	-0.017366549
65	0xbdac927c	-0.08426377
66	0x3e3caba0	0.18424845
67	0x3e3b8511	0.1831248
68	0xbdc192ed	-0.09451852
69	0xbe1f3483	-0.15547375
70	0xbe139096	-0.14410624
71	0x3e114a36	0.14188465
72	0xbd6bc8b3	-0.05756445
73	0xbe4fa1dd	-0.2027659
74	0xbe493639	-0.1964959
75	0xbe5929d4	-0.21207362
76	0xbdcfbd89	-0.10143573
77	0xbd6c9053	-0.057754826
78	0x3e16532f	0.1468017
79	0xbcf115ef	-0.029429404
80	0x3e4ab942	0.19797233
81	0x3e1313d0	0.14363027
82	0xbe27aa41	-0.1637354
83	0xbd1c468e	-0.038153224
84	0x3e518132	0.2045944
85	0x3e17bd46	0.14818296
86	0x3d3eb6c1	0.046561006
87	0xbe2bb06d	-0.1676652
88	0xbe61c741	-0.22048666
89	0xbc995e1c	-0.018721633
90	0x3e2324d1	0.15932013
91	0x3e1d34cd	0.15352173
92	0xbdd0e4f3	-0.101999186
93	0xbe5c8bf6	-0.21537766
94	0xbde7e9de	-0.113239035
95	0x3d9a7a4d	0.07542858
96	0x3e46f5f0	0.19429755
97	0xbd7dfbe1	-0.06200779
98	0xbcf446f0	-0.029818982
99	0xbe240362	-0.16016915
100	0xbd8eafb5	-0.06967107
101	0x3d97c58a	0.074107245
102	0x3d0d127b	0.034441452
103	0xbd9c9d91	-0.07647241
104	0x3e0f72f5	0.14008696
105	0x3d95bfcb	0.07311972
106	0xbd094363	-0.03351153
107	0x3d9deea3	0.07711532
108	0x3d84c55d	0.064829566
109	0xbe1d5c28	-0.15367186
110	0x3d85a4bc	0.06525561
111	0xbe00d34e	-0.12580606
112	0xbd9a200c	-0.07525644
113	0xbdd60044	-0.104492694
114	0xbe59ad41	-0.21257497
115	0xbc0160dd	-0.007896629
116	0xbdd011af	-0.10159623
117	0xbe2ad936	-0.16684422
118	0xbe2ccd9a	-0.16875306
119	0x3cde5c6c	0.02714368
120	0xbe31802f	-0.17334054
121	0xbdf0e2f0	-0.11762035
122	0x3d27b566	0.04094448
123	0xbe4fec1e	-0.20304915
124	0x3e323bb3	0.17405586
125	0xbd9fa5dc	-0.07795307
126	0x3dfa20e5	0.122133054
127	0xbd3ef0ab	-0.046616238
128	0xbe23b87d	-0.15988345
129	0xbdb4c997	-0.08827513
130	0x3dc35001	0.09536744
131	0x3e346c35	0.17619403
132	0xbd9d7d5a	-0.076899245
133	0x3e0bcc81	0.13652231
134	0x3e32fa4e	0.17478296
135	0x3e0fa70a	0.14028564
136	0x3df4c286	0.11951165
137	0xbe48a247	-0.19593154
138	0x3ca3e32d	0.020005787
139	0xbb00593b	-0.0019584436
140	0xbe5ef45c	-0.21772903
141	0x3e543dc3	0.20726685
142	0xbdb33197	-0.08749693
143	0xbe5ff231	-0.21869732
144	0xbe18de69	-0.14928593
145	0xbe235a09	-0.15952314
146	0xbd39be20	-0.045347333
147	0xbe118f73	-0.14214878
148	0xbdb44122	-0.088014856
149	0x3dafe79d	0.085890986
150	0x3dad62c6	0.08466105
151	0x3cc15060	0.023597896
152	0xbd34d6a8	-0.044150025
153	0xbe1564fe	-0.14589307
154	0xbdd7e878	-0.10542387
155	0xbd28882d	-0.041145492
156	0xbe37d471	-0.17952134
157	0xbc763580	-0.015027404
158	0x3dffbbb2	0.12486972
159	0x3d5beae1	0.053690795
160	0x3daeac3b	0.08528944
161	0xbc4dcc8e	-0.012560977
162	0xbd9294fe	-0.07157324
163	0xbe50a608	-0.20375836
164	0xbd96d5f9	-0.07365031
165	0xbcfa5598	-0.030558392
166	0x3e32f351	0.1747563
167	0x3d143707	0.03618529
168	0x3e4baed5	0.19890912
169	0xbdf19e96	-0.11797826
170	0xbe0f3ef3	-0.13988857
171	0x3e021491	0.12703158
172	0xbd8ad6ce	-0.06779252
173	0x3d102ae3	0.03519715
174	0x3d8adabb	0.06780001
175	0xbe49ad62	-0.19695047
176	0x3e1a9847	0.15097152
177	0xbdfce9da	-0.12349291
178	0x3e2ea8f2	0.17056635
179	0x3e61dcc3	0.2205687
180	0x3dc1daf1	0.09465588
181	0x3db9b0a7	0.09066897
182	0xbe277979	-0.16354932
183	0x3dc0bdb1	0.09411181
184	0xbde68a4a	-0.11256845
185	0x3da85b5f	0.08220553
186	0xbe4191bd	-0.18903251
187	0xbdb44e74	-0.08804026
188	0x3cf2919f	0.029610453
189	0x3e646cdc	0.22307152
190	0xbe366dca	-0.17815319
191	0xbe625f05	-0.2210656
192	0x3c85261e	0.016253527
193	0x3bfdbbc3	0.00774333
194	0xbdf2a898	-0.11848563
195	0x3d06c615	0.03290375
196	0x3e17c736	0.14822087
197	0xbcbf185c	-0.023327045
198	0x3dfa6477	0.122261934
199	0xbde8958e	-0.1135665
200	0xbdd5831a	-0.10425396
201	0xbbc42728	-0.005986113
202	0xbe4b84b8	-0.19874847
203	0xbe1e0d0e	-0.15434667
204	0xbe5060e9	-0.20349468
205	0xbc849ec7	-0.016188992
206	0xbe284036	-0.16430745
207	0x3dad9c2f	0.08477055
208	0xbe22aa42	-0.1588526
209	0x3e2535cb	0.16133802
210	0x3d94b1c2	0.07260467
211	0x3e1f2340	0.1554079
212	0x3e50286f	0.20327924
213	0x3d27f6dc	0.041006908
214	0x3e3888b7	0.18020903
215	0xbe105235	-0.1409386
216	0x3d9f3594	0.07773891
217	0xbd593a89	-0.05303434
218	0xbe127376	-0.14301857
219	0xbd9cc6ae	-0.07655083
220	0xbd36a33b	-0.044589262
221	0xbe2c6d24	-0.16838509
222	0xbe32f722	-0.17477086
223	0xbde82491	-0.113350995
224	0x3cbbffbb	0.02294909
225	0x3cae42bb	0.021272054
226	0xbe1ac1f6	-0.15113053
227	0xbd94d200	-0.07266617
228	0x3c82687f	0.015918968
229	0xbe3d94eb	-0.18513839
230	0xbdccea73	-0.10005655
231	0x3e1ed8a5	0.15512331
232	0x3b487065	0.003058457
233	0x3e1f61e3	0.15564685
234	0x3e0979c3	0.13425355
235	0xbe1d3e6e	-0.15355846
236	0xbe205cfc	-0.1566047
237	0x3d5c1c53	0.05373795
238	0xbde1d42b	-0.11026796
239	0xbe37842e	-0.17921516
240	0x3e005247	0.12531386
241	0xbd86957d	-0.065714814
242	0xbe201833	-0.15634231
243	0xbda91c8a	-0.082573965
244	0x3dab5093	0.08364978
245	0xbe19d559	-0.15022792
246	0xbd9397d2	-0.07206692
247	0x3daff6ce	0.08591996
248	0xbde09a32	-0.109669104
249	0x3e2fc5f8	0.17165363
250	0x3e491a57	0.19638954
251	0x3df1d847	0.1180883
252	0x3d229827	0.039695885
253	0xbd236c54	-0.03989823
254	0x3d96cce7	0.07363301
255	0x3df3336a	0.11875041

bias f4 [20]
0	0xbe54b4f5	-0.20772155
1	0x3e456a66	0.19278869
2	0x3e0c8e22	0.13726094
3	0xbe1ab324	-0.15107399
4	0x3e5d7e98	0.21630323
5	0x3d9c88b3	0.07643261
6	0xbe49c75f	-0.1970496
7	0x3e5d1a38	0.21592033
8	0xbe3da934	-0.18521577
9	0x3e233d5b	0.15941374
10	0x3df42265	0.11920623
11	0xbddab146	-0.106783435
12	0xbe1749c4	-0.14774233
13	0x3dd48bef	0.10378253
14	0xbe241d79	-0.16026868
15	0x3d5dc65a	0.05414424
16	0xbac07585	-0.0014683461
17	0xbdbac299	-0.09119148
18	0x3c2f23bc	0.010689672
19	0xbdeecb3c	-0.11659858

weight f4 [20, 20]
0	0xbccbde1b	-0.024886182
1	0xbe5c50ad	-0.2151515
2	0xbca53f0d	-0.020171667
3	0xbe164b3b	-0.14677136
4	0x3d841d85	0.06450943
5	0xbafbe918	-0.0019219248
6	0xbca562ff	-0.020188807
7	0x3d07a5d4	0.03311713
8	0xbe275ca1	-0.16343929
9	0xbe105b98	-0.1409744
10	0xbdaab0e8	-0.083345234
11	0x3deb2e89	0.11483485
12	0xbe180f8a	-0.14849678
13	0xbda091ce	-0.0784031
14	0x3d06001b	0.032714944
15	0x3e00b55b	0.12569182
16	0x3dfe52b9	0.12418122
17	0x3db5e5b9	0.08881707
18	0xbdf6ca65	-0.120503224
19	0x3d6df166	0.058091544
20	0x3b05e607	0.0020431296
21	0xbdcb68a8	-0.09932071
22	0x3d999cb1	0.0750059
23	0xbe54b1ae	-0.20770904
24	0x3e5937f5	0.21212752
25	0x3b9d2ab0	0.0047963485
26	0x3dca1f57	0.09869259
27	0xbdbfe072	-0.093689814
28	0x3db09afd	0.08623312
29	0xbe5b6098	-0.21423566
30	0xbc800397	-0.015626712
31	0x3cb7bd41	0.02242911
32	0xbda357c2	-0.07975723
33	0x3e4da8df	0.2008395
34	0xbe607c1d	-0.21922345
35	0x3ba125aa	0.00491782
36	0xbcd9f9a2	-0.026608292
37	0xbe1361da	-0.14392796
38	0xbdfecdd5	-0.12441603
39	0x3e302b5c	0.1720404
40	0xbdf4700a	-0.11935432
41	0x3e0f44b8	0.13991058
42	0xbcac4a71	-0.02103159
43	0x3dd9eb56	0.1064059
44	0x3df23264	0.118260175
45	0x3d902748	0.07038742
46	0x3d72b8f2	0.05925841
47	0x3dd2d6ec	0.10294899
48	0x3e2b3cb3	0.16722374
49	0xbe49069d	-0.19631429
50	0x3e28af6d	0.1647317
51	0x3e55472b	0.2082793
52	0xbe3088b7	-0.17239653
53	0x3e1ac73e	0.15115067
54	0x3e5c9608	0.21541607
55	0xbd3695f4	-0.0445766
56	0x3e227529	0.15865006
57	0xbdc78d15	-0.09743706
58	0xbdf7b1ed	-0.120944835
59	0x3d725ff3	0.059173536
60	0x3d56e4c0	0.052464247
61	0x3e61dbca	0.22056499
62	0xbdc11a20	-0.09428811
63	0xbd8407d8	-0.064468086
64	0x3d8744fa	0.06604953
65	0x3e0e5b3c	0.1390199
66	0x3d38edd6	0.045148693
67	0x3d53fd91	0.05175549
68	0xbe532bdf	-0.20622204
69	0x3d5d220f	0.05398756
70	0xbdbe4f07	-0.09292417
71	0x3b4b2272	0.0030995873
72	0x3b655dce	0.003499854
73	0xbdf32843	-0.11872914
74	0x3e5303e7	0.20606957
75	0x3dbd1079	0.092316575
76	0x3d89a256	0.06720416
77	0xbe5dfab8	-0.21677673
78	0xbcf7213d	-0.030167216
79	0x3d32c389	0.043643508
80	0x3e3ee86c	0.1864335
81	0x3e0eb738	0.1393708
82	0xbbb673a8	-0.0055679865
83	0x3ddbaeb7	0.107266836
84	0x3c3d237b	0.011544104
85	0x3e22b696	0.15889964
86	0xbe5d53c6	-0.21613988
87	0x3db8b5bd	0.09019039
88	0xbe393219	-0.18085517
89	0x3dcc130b	0.0996457
90	0xbe400f01	-0.18755724
91	0xbd66e081	-0.056366447
92	0x3dcfd10c	0.101472944
93	0xbe5bd0c3	-0.21466355
94	0x3c2ed08d	0.01066984
95	0x3e29dcd4	0.16588145
96	0xbe3b005b	-0.18261854
97	0x3e42ad5d	0.19011445
98	0xbc8a1639	-0.0168563
99	0xbdb621b1	-0.08893145
100	0xb9ba2e3c	-0.00035511132
101	0xbe208a34	-0.1567772
102	0xbe2282ce	-0.1587021
103	0xbe2ab637	-0.16671072
104	0xbd344eca	-0.04402045
105	0xbc4a24a6	-0.012337839
106	0xbdf311d4	-0.11868635
107	0xbd9c9c32	-0.076469794
108	0x3e13cdbe	0.14433953
109	0x3c9f4e22	0.019446436
110	0x3e4b5461	0.19856407
111	0x3d146d24	0.036236897
112	0xbe5f145d	-0.21785112
113	0xbe3478e7	-0.17624246
114	0x3cd03a4b	0.025418421
115	0x3ddd55a0	0.10807347
116	0xbdc24130	-0.0948509
117	0x3e0b23b0	0.13587832
118	0x3d0f98e7	0.03505793
119	0xbd9c98f8	-0.07646364
120	0x3d1f8d71	0.03895325
121	0xbe06ba39	-0.13156976
122	0x3d0ba3fe	0.034091942
123	0x3ce82755	0.028339067
124	0x3e4ce56c	0.20009392
125	0xbdb65dbf	-0.089045994
126	0x3e346d2d	0.17619772
127	0x3dff437b	0.12464043
128	0x3e328945	0.17435177
129	0x3d83de04	0.064388305
130	0x3c6b09e8	0.014345624
131	0x3e0dcd49	0.13847841
132	0x3e4782a6	0.19483432
133	0x3e2ec508	0.17067349
134	0x3ca82982	0.020527605
135	0x3ce319ef	0.027722327
136	0xbd6d4c4b	-0.057934087
137	0xbe2fdff8	-0.17175281
138	0xbe4c4a71	-0.19950272
139	0xbe0ea9a1	-0.13931896
140	0x3d1eaf83	0.0387416
141	0xbd66c74b	-0.056342404
142	0xbdd39a5e	-0.103321776
143	0x3d01f704	0.031729713
144	0xbe0ef4e3	-0.13960604
145	0xbe32947e	-0.17439458
146	0xbd8a0b12	-0.06740393
147	0x3d8c17fd	0.06840513
148	0x3e63a734	0.22231752
149	0xbd01e630	-0.031713665
150	0x3e1df6d9	0.15426196
151	0x3d9b9dbf	0.07598447
152	0xbdb7244b	-0.08942469
153	0x3e3bd013	0.18341093
154	0x3cce4320	0.025178492
155	0x3b3a4ca5	0.0028427031
156	0xbe2d6ba9	-0.169356
157	0x3e5be196	0.21472773
158	0x3e4c17cc	0.19930953
159	0x3ce189e7	0.027531577
160	0x3dc0bc4b	0.09410914
161	0xbdf8b97d	-0.12144754
162	0xbe34e824	-0.1766668
163	0x3d99f350	0.07517111
164	0x3e321506	0.17390832
165	0xbe2fc43a	-0.17164698
166	0xbe1ffc3d	-0.15623565
167	0xbde4889c	-0.11158869
168	0xbd02309f	-0.03178465
169	0x3e11b9f1	0.14231087
170	0x3de3ad0a	0.11116989
171	0x3cd3f8bb	0.02587544
172	0xbe0f9fa5	-0.14025743
173	0xbe2c89d9	-0.1684946
174	0x3dea557f	0.11442088
175	0xbd30b71f	-0.043143388
176	0xbd8b7412	-0.06809248
177	0xbd3e137e	-0.046405308
178	0x3cbba907	0.022907747
179	0x3e01a2c0	0.1265974
180	0xbdc179f0	-0.09447086
181	0xbaa5cdf0	-0.0012649875
182	0xbe05a1be	-0.13049981
183	0xbe237138	-0.15961158
184	0xbdab2498	-0.08356589
185	0xbe3b7b18	-0.18308675
186	0xbe17fc21	-0.14842273
187	0x3c96c4d3	0.0184044
188	0xbe3fdb93	-0.18736105
189	0xbe6165ba	-0.22011462
190	0x3dab0f73	0.08352556
191	0xbcbe8252	-0.023255501
192	0x3dd483e9	0.10376722
193	0xbcdc61e5	-0.026902149
194	0x3d5c05cc	0.053716466
195	0xbe2229c1	-0.1583624
196	0x3c2d05ef	0.010560497
197	0x3e50146a	0.20320287
198	0xbe0b6e70	-0.13616347
199	0x3db28eeb	0.08718666
200	0xbe52cb98	-0.20585477
201	0x3d7f219e	0.06228792
202	0x3d66520a	0.056230582
203	0x3c28d8fb	0.010305638
204	0xbdbaf7c6	-0.0912929
205	0xbe56c6f6	-0.20974335
206	0xbe32362a	-0.17403474
207	0xbd293e80	-0.04131937
208	0xbce557a7	-0.027995897
209	0xbd5c3b21	-0.053767327
210	0x3cc3b42a	0.02388962
211	0x3dd42618	0.10358828
212	0x3e1ce852	0.15322998
213	0xbbcdb2f4	-0.0062774364
214	0x3e4da60c	0.20082873
215	0x3c47a860	0.01218614
216	0xbb605c89	-0.0034234843
217	0x3deecfe3	0.11660745
218	0xbe475574	-0.19466192
219	0x3c9721f5	0.01844881
220	0x3d6fd721	0.058554772
221	0xbd9b9e8e	-0.07598601
222	0xbd080c45	-0.033214826
223	0xbdd4eee4	-0.10397127
224	0xbc409884	-0.011755113
225	0x3d5aae56	0.053388916
226	0x3e4e99f0	0.2017591
227	0xbdb04b83	-0.08608153
228	0x3e14b5ee	0.14522526
229	0x3df9c3ce	0.1219555
230	0x3dd9aeda	0.106290534
231	0x3c3af172	0.011410104
232	0xbd9e4a63	-0.07729032
233	0xbe45e25b	-0.19324629
234	0xbdebc69e	-0.115124926
235	0x3e2e8d95	0.17046197
236	0xbd4b6aab	-0.049662273
237	0xbcc96c9f	-0.024587927
238	0x3e603e94	0.21898872
239	0x3cd73a39	0.02627288
240	0xbe08132c	-0.13288563
241	0xbdfbfbcf	-0.12303888
242	0xbe5eb885	-0.21750076
243	0x3e3e4d55	0.18584187
244	0x3d2e6f3a	0.042586543
245	0xbcc6712c	-0.024223886
246	0xbd8779d2	-0.06615032
247	0x3e3fcb0b	0.18729798
248	0x3dca40f0	0.09875667
249	0xbdbcabdd	-0.09212468
250	0x3d895242	0.067051426
251	0xbe5d9d37	-0.21642004
252	0x3c48b527	0.012250221
253	0x3d7fe61c	0.06247531
254	0x3e19c4a1	0.15016414
255	0x3d587f92	0.052856036

bias f4 [20]
0	0xbd89d14f	-0.067293756
1	0x3d3b27e4	0.04569234
2	0x3db69a6d	0.08916173
3	0x3e5f0605	0.2177964
4	0x3e607db5	0.21922953
5	0x3e5d4501	0.21608354
6	0xbdd3c75e	-0.10340761
7	0xbc371fb9	-0.011176997
8	0x3d7108b7	0.0588462
9	0x3e3bee28	0.18352568
10	0x3dbc9189	0.09207446
11	0x3e41934e	0.18903849
12	0x3e64900e	0.22320578
13	0x3d6c20f0	0.0576486
14	0x3dee1eaa	0.116269425
15	0x3e3115ce	0.17293474
16	0x3dcf8fa8	0.10134822
17	0x3e4359d2	0.19077232
18	0x3d2329b9	0.03983471
19	0x3e5aaba9	0.21354546

weight f4 [1, 20]
0	0x3e3649ff	0.17801665
1	0x3da5117e	0.08059977
2	0xbe346872	-0.17617968
3	0xbd92eead	-0.0717443
4	0xbdb7e740	-0.08979654
5	0xbd06d13c	-0.032914385
6	0xbe21a919	-0.15787162
7	0xbd560d96	-0.05225905
8	0x3d5d904c	0.05409269
9	0xbe17b581	-0.14815332
10	0x3dced992	0.10100092
11	0x3e1ad817	0.15121494
12	0xbc3acf3c	-0.011401948
13	0xbdb7b859	-0.089707084
14	0xbe024076	-0.12719902
15	0x3e2317a7	0.15926991
16	0x3d4d5387	0.050128486
17	0x3d8d7bc6	0.069083735
18	0xbe0eac0f	-0.13932823
19	0x3d1a7081	0.03770495
