src/torchfort/torchfort_local/examples/fortran/burgers03/burgers_model.pt (torch, 15307 bytes, 17 tensors)

weight f4 [10, 2]
00000000: 5645 10be b0cd 553d a990 eb3e 5cc0 843e
00000010: 3f29 b9be ce54 103e c276 62be baaf 223e
00000020: 942a bebe df7f 2a3f ef5b 55be 6431 2cbd
00000030: f9a1 dd3e 6fe0 b83e ef55 15bf 75e7 d2be
00000040: 9841 9cbe 6d21 8abe 4563 8dbe d4c8 0abf
-0.1408895 0.052198112 0.46008804 0.2592801 -0.3616428 0.1409485 -0.22115615 0.15887347
-0.3714186 0.66601366 -0.20835851 -0.04203929 0.43287638 0.3610873 -0.5833425 -0.41192213
-0.30518794 -0.26978627 -0.276148 -0.5421269

bias f4 [10]
00000000: 0992 363e e544 a9be 8268 083f a494 cdbe
00000010: 9a08 8abe 46fe b9bd 0982 0fbf d6e0 6c3e
00000020: 3f5d 28bf 3a24 a23c
0.17829145 -0.33060375 0.53284466 -0.40152466 -0.26959687 -0.09081702 -0.5605779 0.23132643
-0.6576728 0.019792665

weight f4 [10, 10]
00000000: 9b45 8a3d a41c 0b3e 54c0 75be 2647 1abd
00000010: f274 313e 04fb 733d eb5f e83d 0ebd 91be
00000020: 6622 61be 2e20 7f3e 0d49 cbbc 41b6 6c3d
00000030: 3ae2 47be 75f9 f73d 32c3 453e 9e8c 4f3e
00000040: c22a 4cbc e51c 97be 0366 9a3e 2fcb 853d
00000050: a508 17be c678 8c3e 5790 75bc 3092 60be
00000060: a3cf 403e 26b5 883e ed1e 833e e6a4 92be
00000070: 299b 893e 7dd1 85bd 6c28 183e 03a7 55be
00000080: 2107 03be 4dd2 893d 6634 583e 41b1 823e
00000090: 67bb 963e 2dcb 2e3c 935a 47be 4dad b93d
000000a0: 015a 9cbe a7d6 75be 41fe a2bb 6336 9dbe
000000b0: 495a a0be ead6 0a3e 2896 0fbe 8dc2 8dbe
000000c0: 8bd7 9d3e 0a40 52be d511 623d 05a6 663e
000000d0: fccf 4cbd 1ad6 453e 4443 afbc 5424 533e
000000e0: d874 173e 3344 943e bd7b 28be 943e 643e
000000f0: e097 ac3d ae50 30be 55a1 a13e 6daf 8abe
00000100: 5947 4e3c 25e1 ac3d fb1d 47be ab26 173e
00000110: 543f e23c ef24 8dbd 8c3e 4d3d f542 523e
00000120: 9ac8 6c3e 07f3 543e 33ba 243e 7b4f 31be
00000130: 80b0 1d3e c53b 68bd 99b7 893e 69e8 303e
00000140: 6a8a 12bd f96a 1cbe 2429 883e 40e3 653a
00000150: 2403 9c3e ec98 0d3e b939 b9bb cbf1 1cbe
00000160: cfcd 863e 97b2 de3d c4a1 573e 0946 0ebe
00000170: 6626 71be 9a26 3e3e eb2a 893d c0c0 983e
00000180: 0c2a 143e 2a6f 1ebe caff 99be 5511 63be
0.067515574 0.13585144 -0.23999149 -0.03766551 0.17329767 0.05956556 0.1134642 -0.2846455
-0.21985778 0.2491462 -0.024815107 0.057791 -0.19519892 0.12108127 0.19312742 0.20268485
-0.012461366 -0.29514232 0.30155954 0.06532895 -0.14749391 0.27435893 -0.014988027 -0.21930766
0.18829207 0.26700705 0.25609532 -0.28641433 0.2687619 -0.06534097 0.1485917 -0.20864491
-0.12795688 0.06729565 0.21113738 0.2552586 0.29439852 0.010668558 -0.19468145 0.090662576
-0.30537418 -0.24007665 -0.004974157 -0.30705556 -0.31318882 0.13558546 -0.14022124 -0.27687493
0.3082851 -0.20532241 0.055192787 0.22524269 -0.050003037 0.19319955 -0.02139438 0.20619327
0.14790666 0.28958282 -0.16453452 0.22289497 0.08427405 -0.17218277 0.315684 -0.27086964
0.012590253 0.084413804 -0.1944503 0.14760844 0.027618088 -0.0689181 0.050108477 0.20533355
0.23123398 0.20795833 0.16086654 -0.17315476 0.1539936 -0.056697626 0.26897886 0.17276157
-0.035776533 -0.15275182 0.26593888 0.00087695196 0.30471146 0.13827866 -0.005652633 -0.15326612
0.26328894 0.10873907 0.21057802 -0.13893904 -0.23549804 0.18569413 0.06697639 0.29834557
0.14469165 -0.15472093 -0.30077964 -0.2217458

bias f4 [10]
00000000: 6ab4 3f3e bf37 653e 7d78 5cbd 9044 78be
00000010: 4232 693e 7a2b 4a3e 362e 81be 65ac c3bd
00000020: f073 8e3d 3324 233d
0.18721166 0.22384547 -0.053825844 -0.24244905 0.22773078 0.19743147 -0.2523057 -0.09554366
0.06955707 0.039829444

weight f4 [10, 10]
00000000: 4a07 a73c 1dcb 893e 4764 20be 84bb dd3d
00000010: 8c9e 6b3c d22c cabd 4a27 66be 6f5d 903e
00000020: c191 7abe 59ce 993d 5e7f 173e a489 45be
00000030: 5b5c 9f3e e3b9 52bd 309f 3fbd d8e3 50be
00000040: f476 c03d 8f44 ca3c d66c bdbd 44d1 85be
00000050: be99 903e 9bc2 253b 4d19 3dbe 7b97 3c3e
00000060: 9249 853e 284c fc3d 20b7 e33d f004 4c3e
00000070: c2dc fabd e4cb 753e c0bb 1c3e 9187 8fbe
00000080: b37a c5ba 809f 873e ac5e 8dbe ac10 46be
00000090: f5c6 703e 11dd 1b3e d332 c63c 79c4 903c
000000a0: 9076 8a3d 7d9d 0d3e 8290 063e e473 dd3c
000000b0: ff03 fcbc 7b69 04be 3977 87be 04e3 abbc
000000c0: e1e3 373c a6e6 933e 9b9d 69be 1e00 eebd
000000d0: 26ea 7abe 7685 603e fec9 21be b6a4 9dbe
000000e0: 3757 10bb ef4d 18be 6c5d 61bd 8030 6ebe
000000f0: 99c8 e03b de0b 313e 3ae7 4a3e 3e23 013c
00000100: 1a90 073c ba3f 6ebe f749 2cbe 4984 e2bd
00000110: 0cc0 7ebe 5f8d 54be 6b87 25be 3604 753e
00000120: 52cd 2c3e 964a 69be 21a5 713e 9a66 2fbe
00000130: ec9b 8b3e 5302 133e dd8d 183e 7ef7 a83d
00000140: 52be 6b3e b2de 68be d046 97be 27f4 8d3e
00000150: f982 b0bc 4d94 433d e70f 53be 977a 703d
00000160: d44b d0bc a56e 48bc e2ea b83d b4e3 8c3e
00000170: ed62 25be 6615 a03d 3058 6ebd 125d 4ebe
00000180: 8998 5f3e cde7 05be 4098 02be 2caf 9abe
0.020389218 0.26912776 -0.15663253 0.108267814 0.014381062 -0.0987183 -0.22475925 0.28196284
-0.24469663 0.07510061 0.1479468 -0.19290787 0.3112515 -0.051446807 -0.046782672 -0.20399415
0.093976885 0.024690894 -0.092492744 -0.2613622 0.28242296 0.0025292996 -0.18466683 0.1841716
0.26032692 0.12319213 0.11118913 0.19923759 -0.122491375 0.2400356 0.15305996 -0.28033116
-0.0015066474 0.26488876 -0.2761129 -0.19342297 0.23513396 0.15221049 0.024194157 0.01767181
0.06760895 0.13829608 0.13141063 0.0270328 -0.030763624 -0.12930863 -0.26458147 -0.020982273
0.011223764 0.28886908 -0.22814028 -0.11621116 -0.24503383 0.21925911 -0.1579971 -0.30789727
-0.002202464 -0.1487348 -0.055020735 -0.23260689 0.0068598506 0.17289683 0.19814768 0.007881938
0.008274103 -0.23266497 -0.1682509 -0.11060388 -0.24877948 -0.20757054 -0.16164939 0.23927388
0.16875198 -0.22782359 0.23598148 -0.17128983 0.27267396 0.14356355 0.14897867 0.082503304
0.2302182 -0.22741202 -0.29546213 0.27725336 -0.021546828 0.047748853 -0.20611535 0.05871066
-0.025426783 -0.012233411 0.09029175 0.27517474 -0.16151018 0.078165814 -0.05818957 -0.20152691
0.21835531 -0.13076706 -0.12753391 -0.3021177

bias f4 [10]
00000000: 069b a3bd 20d9 15be d55f eabd c94d 3dbd
00000010: f9f3 283d 072a 02bc 2dcd f23c c62e fabd
00000020: 3a44 84bd 0c1a 513d
-0.07988553 -0.14633608 -0.1144406 -0.04621676 0.041248295 -0.00794459 0.029638851 -0.122159526
-0.06458326 0.05105023

weight f4 [10, 10]
00000000: 633d 9fbe 3af0 0ebe 42cf 39bd 6f5f 83be
00000010: 26c4 823e 4138 98bd b674 983e 903c 7c3d
00000020: db2e 65be 4229 97be 0204 323e 073e 85be
00000030: ac48 9dbe a527 973e e906 113e b89d 9ebd
00000040: 9ce6 a1bd 9d05 4ebe 83d7 453e 391d 91be
00000050: 57f3 773e c06a a13e c8bc edbd 35b1 0e3c
00000060: f783 243d 5875 7dbe 3cbf 2abe 40f9 603e
00000070: ecb1 c23b b234 323e 943a 9a3d 6354 08be
00000080: 1a1c 493e 1e76 85be 9936 8bbe f255 56bc
00000090: 7d34 cd3d 4573 453c ad74 49be cf5e 34be
000000a0: 8e33 49be 68ef 68be 30d0 26bd 1f8c cd3d
000000b0: 2529 993e 0e44 d23c 0182 8c3e bcc0 933e
000000c0: bc6c 58be d593 2a3e f896 87be 019f 07bd
000000d0: ca1c 3d3e d5f3 aebd bdfa d63d 279b 863e
000000e0: 979e 633e 8c79 9abe a4af 8d3e 5d7f 6d3e
000000f0: 1f30 4f3e 28e1 81be 6033 733e 310a eabd
00000100: 5948 963e 89bb b6bd 3038 22be 0200 92bd
00000110: cc36 9c3d 25c9 c53d 5bac a93d 344a 5c3d
00000120: 8823 933e 2768 13be fed4 18be 8f39 153e
00000130: dcc8 2abd d9e3 98be 943b d9bd e53a c1bd
00000140: f83b abbc a5b1 83be 50f9 df3c 84d3 943d
00000150: e167 963e f153 e23d eb18 9d3e ce04 dbbd
00000160: 02b8 683e d119 283e 73d6 fc3c 91e1 3c3e
00000170: 1953 513e 2efa 8cbe cf98 7a3c 8648 acbc
00000180: 0f3e 143e 82c2 71be 1114 e93c ba48 803e
-0.31101522 -0.13958827 -0.045363672 -0.25658748 0.25540274 -0.074326046 0.29776543 0.061581194
-0.22381155 -0.29523665 0.17384341 -0.26023886 -0.30719507 0.29522434 0.14162792 -0.07744926
-0.079053134 -0.20119329 0.19320492 -0.28342608 0.2421392 0.31526756 -0.11608273 0.008709242
0.040164914 -0.24751794 -0.16674513 0.21970081 0.00594162 0.17402914 0.07530704 -0.13313441
0.19639626 -0.2606668 -0.27190092 -0.013082014 0.10019777 0.012051408 -0.19673415 -0.17614292
-0.19648573 -0.22747576 -0.040725887 0.100364916 0.29914203 0.025667217 0.27442935 0.28857982
-0.21135229 0.16657956 -0.26482368 -0.033110622 0.18468013 -0.08542601 0.10497043 0.26290247
0.22228466 -0.30170858 0.27673066 0.23193116 0.202332 -0.25367093 0.23750067 -0.11427725
0.29352072 -0.08922488 -0.15841746 -0.07128908 0.07627639 0.09657506 0.08284827 0.053781703
0.28738046 -0.143952 -0.14925 0.14572738 -0.04169546 -0.29861334 -0.10607067 -0.09435061
-0.020902619 -0.2572147 0.027340561 0.07266906 0.29376128 0.11051167 0.30683073 -0.10694276
0.22726443 0.16416098 0.030863976 0.18445422 0.20441855 -0.27534622 0.0152952215 -0.021030676
0.14476798 -0.23609355 0.028451951 0.25055486

bias f4 [10]
00000000: df2e 6e3e 43fc b9bd 4fc8 5ebd 4254 f2bd
00000010: 9a7c a23c c4d7 7ebd 6046 38be 8fc9 103e
00000020: 4c4e 86bd 055f 20be
0.23260067 -0.09081318 -0.054390248 -0.11832477 0.019834805 -0.06221749 -0.17995596 0.14139389
-0.06557903 -0.15661247

weight f4 [10, 10]
00000000: 3c7a 6d3e cab2 65be 8127 5cbe af59 7d3b
00000010: 2878 0c3b b599 293e d7e0 96be e57b 01be
00000020: 4c30 3d3d db0c b63d f6b1 a83d ef26 90be
00000030: bad4 57be 9482 c73c 86d5 88be 2b16 81be
00000040: 9ffe 983e c293 213e 6fa6 593e 5fc5 a53c
00000050: 9ea7 fe3d 0941 01be 2936 d93d 5145 8ebd
00000060: 948a 7d3d 9256 77be a5b0 46bd fbee 6dbe
00000070: 0b4a 9b3e e967 89be bbb6 9dbe 6177 0bbd
00000080: c198 96be 89af 70be 4ba4 653e 1d53 84be
00000090: e1a7 c83c a62e 91be 07aa 35be e253 62be
000000a0: e103 79be 30a9 643e b9fb 1dbe 40f8 193e
000000b0: ae9b 80bd ca75 623e 6a98 99be 343c 8cbe
000000c0: 65be f9bd daab d8bc 8415 b0bd 0aaa 323e
000000d0: 7379 873e 0f41 eabd cd5e b3bd f130 983e
000000e0: ad91 6abe b8b9 00be 9bd5 943e 9d9e 9a3e
000000f0: 97e3 743e 6f8f f2bc 83fe 493e fd09 24be
00000100: cf4c 6f3e a76e d33c c8dc 7abe 0bf7 98be
00000110: 3377 1e3e 9420 9a3e 6aed f9bc db1b 4fbe
00000120: 3c7f 7abd 9397 d5ba 498b dcbd c131 e63c
00000130: f14c 6ebe 4eb8 84be 88eb ab3d 1d19 f73d
00000140: 0d52 8d3e b8ba 17be 000d 00be d73e a9bd
00000150: e944 503d f7a0 c2bd 88f7 08bd 38fa 423d
00000160: a76d 8bbe 9972 9dbe c797 0abe e13f de3d
00000170: ecea 7f3d c73b 7bbe c78d 733e db4d a8bd
00000180: 9009 913e 4ad0 8b3e 8130 683d 3da9 eebd
0.2319116 -0.22431484 -0.21499445 0.0038658192 0.0021433923 0.16562541 -0.29468414 -0.12644918
0.046188638 0.08889171 0.08237068 -0.28154704 -0.21077242 0.024354257 -0.26725405 -0.25212225
0.2988176 0.15779021 0.21254896 0.020235715 0.12434314 -0.12622465 0.10606033 -0.06946815
0.061899737 -0.24154118 -0.048508305 -0.23235695 0.30329928 -0.2683709 -0.30803475 -0.034049395
-0.29413417 -0.23504461 0.22425954 -0.2584466 0.024494113 -0.28355902 -0.17740642 -0.22102311
-0.24317886 0.22330165 -0.15428056 0.15036106 -0.062796935 0.22115245 -0.29999095 -0.2738968
-0.12194518 -0.026449133 -0.08597854 0.17447677 0.26459846 -0.1143819 -0.08758316 0.2972484
-0.22907133 -0.12570846 0.29069218 0.30199137 0.23914944 -0.02960941 0.19725995 -0.16019435
0.23369144 0.0258096 -0.24498284 -0.2987598 0.15475158 0.3010298 -0.030508716 -0.2022547
-0.061156496 -0.0016295783 -0.10768754 0.028099896 -0.23271538 -0.25921863 0.083945334 0.12065337
0.27601662 -0.14817321 -0.12504959 -0.08263939 0.050846968 -0.09503358 -0.03343919 0.04760191
-0.27232096 -0.30751494 -0.13534461 0.10852028 0.0624799 -0.24534522 0.23784553 -0.08217975
0.28327608 0.2730735 0.056686882 -0.116533734

bias f4 [10]
00000000: 712e cdbd b797 52be 7333 5a3e 4ee5 a03e
00000010: 3820 033e 7fc2 e73d 31c7 59bd 961e 403e
00000020: 4f35 18bd c60e a1be
-0.100186236 -0.20565687 0.21308689 0.31424946 0.12805259 0.11316394 -0.05316848 0.18761668
-0.037160214 -0.31456584

weight f4 [10, 10]
00000000: 9b1d 5bbe ba8c cf3d 8076 c03c 199c 4ebd
00000010: 305f 4bbd 720c 03be 8938 9bbe 70fd 23be
00000020: 1482 633e 5b21 bd3d fb12 dcbd 4fb2 03bb
00000030: 55ac 8abe 0632 413c f417 493e cd5f 25be
00000040: 74aa 9f3e 55db 803e 9767 98be 7cc6 63be
00000050: 5c79 05be ae2e f13c 6ea6 45be bc58 cd3d
00000060: fe75 41be 85d9 253e 83f0 23be 87ae 393d
00000070: 3685 343c bcd3 01bd 3e3f 8dbd 33af 893e
00000080: c203 45bd d1a4 133e 5ea2 35bd da2c 4a3e
00000090: 97af 8b3e 9d6d 913e 6ab3 ad3d b1e4 243d
000000a0: 0dbc 93be 03c9 1c3e 1770 32bd 0329 363e
000000b0: e524 4a3d 5de7 5dbe c23d 4a3c 61b3 953e
000000c0: 99d8 68be 8965 2dbe 7230 40be 168c a0be
000000d0: 939c db3d dd4f 543e c1fb 2cbe f5ed f73d
000000e0: 013e 35be 6c78 973e b9da ddbd d593 f13d
000000f0: 0769 2e3d 9f4e 54be 58d2 da3d 24d4 0ebe
00000100: 6791 42be 0315 183e 7831 41be e9d2 8d3e
00000110: a70c 18be f557 963e 29cc 71bc b993 22bd
00000120: ae41 43be 8f21 8c3e b697 81be b673 393e
00000130: 844a 91be 8c5d 77be 7650 c1bd d831 ebbc
00000140: 16d3 623e c52f c4bc 0aa0 853e cc6d 3abe
00000150: 9b8c 83be 70db 80bd 096b 70be 64ba 25be
00000160: 5c99 a93c ffda cc3d 09c2 9cbe f7c6 83be
00000170: c6c2 a7bd 94c2 07be 77e1 06bd 22b1 4f3e
00000180: 03e6 9abc 47d2 08be 2a4e febd 1e01 963e
-0.21398012 0.10134263 0.023494005 -0.050441835 -0.049651325 -0.12797716 -0.3031657 -0.16014647
0.2221759 0.09234878 -0.10745808 -0.0020095294 -0.27084604 0.011791712 0.19638044 -0.16149826
0.31184733 0.25167337 -0.29766533 -0.22243685 -0.13034576 0.029441204 -0.19301769 0.1002669
-0.18892667 0.16196258 -0.16009717 0.045332458 0.011018088 -0.031696066 -0.06896828 0.2689148
-0.048099287 0.14418341 -0.0443443 0.19743672 0.27282402 0.2840394 0.08481486 0.04025716
-0.2885441 0.15311055 -0.04356393 0.17789082 0.04935159 -0.2167029 0.012343826 0.29238418
-0.22738875 -0.16933264 -0.1876848 -0.31356877 0.107232235 0.2073359 -0.16892911 0.121059336
-0.17699434 0.29584062 -0.10832734 0.11795775 0.04258063 -0.20733117 0.10684651 -0.13948113
-0.19000779 0.14851765 -0.18866527 0.27699974 -0.14848576 0.2936398 -0.014758148 -0.03969166
-0.19068024 0.27369353 -0.2531106 0.18110546 -0.28377163 -0.24156779 -0.09439175 -0.02871029
0.22150835 -0.02394856 0.26098663 -0.18205947 -0.2569321 -0.062918544 -0.2347833 -0.16184384
0.02070301 0.10002708 -0.30616787 -0.25737736 -0.08191447 -0.1325782 -0.032929864 0.20282415
-0.018908506 -0.13361464 -0.12417252 0.29297727

bias f4 [10]
00000000: 2538 423e 20c5 173e 2a2b 343d 90d2 233d
00000010: f5f5 6d3e 2e68 6a3e e710 4abe 2387 833e
00000020: 3d20 86be cba0 0cbc
0.1896673 0.14821291 0.043986477 0.03999573 0.23238356 0.22891304 -0.1973301 0.2568904
-0.2619647 -0.008583258

weight f4 [10, 10]
00000000: afb3 66bd 2aa1 023e 57c8 53bd 439e 663d
00000010: cfe5 683e 143c 223e 9cc5 dc3d 864f a3bc
00000020: 8bcb 40be 0ebf 6dbd 345f 1c3e 810e 22be
00000030: 3c55 8e3e af77 c03c ab00 543d 6b12 9abe
00000040: 8829 81be 6fa0 81be 3693 bf3d 4f51 27be
00000050: 2743 dabd 3800 973e 5242 a6bd a625 8abd
00000060: 9c37 d0bd 3e37 fbbc 50d0 17be 3d46 823e
00000070: 8aba c53d be8f fe3d 5768 e5bd 63d1 323e
00000080: 7de4 3dbe ad8c 903e 48f9 803e 688b 493e
00000090: 5953 723e 0012 283e 7a4f 85be 528c 8d3e
000000a0: 39e7 143e 8d04 81be fbdf 973e 3e86 9abe
000000b0: 99b6 613d f571 96be 9296 c23d d3ba 16be
000000c0: 42ab 81bd 546d 8abe bd15 373d d03b f93d
000000d0: e33b 6d3e c639 18bd 70f4 863e a5bb 2e3d
000000e0: 5e9c 81be 0845 103e a820 203e be28 0c3d
000000f0: 26b8 033e 9b26 223e f3c2 74bc 31eb 003e
00000100: 6318 b73c b056 d8bd dc7b 073e 3fe0 143d
00000110: 2b86 79be fe0b 9dbe 9159 ddbd ca55 7fbe
00000120: 7b28 013e e745 b73d 03c8 37be 1441 8f3e
00000130: b520 643d 1536 f9bc a56d 4b3e dcca 413e
00000140: f807 803e feef 9e3e 56b9 1fbe 7d50 e3bd
00000150: 6fae 893e ede4 9dbe 53de e1bc 7064 dabd
00000160: e1b6 cbbd fb35 35be 5647 87be 0bbe 21be
00000170: 87f4 8c3e f8c2 05be 2192 a63c 94b0 30be
00000180: 0303 8b3e 2b81 883e 564d 873d 22bd b6bd
-0.056323703 0.12756792 -0.05170473 0.056303274 0.22743915 0.1584323 0.107798785 -0.01993538
-0.18827645 -0.058043532 0.15270692 -0.15825845 0.27799404 0.02349457 0.05175845 -0.30092177
-0.25226998 -0.25317714 0.0935425 -0.1633961 -0.106573395 0.29492354 -0.08118118 -0.06745462
-0.10166857 -0.03066599 -0.14825559 0.25444213 0.0965472 0.124297604 -0.11201542 0.17462687
-0.18544193 0.28232327 0.25190187 0.19682086 0.23664607 0.16413116 -0.26037198 0.27646118
0.1454133 -0.25198784 0.2966307 -0.30180544 0.05510578 -0.29383817 0.09501375 -0.14719705
-0.06331493 -0.27036536 0.044698466 0.121696115 0.23167376 -0.037164472 0.26358366 0.04265942
-0.2531461 0.14088833 0.15637457 0.034218542 0.12863216 0.1583504 -0.014939058 0.12589718
0.022350496 -0.10563409 0.13230842 0.03634667 -0.24367587 -0.30673212 -0.10808099 -0.2493507
0.12613098 0.0894888 -0.17947392 0.27979338 0.055695254 -0.030421296 0.19866045 0.18925041
0.2500608 0.31042475 -0.15598044 -0.11099336 0.26890895 -0.3083872 -0.027571833 -0.10663688
-0.09946991 -0.17696373 -0.26421613 -0.15795152 0.2753031 -0.13062656 0.020333352 -0.17254859
0.27150735 0.26661047 0.066065475 -0.08922793

bias f4 [10]
00000000: 2b21 423e 6e05 2dbd f457 893e 8100 4e3e
00000010: 5875 b8bb 9599 52be 43ba 98be 7134 ec3b
00000020: 0757 e2bd fb84 dc3d
0.18957965 -0.042241506 0.26824915 0.2011738 -0.005629223 -0.205664 -0.29829606 0.0072084
-0.110517554 0.107675515

weight f4 [10, 10]
00000000: d052 833e 56df 913b d52d b4bd b06d ad3d
00000010: 97f2 6fbe 0714 afbd a1d7 bb3d dd2b 343e
00000020: b7f8 60be cde7 a23c 3843 143e a128 babd
00000030: a83e 993e 8846 8a3e 234e 34be 0490 6a3d
00000040: 8f70 26be 0d2e 513e 061a 483e e740 4cbe
00000050: d976 32be b6b3 1dbe a2fc 993e 461c 993e
00000060: 7645 4ebe 77fb 98bd 9063 34be bad0 90bd
00000070: b9f8 9ebe 35bd 103e 70e9 033e 5cf2 41be
00000080: f481 f53c 7cf9 bebd e459 aebc 2423 4e3d
00000090: 5235 173d ece9 8abe c76e 0f3e 0eb2 953e
000000a0: 4d4d 9b3e 485f 39be 81ac 9e3d e5a0 8f3e
000000b0: e2a0 d5bd 0e7d 96be 102c 94be 39f0 923e
000000c0: 89c7 03be 8e05 f83d 5621 33bd f9d0 3a3e
000000d0: 5a2b 663b 3f3f 7bbe 1f7f 57bd 103e 45bd
000000e0: 37d2 4b3c 673b 853e 18ec 39be 2fc4 863e
000000f0: 2e2c 8d3e d001 06bd 2122 153e 2812 55be
00000100: 6674 4c3e 2114 733d 7f62 99bd fb4f 7f3e
00000110: 1b29 3abc 4ce7 773e 890e 92bd 74c1 91be
00000120: 8b0b 14bd bbf9 833e 7b5d a7bd e486 97bd
00000130: df1e 763e f884 47be c59e 9b3d 5740 49bd
00000140: cd91 87bd 6b91 893c 1733 7b3d 0fd7 d53d
00000150: ccf2 ea3d 09c4 8fbe 1615 aa3c 2d3d 6fbd
00000160: 78c5 a83d c382 31bd f953 06be 2ea6 c83d
00000170: 45d7 893e 970f 90bc ce9c 183e 895e 81bc
00000180: c67c 83be ae0e 203e 4de7 9e3c 35b4 d43c
0.25649118 0.0044516725 -0.08797804 0.08468187 -0.23432384 -0.08548742 0.09171987 0.17594858
-0.21969877 0.019885922 0.14478767 -0.090897806 0.29930615 0.27006936 -0.17607932 0.05726625
-0.16253875 0.20427723 0.19541177 -0.19946633 -0.1742815 -0.15400586 0.30075556 0.29904383
-0.20143685 -0.07469838 -0.17616105 -0.070710614 -0.31049135 0.14134677 0.12882018 -0.18940109
0.029969193 -0.09324929 -0.021283098 0.05032648 0.036916085 -0.27131593 0.14007102 0.29237407
0.30332413 -0.18102753 0.07747746 0.2805244 -0.104310766 -0.29392284 -0.28939867 0.286989
-0.12869085 0.121104345 -0.043732964 0.18243779 0.0035121054 -0.24535845 -0.052611466 -0.04815489
0.012440256 0.26021883 -0.18156469 0.2632155 0.2757277 -0.032716572 0.145638 -0.20807707
0.19966277 0.05934537 -0.0748949 0.24932854 -0.011362339 0.24209327 -0.071316786 -0.28467906
-0.03614382 0.25776467 -0.08172127 -0.07398775 0.24035214 -0.19484317 0.07598642 -0.049133625
-0.06619606 0.016792974 0.06132802 0.1044141 0.11472091 -0.2807925 0.020762008 -0.05840795
0.08240789 -0.043337595 -0.1311797 0.09797321 0.2692205 -0.017585559 0.14903566 -0.015792148
-0.25681132 0.156306 0.019397402 0.025964836

bias f4 [10]
00000000: 9302 623d ff15 413e cc51 653e aab1 6abe
00000010: a0a6 ed3d ae2c f73d f054 2b3e f694 64be
00000020: 938d ab3d cc23 953d
0.055178236 0.18856047 0.22394484 -0.22919336 0.11604047 0.12069069 0.1673162 -0.22322449
0.083766125 0.07282218

weight f4 [1, 10]
00000000: f3bd 72be 2d56 803e a22d c1bd fb98 5fbd
00000010: df23 563e b7ab 13be 49cb 96be 036e 95be
00000020: db60 533e cc59 0c3d
-0.23705272 0.25065747 -0.09432532 -0.054589253 0.20912121 -0.14420973 -0.2945197 -0.29185495
0.20642416 0.034265324
