src/torchfort/torchfort_local/burgers_model.pt (torch, 13423 bytes, 7 tensors)

weight f4 [20, 2]
00000000: f5e7 383e c9cf cf3e 1c1e ed3e ae5e 99be
00000010: c3ed e83e b539 e13d 9853 f23e 9c63 11bf
00000020: a830 ee3e 7075 003e 803f 233f 7696 6b3e
00000030: 23e5 f63e bf03 bbbe 3dac 18bf 222a ba3e
00000040: 5b98 e03d c58e 003f e317 1dbf 431d 9fbe
00000050: 7619 edbe 1e49 b13d f36a 303f 5eea 30be
00000060: 34a2 bbbe 932d 5dbe 05d6 983e da02 04bf
00000070: 1937 a23e 3816 0ebf 4959 d03d 6bc6 e4be
00000080: ada1 bbbd eb9e 363e 811d 0a3f 8f72 2b3e
00000090: f179 b73e d542 0f3f f94f d43e 80d1 32bf
0.18057235 0.40588215 0.46312034 -0.29955047 0.45493898 0.10997335 0.47329402 -0.56792617
0.46521497 0.12544799 0.6376877 0.23006615 0.48221692 -0.36526296 -0.59637815 0.3636027
0.109665595 0.5021785 -0.61364573 -0.31077012 -0.46308488 0.08656524 0.6891319 -0.17276904
-0.3664719 -0.21599416 0.29850784 -0.5156685 0.3168266 -0.55502653 0.1017328 -0.4468263
-0.091616966 0.1783406 0.5395127 0.1674292 0.3583522 0.5596135 0.41467264 -0.6985092

bias f4 [20]
00000000: 48a3 273e 705d 323f a475 f93e 6ffa 17bf
00000010: 8952 2c3f e2f8 1c3f 02d8 ee3e f028 9f3e
00000020: 07d7 b93d 42b0 163f 2b88 013f d3f1 713e
00000030: 7890 0d3f 5b6d 6cbe d1b1 5fbe 5f88 b53e
00000040: f6d4 103f 466b fabe a46e 0f3b d654 c33e
0.1637088 0.69673824 0.48722565 -0.59366506 0.6731344 0.61317265 0.46649176 0.3108592
0.09074216 0.588627 0.505984 0.23627405 0.55298567 -0.23088591 -0.21845175 0.35455605
0.5657495 -0.48909968 0.0021886015 0.38150662

weight f4 [20, 20]
00000000: 139e dc3d aa36 dabd 261d 40be 277b ddbd
00000010: 66b0 0abd 139c 88bd a0e0 fa3c 72ed 31be
00000020: 5795 d5bc ccd5 893d 484c 083e c099 713c
00000030: 14cc 2ebd ece1 5ebe 0d6c 94bd cf4a ce3d
00000040: 312b f93d 1956 00ba 016a 33be 3fd0 2e3d
00000050: e468 60be df56 18bd f5cd cebd c5bb 573e
00000060: 98ce 43be 86d0 2abe c658 21be e8be 3fbe
00000070: 14c2 56be fc7b f8bd da15 52be 1132 9d38
00000080: 0835 1dbd 1d86 093e 6b8e 293e 0615 2abe
00000090: ebdb a93b eada 633e a65e 793d d682 263d
000000a0: baaf 983d 6028 d5bd ff69 f83b ffdc b83d
000000b0: d6a3 2abe 0037 183e 36db 05be 8352 53be
000000c0: 1fcc c43d 31d3 16bc b9b1 14be 559d 1f3e
000000d0: 71ec 78bd e26c 57be 7b88 9ebd f2a9 44be
000000e0: 5cc2 c83d 69c2 49be d20b 05be 111b 623e
000000f0: b914 813c f68c b9bc df1b 543e b3e8 3cbe
00000100: 55ac b0bd 5a0c 0c3e 461c 483e 77b7 533d
00000110: 5b84 9dbd 7e4b 2d3e 48ec be3d 759b 433e
00000120: bc63 5abc e86e 643e b14c 473e 6481 113e
00000130: dc23 56bd c3f5 dfbd 14e9 db3d b103 9abd
00000140: 0832 093d 5cc4 763d 58cf 2f3e 353d 4bbe
00000150: 6ae1 84bd d27d 3f3e a1a2 eb3c c6f1 e53c
00000160: 337c bfbb 411e 003e 5e3e 2c3d 1591 383e
00000170: 13e7 2f3e 3d22 3f3e bd08 3e3e 4417 8f3d
00000180: 1206 94bd c0c5 453d d6e9 063e 6a6d ecbd
00000190: 996f 45be f569 d3bd 2910 613e dfeb c43d
000001a0: e98b 343e e06d e63d 9320 413e d004 9cbd
000001b0: c0a6 b5bd 3d5e 22bd c17d 3a3d a18f 50bd
000001c0: 29f2 a5bd 0bce 833b 60e2 1ebe 54a5 143e
000001d0: a1bd b63d 75a4 0d3e ef51 223e d757 513e
000001e0: 1d96 febd 5c2d f2bd 1fed dd3a 6d9a 90bd
000001f0: c639 183e 3d3e bb3d 10a3 09bd 7ae8 13be
00000200: e79d 15be 76aa 503d 6c97 513e c452 663c
00000210: 614d 9e3d 52f9 37bd 8759 b1bd fe1c f93c
00000220: f143 95bd 7d65 b7bd aa63 02be f735 e8bd
00000230: 0a07 343e 8507 913d 3166 58be 9f2c 10be
00000240: 3adf f2bd 3cc4 d9bd 7e4b 543e d46d 04be
00000250: 2255 63bd b65e 7cbc 89b1 32bd b4b5 25be
00000260: fbf1 5bbd c4a2 1d3d 7847 813d 6f81 2cbe
00000270: 5718 5f3e 1c21 a23c d007 20be e7b2 22bd
00000280: 9de3 ae3d 2c60 513d 8f74 3dbe 3e63 04bd
00000290: 5bce 48be 4c7a ce3c 166e 9abd 9c6b 2ebe
000002a0: c1f0 fbbd 9723 8ebd 5a0a 8f3c 78d7 25bd
000002b0: 7ad7 1fbe 708e e63d 9c8f 1cbe 3140 2d3e
000002c0: d5c2 a93d 015f 193c 45e8 17be cf78 aa3d
000002d0: 85b3 333c 998d 2cbe 5274 32bd 66c4 253e
000002e0: fee2 d0bd 486d 1cbe 0784 56be 530c 63bd
000002f0: 4a37 76bc 434d 04be 5d6c 903d a224 513e
00000300: c122 d5bd b76a d53d 8680 85bd 7269 61be
00000310: 991c 933d 1242 443d 0bc9 46be 8e07 3c3e
00000320: bacb b3bc 80a8 3d3e dbb0 db3c 9b85 193e
00000330: 27ef e83d 0f19 373e efa9 013e 39a3 263e
00000340: f293 76bd dfda 393e 66e4 fbbc 2369 1c3e
00000350: 754a a5ba 6bfd ed3c 7b23 14be 6c28 45be
00000360: bf25 37be 81fc 3cbe c276 1a3e 0221 10be
00000370: 21b2 54be b9dc 253e f259 c63d eb5c 87bd
00000380: 1da5 f93d 9881 62be 44b3 a9bd bd4c 013e
00000390: d7c7 b23b 4c94 0cbe 9f24 ab3d 077f 14bd
000003a0: b48b 8d3b 3dd1 273c 216c b7bd 95f4 4dbd
000003b0: 9c2c 98bc 4d70 e13c 9838 573e 4593 1fbe
000003c0: c53f 7bbd 9e99 743d f9bd 373e 5daf a0bd
000003d0: 597a 61be aca3 7f3d afb5 a9bc 67df 13be
000003e0: b998 82bd c4a5 393e 5a6d b5bd faba 34be
000003f0: 9748 25be 4302 bd3d eee6 4ebe fc09 ba3d
0.10772338 -0.106549576 -0.18761119 -0.10814505 -0.033859633 -0.06670394 0.030624688 -0.17375734
-0.026072187 0.06730232 0.13310349 0.0147461295 -0.042675093 -0.2176587 -0.072471716 0.10072862
0.12166441 -0.0004895642 -0.17520906 0.042679068 -0.21915013 -0.03719222 -0.10097877 0.21067722
-0.19121778 -0.16681108 -0.1575652 -0.18725169 -0.20972472 -0.12133023 -0.20516148 7.495669e-05
-0.038380653 0.13430066 0.16558234 -0.16609582 0.005183687 0.22251478 0.06088128 0.04065212
0.07455392 -0.104080915 0.007580995 0.09026527 -0.16664061 0.14864731 -0.13071904 -0.20636944
0.096092455 -0.009205625 -0.14520921 0.15587361 -0.060772363 -0.21037629 -0.07740875 -0.19205454
0.09802696 -0.19703068 -0.1299279 0.22080638 0.015756952 -0.022650223 0.20713757 -0.18448143
-0.0862662 0.13676587 0.19542035 0.051688638 -0.076912604 0.16923329 0.09322411 0.19102271
-0.013329443 0.22307932 0.19462849 0.14209515 -0.052280292 -0.10935547 0.107378155 -0.07520235
0.03349498 0.060245857 0.17168939 -0.19847567 -0.06488307 0.1870034 0.028764071 0.028069388
-0.005843663 0.12511541 0.042051665 0.18024094 0.17177992 0.18665405 0.18558021 0.069868594
-0.0722772 0.048284292 0.13175139 -0.115443066 -0.19280852 -0.10322944 0.21978821 0.09615301
0.17631496 0.11251426 0.18860082 -0.076181054 -0.08869696 -0.039640654 0.045530085 -0.050918225
-0.08102829 0.004022365 -0.15516043 0.14516193 0.089228876 0.13832267 0.15851568 0.20443664
-0.124309756 -0.11825058 0.001693163 -0.070607044 0.14865789 0.091427304 -0.033602774 -0.14444152
-0.14611016 0.050943814 0.20467919 0.014057819 0.077296026 -0.044915505 -0.08659654 0.030409332
-0.072883494 -0.08954904 -0.12733331 -0.11338418 0.1758081 0.07081512 -0.21132733 -0.14079522
-0.11858983 -0.10633132 0.20731923 -0.12932521 -0.05550111 -0.01540344 -0.043626342 -0.16182595
-0.053697567 0.038485304 0.0631246 -0.1684625 0.21786629 0.019791178 -0.1562798 -0.039721396
0.085395075 0.051117107 -0.18501495 -0.032321207 -0.19609968 0.0252048 -0.075405285 -0.17033237
-0.123017795 -0.06940382 0.01746099 -0.04048869 -0.15609542 0.112576365 -0.15289158 0.16919018
0.082891144 0.00936103 -0.14834698 0.08323824 0.010968094 -0.1685089 -0.043567963 0.16188201
-0.10199545 -0.15276062 -0.20948802 -0.055431675 -0.01502783 -0.12920098 0.07051919 0.2042413
-0.104070194 0.10420745 -0.065186545 -0.2201288 0.07183189 0.047914572 -0.1941263 0.18362257
-0.02194773 0.18521309 0.02681773 0.14992373 0.1137374 0.17880653 0.12662481 0.16273202
-0.060199685 0.18149899 -0.030748557 0.15274481 -0.0012610691 0.029051503 -0.1446666 -0.19253701
-0.17885493 -0.18455698 0.15084365 -0.14075091 -0.20771076 0.1619748 0.096851245 -0.066095196
0.12189696 -0.22119749 -0.08286145 0.1262693 0.0054559517 -0.13728446 0.08356594 -0.036253955
0.0043196324 0.010242757 -0.08956171 -0.05028208 -0.018575959 0.02751937 0.21017683 -0.15583523
-0.061340112 0.059716813 0.17943563 -0.07845948 -0.22019328 0.06241195 -0.020716516 -0.1444069
-0.06376786 0.18129641 -0.08858748 -0.17649451 -0.16140972 0.09228947 -0.2020528 0.090839356

bias f4 [20]
00000000: ce19 153e 3e02 3b3d 817b d0bd c608 fb3d
00000010: fb6f fa3c ac9d 623e db2f ef3d fa0f a1bc
00000020: a298 09be 13e4 96bc dd24 f23d 81d8 d4bc
00000030: 5ae2 59bd 1155 00bd b882 25bd 3d3c 103e
00000040: e61d 23bd cf1f 443e cc86 c93d ee72 363e
0.14560625 0.045656435 -0.101798065 0.12257533 0.030570975 0.2213046 0.116790496 -0.019660939
-0.13437131 -0.018419301 0.11823437 -0.025982143 -0.05319438 -0.031331126 -0.040407866 0.14085479
-0.039823435 0.19152759 0.098401636 0.1781728

weight f4 [20, 20]
00000000: 84a1 4bbe b0c8 2d3e f9a1 733d 5ec8 523e
00000010: 12fb 00be ebf3 26be 6d85 d83d 75f6 4bbe
00000020: d7bd 17bd 8df6 ad3d ef61 25bc 8aad 0c3e
00000030: 7cab f13d 90f1 5bbe 3196 9ebd bd83 94bd
00000040: 71ff c63c 12de 1c3e e51c 25be 2b9a 7ebd
00000050: 4949 18be cafd 22be bc82 ad3d 672e 05be
00000060: 456a 243e d848 2b3c 4d48 183e a2eb 2cbd
00000070: c54c 50bd e309 0cbe d0c4 4dbe 035b 9a3c
00000080: c671 61be c1c5 06be 5ae3 2fbe 77a0 4e3e
00000090: 851d 603e 5ed4 81bd c63b 243e 2189 383e
000000a0: b2de 6cbd 6568 283d 7cca 4c3d 03bd e93d
000000b0: 9245 8abc 6b14 42be 22b8 5dbe a15f 3c3e
000000c0: f738 89bc 0668 553e 64f4 2abe 1653 93bd
000000d0: 9514 533e dd67 fa3d b3d0 083e 27c9 efbd
000000e0: c9f4 9c3d 75e5 1a3e c2bb 0f3d 1939 a4bc
000000f0: 542b ba3b 35ad a6bc 7c18 36be b96d 5fbc
00000100: 5e12 9b3c 2239 023e dbaf 2abe d3e8 a53c
00000110: e344 48be f975 32be acda 88bd 4e32 dabd
00000120: cbb8 cc3d 16dc 193e 56de 5fbd 8997 bf3d
00000130: 3049 1c3e b04b 2ebe cda2 3b3e 7994 053e
00000140: f7fd 0bbe 21f0 36be 19b7 523e 32bd 233e
00000150: d5a0 313e c94f fb3d 166d 16be 6a9c 65bd
00000160: 204c 34be cd98 953c fb1c 973d 868e e7bd
00000170: 73de 84bd f20e 4a3e 8f91 d0bd c692 39be
00000180: 8b68 2c3d 7f75 ba3d 2a33 303e 4dca 4d3e
00000190: 712f ac3c 1296 b1bd efc1 233e 771f 853a
000001a0: 31d6 453e 9182 0d3e b552 afbd 41ac 95bc
000001b0: 6402 fdbc f74b 713d 8682 28be d5b9 4e3e
000001c0: efac d6bd 0c74 543e 0bab 41be 6e24 213e
000001d0: fda2 9dbc dab3 033e c647 1e3e 5d68 533d
000001e0: 97e2 5abe 9707 5f3d 727b 6e3d cff7 36bb
000001f0: db22 5fbe f30f c0bc 7f72 c4bd b7a9 10be
00000200: 4f71 34be 9046 993d 44f1 62bd a009 50be
00000210: 89f9 9b3d 1bb6 b23d b711 b4bd 8c56 983d
00000220: 9512 62bd 9f32 93bd 8e6d 21bd 4a27 1a3e
00000230: 3d62 1f3e 14ae 65bc 24fb 43be fc1d 013e
00000240: 015e 4a3c 28b8 5bbe 3400 523e 31b9 83bc
00000250: b309 093e 4ec0 0f3e c70b 3c3e 32e9 443e
00000260: 9177 babd b814 d93c 7dbb b43d e687 fcbd
00000270: 6599 0a3e 36bd 90bd 712e 303e 97dc 163e
00000280: 6ef1 333d fd5e 883d 01ff 1dbc e0f9 153e
00000290: 26ae 203e f9af 253b 63ef 13bd 8f13 3e3e
000002a0: 5f90 a43d 4966 1f3d 9053 60be 0c89 c83c
000002b0: 9871 f53d 3a8a 8ebc b6cb 1c3e 322d 46be
000002c0: d540 81bc 72a5 d03d 9e62 0d3e 2956 123d
000002d0: d983 67bd 9bbe f93d 3ab9 eabd cb85 0cbe
000002e0: 08c2 273c 6de1 3dbe 33f9 fd3c 3dae 193e
000002f0: 02d0 20be ad44 82bd 1a3a 063c b5aa 1fbe
00000300: eb5e 543e 88f0 61be 2535 8e3d f2e6 b03d
00000310: d37e 14be b20e 4abe 0c9c 173d 73ea f33d
00000320: a4e1 053e f022 143e 323f c63d 1952 ba3d
00000330: 67f5 c33d ec65 113c fe13 09be 3b01 f5bd
00000340: b99f f4bd b3cd a63d 3984 613e 6e41 4c3e
00000350: 89cb d4bc 9dbf 1e3e 198b 623e 1cb8 35be
00000360: 353e c73d e23f c8bd 6201 10be 5186 a73d
00000370: 5fb8 f03d 9b30 643c e461 243e 6678 d5bd
00000380: eb5c 253e f400 cfbd d298 9f3d 4212 9cbd
00000390: 23b1 af3d 693a 5e3e 1deb 9b3d 91eb 603e
000003a0: 946d d4bd 4605 083e 7cee bcbc a370 c4bd
000003b0: f98a 3cbe d84a 13bd dbfa 403e 795e c6bd
000003c0: ff38 41be 1bd7 cc3d dde5 cc3d 4617 233e
000003d0: c138 103e 1b17 93bc b895 40be d519 053e
000003e0: 9d6d 7f3d fc92 febd 541d f0bd 5643 44be
000003f0: 1d79 8a3c b44a 04be 1acf 983d de59 28be
-0.19885832 0.16971087 0.05948064 0.20584247 -0.12595776 -0.16303985 0.10572324 -0.19918235
-0.03704628 0.084942915 -0.01009415 0.13738075 0.11800286 -0.21478868 -0.077434905 -0.072516896
0.024291726 0.15319088 -0.16124304 -0.062158745 -0.14871706 -0.15917125 0.08472201 -0.13005982
0.16056164 0.010454379 0.1487133 -0.042216904 -0.050854463 -0.13675646 -0.2009461 0.018842226
-0.22016057 -0.13161375 -0.17176571 0.201784 0.21886261 -0.06339334 0.16038427 0.1802106
-0.057829566 0.041115183 0.04999779 0.11413004 -0.016878877 -0.18953101 -0.21652272 0.18395855
-0.016750796 0.20840463 -0.1669479 -0.07193582 0.2061332 0.122268416 0.13360862 -0.11708289
0.076638766 0.15126593 0.03509117 -0.020046758 0.0056814346 -0.020346263 -0.17782778 -0.013637
0.018929657 0.12717107 -0.16668646 0.02025262 -0.19557528 -0.17427815 -0.06682333 -0.10654126
0.09996184 0.15025362 -0.054655395 0.09355075 0.15262294 -0.1702106 0.18323822 0.13044919
-0.13671099 -0.1786504 0.20577659 0.15990141 0.17346509 0.12271077 -0.1469005 -0.05605737
-0.17607164 0.018261338 0.073785745 -0.11306481 -0.06487741 0.19732264 -0.10184013 -0.18122396
0.042091887 0.09104442 0.17207018 0.20096703 0.021018716 -0.08671202 0.15991949 0.0010156472
0.19319989 0.13819338 -0.08560697 -0.018270614 -0.030884929 0.058910336 -0.1645604 0.20188077
-0.10482203 0.20747393 -0.18912904 0.15736553 -0.019242758 0.12861577 0.15457067 0.0516132
-0.213755 0.054450598 0.058223195 -0.0027918702 -0.2179064 -0.023445105 -0.09592151 -0.14127241
-0.17621349 0.07484162 -0.05540587 -0.20316172 0.076159544 0.0872614 -0.08792441 0.074383825
-0.055193502 -0.071873896 -0.03941112 0.1505405 0.15564819 -0.014018554 -0.19138771 0.12609094
0.012351514 -0.21456969 0.2050789 -0.016079517 0.13382606 0.14038202 0.18363868 0.19229582
-0.09104837 0.026499137 0.08824823 -0.12330608 0.13535078 -0.07067339 0.17205216 0.14732586
0.043931417 0.066587426 -0.009643317 0.14646101 0.15691432 0.002528189 -0.03611697 0.18562149
0.08035349 0.038915906 -0.21906877 0.024479412 0.11984557 -0.017399896 0.15312085 -0.19353178
-0.015777985 0.10187806 0.1380715 0.0357267 -0.056522224 0.12194558 -0.114611104 -0.13722913
0.010239132 -0.18543024 0.031002617 0.15007873 -0.15704349 -0.06360755 0.008192563 -0.15592463
0.20739333 -0.22064412 0.0694373 0.08637799 -0.14501505 -0.19732168 0.037014052 0.11909952
0.13074356 0.14466453 0.09680022 0.0909769 0.09568291 0.008874398 -0.13386533 -0.11963125
-0.11944527 0.08144703 0.22023095 0.19946834 -0.02597596 0.15502782 0.22123374 -0.17746013
0.09728662 -0.0977781 -0.14063028 0.08179916 0.11753916 0.013927604 0.16052967 -0.10423355
0.16148727 -0.10107604 0.0779282 -0.0762067 0.08578708 0.21701969 0.07613204 0.21964861
-0.10372463 0.13283262 -0.023062937 -0.09591796 -0.18412389 -0.03596005 0.18845694 -0.09685988
-0.18869399 0.100019656 0.100047804 0.15926847 0.1408415 -0.017955353 -0.18807113 0.12998135
0.062360395 -0.12430379 -0.11724344 -0.19166312 0.016903454 -0.12919122 0.074613765 -0.16440532

bias f4 [20]
00000000: ac8c 973b 93f7 fc3d 9faf f8bd abfe da3d
00000010: ba77 303a 155b 133d 2afc 2c3e 7f48 d9bd
00000020: 8a8d 25b9 d2ee 56be 3daf 253e ff30 d6bd
00000030: a587 cd3d 4647 f43d 4b4d 1dbe 26ab 843d
00000040: 4673 513e f41b 213e 3100 323e e2e9 1b3e
0.0046249237 0.123519085 -0.12142872 0.10693105 0.0006731708 0.035975534 0.16893068 -0.10609531
-0.00015788354 -0.2098954 0.1618013 -0.10458564 0.10035638 0.11927657 -0.15361516 0.064779565
0.2045413 0.1573332 0.17382886 0.15225938

weight f4 [1, 20]
00000000: e1f8 1bbd e03e 3abe 30b5 bd3d 32ad bdbd
00000010: 598e 30be 0418 8d3d 98aa 293e c7b9 303d
00000020: 3286 033e 4eff a83d db40 963d 6459 8cbd
00000030: 3281 f93d 61f2 d03c 5c7e 433e bd5d 613d
00000040: 14f5 4e3e d613 20be 11ed 623e eae6 c53d
-0.038079146 -0.18188047 0.092630744 -0.0926155 -0.17241801 0.06889346 0.16568983 0.04314592
0.1284416 0.082518205 0.07336589 -0.068529874 0.12182845 0.0255062 0.19091171 0.055021036
0.20210677 -0.15632567 0.22160746 0.09663184
